rrs_unity/Assets/ML-Agents/Examples/3DBall/TFModels/3DBall_onnx.onnx (onnx, 74221 bytes, 9 tensors)

62 f4 [8]
0	0x3d4fca37	0.050729956
1	0x3d4cdf7e	0.050017826
2	0x3f1cf5d7	0.6131262
3	0x3e3f9d79	0.18712415
4	0x3f1ea327	0.619677
5	0x3efa944d	0.4894127
6	0x3f207075	0.62671596
7	0x3ef5fc53	0.4804407

action_model._continuous_distribution.log_sigma f4 [1, 2]
0	0xbdf6c763	-0.12049749
1	0xbe1baf00	-0.15203476

action_model._continuous_distribution.mu.bias f4 [2]
0	0xbb677b51	-0.0035321305
1	0x3c5b9b38	0.013403706

action_model._continuous_distribution.mu.weight f4 [2, 128]
0	0xb919bc06	-0.00014661261
1	0xbc021c06	-0.007941252
2	0x3bc69157	0.0060598063
3	0x3ddfe5bd	0.10932491
4	0xbd0a0cbf	-0.033703562
5	0xbcacebb7	-0.021108491
6	0x3da9dfd4	0.08294645
7	0x3bf5d06a	0.0075016515
8	0x3b8f9641	0.0043819253
9	0x3d261b24	0.040553227
10	0x3d8d7498	0.06907004
11	0xbac94ad4	-0.0015357384
12	0xbb47b89e	-0.003047503
13	0x3d089396	0.033343874
14	0x3d94939e	0.07254718
15	0x3cd6c85d	0.026218588
16	0xbd4a2297	-0.049349394
17	0xbc8e79dd	-0.017392093
18	0x3c109320	0.00882414
19	0xbcd828a2	-0.026386563
20	0xbd02151e	-0.03175842
21	0xbbfd2ff1	-0.0077266623
22	0xbc064803	-0.00819588
23	0x3c7be3e9	0.015374162
24	0xbd16f1b5	-0.036851604
25	0x3cc1c527	0.02365358
26	0xbc01bc41	-0.007918418
27	0x3c71f30a	0.014767418
28	0xba34e7ea	-0.0006901013
29	0x3d9300b1	0.07177866
30	0x3b2dbcb9	0.0026510193
31	0xbd3c196b	-0.045922678
32	0xbcb68641	-0.022280814
33	0x3cd75a7b	0.026288262
34	0xbd65cdbe	-0.056104414
35	0xbb667379	-0.0035164042
36	0xbb9587c3	-0.004563303
37	0x3db4f10f	0.08835041
38	0xbd47ac03	-0.048748028
39	0xbbc29f70	-0.0059394166
40	0xbc9b9f0c	-0.018996738
41	0xbc14a3ab	-0.009072225
42	0x3d2bc60a	0.04193691
43	0xbc60c085	-0.013717775
44	0x3c60eed4	0.013728816
45	0x3d180f6a	0.037124075
46	0x3d92c6ca	0.07166822
47	0xbbb47536	-0.0055071367
48	0x3bc41fb9	0.005985227
49	0x3b82a69e	0.0039871475
50	0xbd890531	-0.06690443
51	0x3d8d7b54	0.069082886
52	0xbc2881f8	-0.010284893
53	0x3d6bbe4f	0.05755454
54	0x3cdd49c3	0.027012711
55	0xbc8c29a1	-0.017109694
56	0xbd3070fe	-0.043076508
57	0xbd2ec5fc	-0.04266928
58	0x3d90a4b5	0.070626654
59	0x3c823829	0.01589592
60	0xbc900bbe	-0.017583724
61	0x3c1e4893	0.009660858
62	0xbbfd438f	-0.007729001
63	0xbb8b8d14	-0.004258761
64	0x3c9108ff	0.017704485
65	0xbd0f04cc	-0.034916684
66	0x3cc75440	0.024332166
67	0x3d000f15	0.031264383
68	0x3cd8d52d	0.026468838
69	0x3d6a0e31	0.05714244
70	0xbb0b8cdb	-0.0021293673
71	0xbb4bae46	-0.0031079217
72	0xbcad8de0	-0.021185815
73	0xbcc3fc1d	-0.023923928
74	0x39b89f77	0.00035214025
75	0xbb8107e4	-0.003937708
76	0xbc63ab8d	-0.013895881
77	0x3cc83521	0.024439396
78	0x3cc10003	0.023559576
79	0xbbc6bcc4	-0.006064983
80	0xbc4629fb	-0.01209497
81	0x3c7eb0a6	0.015545046
82	0x3dae831a	0.085210994
83	0xbd957626	-0.07297926
84	0xbb79c0e3	-0.0038109354
85	0xbc5ba45e	-0.013405887
86	0x3c67c655	0.014146407
87	0x3c71db08	0.014761694
88	0x3bbd2b18	0.0057729594
89	0xbce99908	-0.028515354
90	0xbda3a0fa	-0.07989688
91	0x3d661c09	0.05617908
92	0x3c8adf84	0.016952284
93	0x3c155bc7	0.00911612
94	0x3c8482b3	0.016175603
95	0x3d127ad7	0.03576168
96	0xbcc8c3ce	-0.02450743
97	0x3be4b216	0.0069792373
98	0x3d677fb7	0.056518283
99	0x3d08e38c	0.03342013
100	0xbcf64a7f	-0.03006482
101	0xbceb4591	-0.028719695
102	0xbd7ca6d6	-0.061682545
103	0xbdfcf43b	-0.12351271
104	0xba065c07	-0.00051254075
105	0x3d895762	0.0670612
106	0x3afa4746	0.0019094727
107	0x3cb1e4be	0.021715518
108	0x3cc30703	0.023807054
109	0x3ba55e26	0.0050466238
110	0x3c58d2a9	0.013233819
111	0x3c85a76c	0.016315185
112	0xbc2d2a30	-0.01056914
113	0x3c972b29	0.018453198
114	0x3d13ecaf	0.03611439
115	0x3bf81b61	0.007571623
116	0xbc6d0c77	-0.014468304
117	0x3d65a585	0.056066055
118	0xbd5dc8c6	-0.05414655
119	0xbc20ca38	-0.009813838
120	0xb8d63e57	-0.00010215927
121	0xbd1a4af9	-0.037669156
122	0xba8cd537	-0.0010744695
123	0xbd05ec88	-0.032696277
124	0xbbeb17f2	-0.0071744854
125	0x3bb24366	0.0054401634
126	0xbbe39fb3	-0.006946528
127	0xbd0ca945	-0.034341116
128	0xbb7e32d8	-0.003878763
129	0xbcc777af	-0.024349062
130	0xbc47ac6e	-0.012187107
131	0xbd41ecd0	-0.047344983
132	0xbbeb4cf3	-0.007180804
133	0x3d207874	0.039177373
134	0x3d71cebe	0.059035055
135	0xbbad1eab	-0.005283197
136	0x3b84406c	0.004036
137	0x3c77cebf	0.015124976
138	0xbd9fa69b	-0.07795449
139	0x3d088d86	0.033338092
140	0xbac44647	-0.0014974558
141	0x3c91db1e	0.017804679
142	0x3da1d019	0.079010196
143	0x3d355636	0.04427167
144	0xbceea9e0	-0.029133737
145	0xbcf55a48	-0.029950276
146	0xbb9776a9	-0.0046222997
147	0xbcc50999	-0.024052428
148	0xbce59916	-0.028027099
149	0xbcd619c0	-0.026135325
150	0x3b108f68	0.0022058133
151	0x3c75a78b	0.014993559
152	0x3e03c08f	0.12866424
153	0x3d0296e7	0.031882193
154	0xbc1c5b71	-0.009543286
155	0xbb5b648d	-0.003347668
156	0xba6b2dae	-0.00089713454
157	0xbd239f02	-0.039946564
158	0xbc8548db	-0.016270092
159	0x3d8490a1	0.06472898
160	0xbca41c29	-0.020032959
161	0x3d631697	0.055441465
162	0x3b9ebfdc	0.0048446488
163	0x3c25cb22	0.010119231
164	0x3bab491d	0.0052272216
165	0x3cb7fd7a	0.022459734
166	0xbd9f4d12	-0.07778372
167	0xbb754ce5	-0.0037429866
168	0x3bab864e	0.005234516
169	0xbc3d7a63	-0.011564824
170	0xbdaa8fa5	-0.08328179
171	0xbc2372bd	-0.009976086
172	0x3c25c715	0.010118266
173	0x3d9be455	0.0761191
174	0x3c38ac71	0.011271582
175	0xba4beddb	-0.00077792787
176	0x3b58981e	0.0033049653
177	0x3d11be67	0.035581972
178	0x3c3fe283	0.011711719
179	0x3ab8f05e	0.0014109721
180	0xbbf96ba3	-0.0076117082
181	0xbd51cb29	-0.05121914
182	0xbc28f896	-0.010313174
183	0x3c8516e7	0.016246272
184	0xbb5e1ac2	-0.003389046
185	0x3d1e5ca5	0.03866257
186	0x3d68f123	0.05687059
187	0x3c98f19c	0.018669896
188	0xbd9bb550	-0.07602942
189	0x3a58d87a	0.00082720036
190	0xbb71fb4b	-0.0036923464
191	0x3b4fc6aa	0.0031704106
192	0x3d08fc5f	0.033443805
193	0x3d06aff7	0.032882657
194	0xbccbf339	-0.024896251
195	0xbbb81dbb	-0.0056187785
196	0xbc84b1b5	-0.016198019
197	0x3d8591f5	0.0652198
198	0xbc7f5cec	-0.015586119
199	0x3d610bcc	0.05494289
200	0x3d47cf8e	0.048781924
201	0xbc88f4d0	-0.016718298
202	0xbc0ec4f2	-0.008713948
203	0x3dbc874b	0.092054926
204	0x3d5fd3ab	0.05464522
205	0x3ca9e13d	0.020737285
206	0xbb62ee16	-0.0034626774
207	0x3c543558	0.012952171
208	0x3b428900	0.002968371
209	0xbb46c76b	-0.0030331265
210	0x3dcd463b	0.10023161
211	0x3d1f1cca	0.038845815
212	0x3b13297e	0.0022455151
213	0xbc235021	-0.009967835
214	0xbca791b6	-0.020455223
215	0xbb7fa378	-0.0039007347
216	0xbc75159f	-0.014958768
217	0xbd5e6798	-0.054298013
218	0xbcc7bc79	-0.024381863
219	0xbd8a86f6	-0.06764023
220	0xbd53c78e	-0.051703982
221	0xbc10bb9c	-0.008833792
222	0xbd1f8548	-0.038945466
223	0x3cfcbd6a	0.030852038
224	0xbcf9c3af	-0.030488817
225	0xbc58d6c5	-0.013234799
226	0x3d29b1bd	0.04142927
227	0xbd56ff03	-0.052489292
228	0xba996481	-0.0011702926
229	0x3d2dea50	0.042459786
230	0x3b8db259	0.004324239
231	0x3cec0a94	0.028813638
232	0xbc28397e	-0.010267613
233	0xbc52003e	-0.012817441
234	0x3b65a714	0.0035042213
235	0xbb7b8f3d	-0.0038384937
236	0x3c2418f5	0.010015716
237	0xbca547b0	-0.020175785
238	0x3dff9b86	0.124808356
239	0x3d84b635	0.06480066
240	0x3b492283	0.0030690737
241	0x3cb2ff71	0.02185032
242	0x3dae8eb3	0.085233115
243	0x3b3d9a3f	0.002893105
244	0xbd7f3521	-0.062306527
245	0xbb215f51	-0.0024623463
246	0x3ca4e804	0.020130165
247	0x3c199b93	0.009375471
248	0xbb28b065	-0.0025739905
249	0x3d9ef818	0.07762164
250	0xbd75dc6d	-0.060024668
251	0xbc501756	-0.012700876
252	0x3b8a4909	0.0042201323
253	0x3bdcc3ae	0.006737194
254	0x3c5affd8	0.013366662
255	0x3dbeed1d	0.093225695

network_body.linear_encoder.seq_layers.0.bias f4 [128]
0	0x3d0129e4	0.03153409
1	0x3d2c2805	0.042030353
2	0x3d14dcc5	0.036343355
3	0x3d9e7ee5	0.07739047
4	0xbd423ae9	-0.047419462
5	0x3d106e06	0.035261177
6	0xbd468887	-0.048470046
7	0x3d6da787	0.058021095
8	0xbd1467ac	-0.03623168
9	0x3d32871a	0.043585874
10	0xbd358f36	-0.04432603
11	0xbcbf8789	-0.023380058
12	0xbd7a47e1	-0.061103705
13	0xbdd5fa7a	-0.10448165
14	0xbd8d1170	-0.068880916
15	0xbdce8a0d	-0.10084925
16	0xbcbe1ad5	-0.023206154
17	0x3d05e371	0.03268761
18	0xbda1cf6a	-0.07900889
19	0xbd03d5b9	-0.032186244
20	0xbd3ec63f	-0.04657578
21	0xbdb50a15	-0.088398136
22	0xbc46b8ea	-0.012129048
23	0xbd2212c6	-0.039568685
24	0xbcc177cb	-0.023616692
25	0xbd49694c	-0.049172685
26	0xbd64cda0	-0.05586016
27	0x3d3e699e	0.046487443
28	0xbce4bff3	-0.02792356
29	0x3c913266	0.017724227
30	0x3c95c0d8	0.018280432
31	0x3cbf6a3b	0.023366084
32	0x3a31ebae	0.0006787133
33	0xbd2d71e9	-0.04234496
34	0xbd97bfe1	-0.07409645
35	0xbd3044cc	-0.04303436
36	0xbcea1207	-0.02857305
37	0x3c9e8728	0.019351557
38	0x3c053622	0.008130582
39	0xbd9db199	-0.0769989
40	0xbd9ce806	-0.076614425
41	0xbd9840ad	-0.07434211
42	0xbd1fa2fb	-0.03897379
43	0xbd3cb11c	-0.046067342
44	0xbd8aa86f	-0.067704074
45	0x3cb14391	0.021638663
46	0x3ba9d3b6	0.0051827086
47	0xbb521f7b	-0.003206222
48	0xbd380923	-0.04493059
49	0x3d982b8f	0.07430183
50	0xbd28e0da	-0.04123006
51	0x3b92f792	0.004485079
52	0xbc336f9c	-0.010951903
53	0x3d5661c1	0.05233932
54	0xbda59958	-0.080858886
55	0x3c83a414	0.01606945
56	0x3cdf4665	0.027255246
57	0x3c978eef	0.018500773
58	0x3cddaf3e	0.027061101
59	0xbd9d76d9	-0.07688684
60	0xbc944c2b	-0.018102726
61	0xbd63d330	-0.055621326
62	0x3c619cb6	0.013770273
63	0xbd95a700	-0.07307243
64	0xbbf80b39	-0.007569697
65	0x3d819412	0.0632707
66	0xbd7f37d9	-0.06230912
67	0xbd6f5b4d	-0.05843668
68	0xbd5b4d0a	-0.053540267
69	0xbcc7bce6	-0.024382066
70	0x3d49563f	0.049154516
71	0x3cff06cc	0.03113117
72	0xbdbb39b6	-0.09141867
73	0xbc876d4c	-0.016531609
74	0xbd925e1a	-0.07146855
75	0xbd6a0a4a	-0.05713872
76	0xbdcef381	-0.101050384
77	0x3d12c52b	0.035832565
78	0xbc619630	-0.013768718
79	0xbd17ef0a	-0.0370932
80	0x3cdfcb04	0.027318485
81	0xbd318124	-0.04333605
82	0x3cb2d5cd	0.021830464
83	0xbd7c75b5	-0.06163569
84	0xbcca1406	-0.024667751
85	0xbd4ad529	-0.04951969
86	0x3d0b51cb	0.03401355
87	0xbd1fefce	-0.039047055
88	0xbc93e29c	-0.018052392
89	0xbd98d51a	-0.07462521
90	0xbd0cffca	-0.034423627
91	0xbd9e3c5c	-0.077263564
92	0x3bb4726b	0.0055068037
93	0x3cc3fd4d	0.023924494
94	0xbd04d772	-0.032432027
95	0xbb560acf	-0.003266025
96	0xbd0bc9d2	-0.034128018
97	0xbc01992c	-0.007910054
98	0xbccdb0d1	-0.025108727
99	0xbda35728	-0.07975608
100	0x3c206ee1	0.009792061
101	0x3cbdd358	0.023172066
102	0xbce62bf1	-0.028097125
103	0xbb9a2ccb	-0.004705047
104	0xb8eb0342	-0.0001120628
105	0xbde638c6	-0.112412974
106	0xbd9404ef	-0.072275035
107	0x3ce1e870	0.027576655
108	0xbcd72413	-0.026262319
109	0xbcd88485	-0.026430378
110	0xbcb26f6d	-0.021781648
111	0xbc2d1718	-0.010564588
112	0xbce3f29f	-0.027825652
113	0xbbbbfcf9	-0.005736944
114	0xbd0b619b	-0.03402863
115	0xbb5589ff	-0.0032583473
116	0xbc19197e	-0.009344457
117	0xbd9064be	-0.07050465
118	0xbd6736c0	-0.056448698
119	0xbdaed9b0	-0.08537614
120	0xbcb73077	-0.022361977
121	0xbc1e4e05	-0.009662156
122	0xbce7918d	-0.028267646
123	0xbd6a62ba	-0.05722306
124	0x3d43d345	0.047808904
125	0xbca9a2ea	-0.020707566
126	0x3cc71934	0.02430401
127	0x3d293526	0.041310452

network_body.linear_encoder.seq_layers.0.weight f4 [128, 8]
0	0xbf268d44	-0.65059304
1	0xbe564bf2	-0.20927408
2	0x3e685183	0.22687344
3	0x3ee64846	0.44977015
4	0xbe80bda4	-0.25144684
5	0x3ec06e94	0.37584364
6	0xbed10d4a	-0.4083045
7	0x3e6a2350	0.22865033
8	0x3e9dba43	0.3080617
9	0x3d8222cb	0.063542925
10	0xbe482712	-0.19546154
11	0x3cd7c522	0.026339117
12	0xbea2a617	-0.31767341
13	0x3db3e601	0.08784104
14	0xbe2d410d	-0.16919346
15	0xbb9e3b89	-0.0048288745
16	0x3efc7ad4	0.4931246
17	0xbe8fdb8a	-0.28097183
18	0xbdafcf5a	-0.08584471
19	0x3eb3b335	0.35097662
20	0xbf2285f9	-0.63485676
21	0x3e3e3d0c	0.18577975
22	0xbe9c0943	-0.30475816
23	0x3ee5c3e3	0.44876012
24	0x3df396f7	0.11894029
25	0xbee54e15	-0.44786134
26	0x3e23c0a6	0.15991458
27	0xbd88280e	-0.06648265
28	0xbf01a9dd	-0.50649816
29	0xbf7c539e	-0.9856509
30	0x3df262a8	0.118352234
31	0xbe7b7e14	-0.24559814
32	0x3e4bdf9c	0.19909519
33	0x3f407763	0.7518217
34	0x3ea622a6	0.3244831
35	0x3e8dea1b	0.2771767
36	0xbe65055d	-0.22365327
37	0x3e0c87eb	0.13723724
38	0xbe9aec4a	-0.302584
39	0x3d9fcb0d	0.07802401
40	0x3e6b15c7	0.22957526
41	0x3e1193d8	0.14216554
42	0x3d58a6be	0.052893393
43	0x3eb3ef76	0.35143632
44	0xbedbe1af	-0.4294562
45	0xbbfb5cb5	-0.0076709636
46	0x3e83c04f	0.25732657
47	0x3dbddbc8	0.092704356
48	0x3ea51673	0.3224369
49	0x3e10b4b0	0.14131427
50	0xbe2aa413	-0.16664152
51	0xbe56e136	-0.20984349
52	0x3ecf3a25	0.40474048
53	0xbee41cad	-0.44553128
54	0x3e84c211	0.2592931
55	0x3ebf3974	0.3734852
56	0x3e42b161	0.19012977
57	0xbf49d4dd	-0.7884043
58	0xbd8568c1	-0.06514121
59	0xbc1d7e69	-0.009612658
60	0xbd93567e	-0.071942315
61	0xbe3ee3f8	-0.1864165
62	0x3c5cc4ab	0.013474624
63	0x3e834c38	0.25644088
64	0x3dcf44b7	0.10120528
65	0x3e941896	0.28925008
66	0xbd56ff7e	-0.05248975
67	0xbecd4082	-0.40088278
68	0xbd9be6bb	-0.07612368
69	0xbec01ea5	-0.3752338
70	0x3f0e2fce	0.55541694
71	0xbee3d681	-0.4449959
72	0xbe4f0e3a	-0.20220271
73	0xbd28bb30	-0.04119414
74	0xbd105f5f	-0.035247203
75	0x3d1c5b7b	0.03817318
76	0xbdd178c0	-0.10228109
77	0x3c4ded45	0.0125687765
78	0xbd327874	-0.043571904
79	0x3e1a5720	0.15072298
80	0xbe6b8693	-0.23000555
81	0xbe6ae12a	-0.22937456
82	0x3e7d37f4	0.24728376
83	0xbe685204	-0.22687536
84	0x3f01023e	0.50394046
85	0xbdc0232a	-0.09381707
86	0x3e17777e	0.14791676
87	0xbd09ab81	-0.033610824
88	0xbe798404	-0.24366766
89	0xbbe1f746	-0.0068959324
90	0x3d70dc55	0.058803875
91	0xbecdd984	-0.40205014
92	0xbc363932	-0.011122035
93	0x3dc8b81f	0.09800743
94	0x3d7e1ea6	0.062040947
95	0x3f0256f0	0.50913906
96	0x3b299ec4	0.0025881985
97	0x3d65726f	0.056017336
98	0xbf0ce0ff	-0.55030817
99	0xbf7a19db	-0.976957
100	0xbc6cbc63	-0.014449212
101	0x3f6fb670	0.9363775
102	0xbe3d09d9	-0.18460788
103	0xbdbfc5d5	-0.09363905
104	0xbe9feec5	-0.31236854
105	0xbe86fd04	-0.2636491
106	0xbe05d80f	-0.13070701
107	0x3e11775e	0.14205691
108	0x3eb58bb3	0.35458145
109	0xbea7792f	-0.32709643
110	0xbd336fcd	-0.043807793
111	0xbe3f9630	-0.18709636
112	0xbdcdf07a	-0.10055633
113	0x3e3d9c43	0.1851664
114	0x3f02a314	0.5103009
115	0x3f3b4054	0.7314503
116	0xbe72477f	-0.23660086
117	0x3e94401f	0.2895517
118	0x3ef2340e	0.4730534
119	0x3e769563	0.24080424
120	0x3ef3da94	0.476277
121	0xbe0c9358	-0.13728082
122	0x3d9832f4	0.074315935
123	0xbf547e82	-0.83005536
124	0x3e039280	0.12848854
125	0xbea017dc	-0.31268203
126	0xbeca266e	-0.39482445
127	0xbee5d41e	-0.44888395
128	0xbf2605f0	-0.6485281
129	0x3e9e7328	0.30947232
130	0x3eaaa052	0.3332544
131	0xbdb218d3	-0.08696141
132	0xbef4852c	-0.47757852
133	0x3f12fbcc	0.5741546
134	0x3f378bd4	0.71697736
135	0x3f243ff1	0.64160067
136	0x3e708103	0.23486714
137	0xbed6dde0	-0.41966152
138	0x3c3e1a39	0.011602932
139	0x3e13884f	0.14407466
140	0x3e4411ee	0.19147465
141	0xbf3e3881	-0.7430497
142	0x3e8fc2ca	0.280783
143	0x3da2e280	0.07953358
144	0xbce2fa78	-0.027707323
145	0x3daa761b	0.08323308
146	0x3cfac9a6	0.030613732
147	0x3e4c1ecf	0.19933628
148	0xbd72b93c	-0.059258685
149	0xbe1b628b	-0.1517431
150	0xbdcc555d	-0.09977219
151	0x3e982022	0.29712015
152	0x3edb8f70	0.42882872
153	0x3f1ff6cb	0.6248595
154	0x3e8743cf	0.2641892
155	0x3dfafd4c	0.12255344
156	0xbe3accfd	-0.1824226
157	0x3f1ec565	0.6201995
158	0xbf0db64e	-0.553563
159	0xbdc8a6ef	-0.09797465
160	0x3ea35e66	0.31907958
161	0x3d93ec18	0.07222766
162	0xbcf1cf05	-0.02951766
163	0x3ed2c6af	0.4116721
164	0x3f20cb3d	0.62810117
165	0xbe511111	-0.20416667
166	0xbd3a5767	-0.04549351
167	0x3b56a3f4	0.0032751532
168	0xbef6b83b	-0.48187432
169	0x3cf34f53	0.02970091
170	0x3f0dda74	0.5541146
171	0xbe79d6dd	-0.2439837
172	0x3e097f4d	0.13427468
173	0x3ddb46fd	0.10706899
174	0x3cd2941f	0.025705395
175	0x3e6556bc	0.22396368
176	0x3f22443f	0.63385385
177	0xbeedf691	-0.46477178
178	0xbed6bfd6	-0.41943234
179	0x3e1a9ac0	0.15098095
180	0x3d4ac5a2	0.049504884
181	0xbea1ad2b	-0.3157743
182	0xbef85170	-0.48499632
183	0xbc04a41d	-0.008095768
184	0xbe0d1749	-0.13778414
185	0x3f4d9090	0.8029871
186	0x3eafa5fe	0.3430633
187	0xbebda55a	-0.37040216
188	0x3dcf35af	0.10117661
189	0xbeb2d22c	-0.34925973
190	0x3dbf2135	0.093325056
191	0x3ef693a6	0.48159522
192	0x3ef18250	0.47169733
193	0xbe015236	-0.12629017
194	0xbd0ebe8b	-0.034849685
195	0x3d37a265	0.044832606
196	0x3f006842	0.50159085
197	0x3ec4dbda	0.38448983
198	0xbeadd140	-0.33948708
199	0x3e2f8071	0.1713884
200	0x3f5b496e	0.8565892
201	0x3f43a893	0.764291
202	0x3e577ee6	0.21044502
203	0x3e98f35c	0.29873168
204	0x3f6a14a1	0.9143773
205	0xbebf41e1	-0.3735495
206	0x3f163b9d	0.5868471
207	0xbbdbf63f	-0.0067127044
208	0x3eac3328	0.3363278
209	0xbe027f32	-0.12743834
210	0xbd04aecd	-0.032393266
211	0xbede0bfb	-0.43368515
212	0x3ce3743d	0.027765388
213	0xbf10ba39	-0.56534153
214	0x3d17c6d7	0.037054863
215	0x3e984252	0.29738098
216	0xbedd5bbc	-0.4323405
217	0xbd996c27	-0.074913315
218	0x3edd169a	0.43181306
219	0x3e0495e4	0.12947804
220	0xbd2b455b	-0.04181419
221	0xbc60a8c3	-0.013712111
222	0x3aae222f	0.0013285334
223	0x3e3380f8	0.17529666
224	0xbe21929b	-0.15778582
225	0x3e9cb30f	0.3060536
226	0x3e2de77e	0.16982839
227	0x3eccc505	0.39994064
228	0x3d6c728c	0.057726428
229	0x3f07c3d0	0.5303316
230	0xbc9fc805	-0.019504556
231	0x3f499cde	0.78754985
232	0x3eb4a0c8	0.35278916
233	0xbeac0656	-0.33598584
234	0x3eb4ad62	0.3528853
235	0x3ea7927a	0.3272894
236	0xbc0e5f2c	-0.008689683
237	0x3de6abec	0.1126326
238	0x3eaee654	0.341601
239	0x3eaa5a17	0.33271858
240	0x3e2c97a2	0.16854718
241	0xbda3f841	-0.08006335
242	0x3e4f1302	0.20222095
243	0xbd440958	-0.047860473
244	0xbe7d4d49	-0.24736513
245	0x3df535b5	0.119731344
246	0x3d93cdab	0.072169624
247	0xbe877daa	-0.26463062
248	0x3ed42be2	0.4143973
249	0xbe68a1eb	-0.22718017
250	0x3e68e410	0.22743249
251	0x3f08c30a	0.53422606
252	0x3e7648c3	0.24051194
253	0xbf170595	-0.5899289
254	0xbdfc385e	-0.12315439
255	0xbecf066b	-0.40434584

network_body.linear_encoder.seq_layers.2.bias f4 [128]
0	0xbd52f202	-0.051500328
1	0xbc426d67	-0.011866904
2	0xbd00c21b	-0.031435113
3	0x3cf11ad1	0.029431732
4	0xb948f507	-0.00019164766
5	0x3d083031	0.033249084
6	0x3d3483bf	0.044070955
7	0xbb152892	-0.0022759777
8	0xbd31782e	-0.043327503
9	0x3c81f6b7	0.015864713
10	0x3b0f5a06	0.0021873727
11	0x3b83b5f9	0.0040194956
12	0xbd278e75	-0.040907342
13	0xbbdaa497	-0.0066724527
14	0x3da322d3	0.079656266
15	0x3c390389	0.011292347
16	0x3ccbcdcb	0.024878403
17	0xbc947576	-0.018122416
18	0xbcdd7ba8	-0.027036503
19	0xbbbb1899	-0.0057097194
20	0x3c8a5df5	0.016890505
21	0xbcb47d08	-0.022032276
22	0xbca182b3	-0.019715643
23	0xbc81b7c9	-0.015834706
24	0x3dcff81b	0.10154744
25	0x3c4d5280	0.012531877
26	0xbc8bf3be	-0.017083999
27	0xbcf3f470	-0.029779643
28	0xbc8ba047	-0.0170442
29	0x3c91e873	0.017811036
30	0xbcefe04b	-0.029281756
31	0x3d152639	0.036413405
32	0xba920709	-0.0011141013
33	0x3d135791	0.03597218
34	0x3c373230	0.011181399
35	0x3c3a171a	0.011358047
36	0xbcad2a03	-0.021138197
37	0x3d83bc25	0.0643237
38	0x3c849c48	0.016187802
39	0xbcdd00e6	-0.026977967
40	0xbc6d3229	-0.014477291
41	0xbcb43d52	-0.022001896
42	0x3b98e2f6	0.0046657277
43	0xbca52a12	-0.020161662
44	0xbc727a03	-0.014799598
45	0x3d7ad91c	0.061242208
46	0x3c572439	0.013131195
47	0xba899a94	-0.0010498338
48	0xbd0445ea	-0.032293238
49	0x3a3b1802	0.00071370613
50	0x3d264ea3	0.040602338
51	0x3c33636f	0.010949
52	0xbc104e80	-0.008807778
53	0x3c0e9f92	0.008705037
54	0xbc6d6249	-0.014488765
55	0x3aff3f28	0.0019473778
56	0x3c3417d4	0.010992009
57	0x3d0d9488	0.03456548
58	0x3d270f9b	0.040786367
59	0x3a5954f3	0.00082905515
60	0x3ba2e0ed	0.004970661
61	0xbcadf75b	-0.021236112
62	0xbbe1f5de	-0.0068957647
63	0xbc5c2ede	-0.013438908
64	0x3cb9e256	0.022690933
65	0x3c9fa6d0	0.019488722
66	0xbcb8adb4	-0.022543766
67	0xbc6d7d06	-0.01449514
68	0xbc9e12f9	-0.019296156
69	0x3d0cc62a	0.03436867
70	0xbcbe3dfc	-0.023222916
71	0x3d020b24	0.031748906
72	0x3c70a591	0.014687912
73	0xbcbdcc93	-0.023168838
74	0xbd354c67	-0.044262316
75	0x3d754529	0.05988041
76	0x3d0d082a	0.034431614
77	0xb9f4eef3	-0.00046717338
78	0xbcc7dc38	-0.024397
79	0x3c5d0f7c	0.013492461
80	0xbc6f47fe	-0.014604567
81	0xbd79ff7a	-0.061034657
82	0x3d890663	0.06690671
83	0x3d122d4e	0.035687737
84	0xbbc5b14b	-0.006033098
85	0xbc2b3b42	-0.01045114
86	0xbd01b577	-0.0316672
87	0xbcc71f6a	-0.024306972
88	0xbc950a3f	-0.018193362
89	0xbbc6d745	-0.0060681426
90	0x3d08fcc2	0.033444174
91	0x3c4a1a91	0.0123354355
92	0xbc91942c	-0.01777085
93	0xbd2e2fd1	-0.04252607
94	0xbc76bfed	-0.015060407
95	0x3c944b22	0.018102232
96	0xbc2378fc	-0.009977575
97	0xbca8f734	-0.020625688
98	0x3cdf5af9	0.027265059
99	0xbbb89f4c	-0.005634224
100	0xbb20cc80	-0.0024535954
101	0x3cdcddf9	0.026961314
102	0x3ce3f002	0.027824406
103	0x3d77a78f	0.06046253
104	0xbd12839b	-0.03577004
105	0x3bee5a53	0.007273951
106	0xbd168606	-0.03674891
107	0xbc98f039	-0.018669235
108	0xbc93bffd	-0.018035883
109	0xbd37a9ce	-0.044839673
110	0x3de7565e	0.1129577
111	0x3d83d92e	0.06437908
112	0xbc46dc8d	-0.012137544
113	0x3a2472fc	0.00062732375
114	0x3db17edf	0.08666777
115	0xbc8ad428	-0.016946867
116	0xbc0213b7	-0.007939271
117	0xbb994c6d	-0.0046783
118	0x3ce355f0	0.02775094
119	0xbb2bafcd	-0.0026197315
120	0xbd23718e	-0.039903216
121	0x3d06cf34	0.032912448
122	0x3c196ae1	0.009363861
123	0x3c546c67	0.012965298
124	0xbc863e59	-0.016387152
125	0xbbc6846f	-0.006058268
126	0xbca7112d	-0.020393932
127	0x3d8a8e4f	0.067654245

network_body.linear_encoder.seq_layers.2.weight f4 [128, 128]
0	0xbc9eba64	-0.019375987
1	0x3dd3d8ae	0.10344063
2	0xbd31e7bc	-0.04343389
3	0x3d77589b	0.060387235
4	0x3da6f2ad	0.081517555
5	0xbe080a63	-0.13285212
6	0xbdea4a9a	-0.1144001
7	0xbc34603c	-0.011009272
8	0xbc89a948	-0.016804352
9	0xbdeae866	-0.11470108
10	0x3d8ab87a	0.06773467
11	0x3d69b8e5	0.057061095
12	0xbd6f2a0d	-0.058389712
13	0xbd91aafb	-0.0711269
14	0x3c3eab03	0.011637452
15	0xbe3ee7d6	-0.18643126
16	0x3d839ae8	0.064260304
17	0xbd2ac9af	-0.041696247
18	0xbd73d167	-0.059525874
19	0x3cd96b4f	0.026540427
20	0xbbafc9bb	-0.0053646243
21	0x3d30eb7c	0.043193325
22	0x3b71bcba	0.0036886171
23	0xbdb9fd55	-0.090815224
24	0xbde4fc3f	-0.111809246
25	0xbd7c0bbe	-0.061534636
26	0xbe23d1d5	-0.15998013
27	0x3ca2bb43	0.019864684
28	0xbd0baf31	-0.034102622
29	0xbdb9f0d8	-0.090791404
30	0xbd5b0ea5	-0.053480763
31	0x3dcd434d	0.10022602
32	0x3ba46833	0.0050173043
33	0x3d7103a0	0.058841348
34	0x3b3dc4be	0.0028956379
35	0x3d3792c8	0.044817716
36	0x3e02a47f	0.12758063
37	0xbb0f0801	-0.002182484
38	0xbd1bca75	-0.038034875
39	0x3db99c75	0.09063045
40	0xbd7cb273	-0.06169362
41	0x3ded0a0c	0.11574182
42	0xbc55c5ce	-0.013047649
43	0x3d1037aa	0.035209335
44	0x3d6e0ec9	0.05811957
45	0x3c130924	0.008974347
46	0xbd5e206a	-0.05423013
47	0xbd10f526	-0.03539004
48	0x3d35845a	0.044315673
49	0x3d4890bf	0.048966166
50	0x3c07cca7	0.008288539
51	0xbc158778	-0.009126537
52	0xba1dd23c	-0.0006020402
53	0xbe322c40	-0.17399693
54	0x3d986f34	0.07443085
55	0x3d107e81	0.035276894
56	0x3caed630	0.021342367
57	0xbd750572	-0.059819646
58	0x3d52c5a1	0.051458005
59	0x3d6668b7	0.056252208
60	0xbb3ab812	-0.0028491062
61	0xbd1b8f6c	-0.037978575
62	0x3d3b08cc	0.045662686
63	0xbdc2786c	-0.09495625
64	0x3d0334be	0.03203272
65	0x3cd50d5c	0.026007347
66	0x3e34514d	0.17609139
67	0xbbc702dd	-0.0060733394
68	0x3e1e7144	0.15472895
69	0x3d66cceb	0.05634777
70	0x3d14a6e2	0.036291964
71	0x3e02b34e	0.12763712
72	0xbddbb963	-0.10728719
73	0x3e5a59ad	0.21323271
74	0xbb7a6fd4	-0.0038213627
75	0x3cbdcd9f	0.023169337
76	0x3d98dfcc	0.07464561
77	0xbd46e56f	-0.04855865
78	0xbdbc0c66	-0.09182052
79	0x3c214c73	0.009844887
80	0xbced5bf4	-0.02897451
81	0xbe218822	-0.15774587
82	0xbde6bd25	-0.11266545
83	0xbbb8015a	-0.0056153955
84	0xbdf4c4ba	-0.11951585
85	0xbd4e0cdc	-0.050305232
86	0xbe1aeeb8	-0.15130126
87	0xbd9137a2	-0.07090689
88	0xbd67270e	-0.05643373
89	0xbd411095	-0.047134954
90	0xbcc6f193	-0.024285113
91	0xbde99d1e	-0.11406921
92	0x3ded732f	0.11594235
93	0x3dfb60e8	0.12274343
94	0x3d708df5	0.05872913
95	0xbd37ca09	-0.04487041
96	0xbdbca264	-0.09210661
97	0xbcd34732	-0.025790785
98	0x3d2c6a21	0.0420934
99	0xbda1feaa	-0.079099014
100	0x3dbb220a	0.09137352
101	0x3cb7f31e	0.022454794
102	0xbd358e08	-0.044324905
103	0xbdbbf38d	-0.09177313
104	0x3d2c6d30	0.042096317
105	0x3d8d0702	0.06886102
106	0xbd9e0500	-0.077157974
107	0x3ce7a8ec	0.02827879
108	0x3dc8d2c8	0.09805828
109	0xbd534886	-0.051582836
110	0x3d51347b	0.05107544
111	0x3cabfc70	0.020994395
112	0xbc4faa51	-0.012674884
113	0x3c84a9f4	0.016194321
114	0x3d5929e7	0.053018477
115	0x3d534bd0	0.051585972
116	0xbd9a1077	-0.07522672
117	0xbc1f7d35	-0.0097344415
118	0x3e3334e6	0.17500648
119	0x3dba525f	0.09097742
120	0xbdb736d6	-0.08946006
121	0xbd2a816d	-0.041627336
122	0xbd347594	-0.044057444
123	0x3d091ce1	0.033474807
124	0x3c590f7f	0.013248323
125	0xbdd172cc	-0.10226974
126	0x3e229918	0.15878713
127	0x3d42f097	0.047592726
128	0xbe17330e	-0.1476557
129	0x3d7b5919	0.061364267
130	0x3d811d0c	0.063043684
131	0x3d1ea03c	0.03872703
132	0x3d801ada	0.062551215
133	0x3d360dc6	0.04444673
134	0x3a99741a	0.0011707575
135	0x3dbac03f	0.09118699
136	0x3ddcd537	0.10782855
137	0xbdeae6bb	-0.114697896
138	0xbd9d4183	-0.07678511
139	0xbda953e2	-0.082679525
140	0xbe3ef278	-0.18647182
141	0x3da63790	0.081160665
142	0xbe19e4c4	-0.15028673
143	0xbd294765	-0.041327853
144	0x3bd78f3c	0.006578354
145	0xbd0fed19	-0.035138223
146	0x3c5f320a	0.01362277
147	0x3d79643f	0.060886618
148	0xbce5a133	-0.028030967
149	0xbdc01810	-0.093795896
150	0x3d47a99c	0.048745736
151	0x3d73127a	0.059343792
152	0x3cd031d8	0.025414392
153	0xbceaf09f	-0.02867919
154	0xbd8540df	-0.06506514
155	0xbe09adcc	-0.13445204
156	0x3af32568	0.0018550577
157	0xbdf99ee4	-0.12188509
158	0xbdaae4d4	-0.08344427
159	0xbda86873	-0.08223047
160	0xbe4cb9a2	-0.19992688
161	0x3dd464aa	0.10370763
162	0x398f0da7	0.00027285257
163	0x3b662b4a	0.0035121017
164	0x3e201d7b	0.15636246
165	0x3e67df60	0.22643805
166	0xbd52f3c6	-0.05150201
167	0x3d9fccd3	0.07802739
168	0x3d17c79e	0.037055604
169	0xbcb83cf3	-0.02249
170	0xbdba7361	-0.09104038
171	0x3d4ff0cf	0.050766762
172	0xbe0b31b3	-0.13593177
173	0x3cefbd9a	0.029265214
174	0x3d14c96f	0.036324915
175	0x3c24aec1	0.01005143
176	0xbdda080a	-0.106460646
177	0x3e02eda3	0.12785964
178	0x3d4da4ce	0.050205998
179	0xbc5f3578	-0.013623588
180	0xbd240e44	-0.040052667
181	0xbd977e09	-0.07397086
182	0x3c278907	0.010225541
183	0xbbf353cc	-0.007425761
184	0x3be2fc3a	0.0069270404
185	0x3e5104f1	0.20412041
186	0x3c49c9e1	0.012316198
187	0x3be888db	0.0070963926
188	0xbe0352e7	-0.12824593
189	0x3ba4cc60	0.005029246
190	0xbdeaad35	-0.11458818
191	0x3e61f4b7	0.22066008
192	0x3e0bb33a	0.13642588
193	0xbcc2a206	-0.0237589
194	0xbcf86727	-0.030322624
195	0x3e171027	0.14752255
196	0x3e4e2315	0.2013057
197	0x3e0afa70	0.13572097
198	0x3d0bbc5d	0.034115184
199	0x3d745ce0	0.059658885
200	0x3df2629b	0.11835214
201	0xbcb26ac9	-0.021779435
202	0xbdc9ca11	-0.09852994
203	0xbce21c3f	-0.02760136
204	0x3cb3183f	0.021862147
205	0xbe0417f5	-0.12899764
206	0xbc92a53a	-0.017901052
207	0xbc445bc3	-0.011984768
208	0xbd2dfe80	-0.04247904
209	0x3cdb1549	0.026743548
210	0x3ddf7155	0.10910288
211	0xbe11c26d	-0.14234324
212	0x3cd5f9b6	0.026120048
213	0x3d26ac9b	0.040691953
214	0x3d01ce2d	0.031690765
215	0xbd2b936d	-0.041888643
216	0x3d17eae6	0.03708925
217	0x3d72874c	0.05921106
218	0xbcb3ed03	-0.021963602
219	0xbdc71aa7	-0.097218804
220	0xbdec9a8b	-0.11552914
221	0x3b7a6682	0.0038208072
222	0xbda54735	-0.08070222
223	0xbdf68ae3	-0.12038209
224	0x3d02cf93	0.03193624
225	0x3b1c2ea2	0.0023831506
226	0xbc8d1f9b	-0.017226985
227	0x3e291f4b	0.16515844
228	0x3e4a9851	0.19784667
229	0xbd5cf961	-0.053948764
230	0x3cc5b160	0.02413243
231	0xbde9285f	-0.11384653
232	0xbc947f23	-0.01812703
233	0x3d764865	0.060127635
234	0x3ce47e96	0.027892392
235	0xbde71002	-0.1128235
236	0x3de09f88	0.10967928
237	0xbe04b301	-0.1295891
238	0x3e16f440	0.14741611
239	0x3c88f977	0.016720517
240	0xbd2d2db5	-0.042279918
241	0x3ae46821	0.0017426052
242	0xbc5979ce	-0.013273669
243	0x3ce65237	0.028115375
244	0xbc86e9d7	-0.016468925
245	0xbc99de31	-0.018782707
246	0x3cacb43c	0.021082036
247	0xbe553750	-0.20821881
248	0x3dc57deb	0.096431576
249	0xbd4c1b08	-0.049830467
250	0xbdfe4506	-0.12415509
251	0x3d0ca3de	0.034335963
252	0xbce527ac	-0.027973019
253	0xbe090709	-0.1338159
254	0x3da073cf	0.07834589
255	0xbdf45a1a	-0.11931248

network_body.vector_processors.0.normalizer.running_mean f4 [8]
0	0x39564980	0.00020436011
1	0xba710d96	-0.0009195445
2	0x3da20e16	0.07912843
3	0x40442cd9	3.0652373
4	0x3d9469fe	0.07246779
5	0x3b64c490	0.00349072
6	0xbe64094e	-0.22269174
7	0xbc37f876	-0.011228671
