rrs_unity/Assets/Models/OnlyLeft2.onnx (onnx, 546276 bytes, 11 tensors)

51 f4 [14]
0.017616497 0.01455369 0.28224802 0.0052995784 0.0052240537 26.495483 0.005294405 0.056405272
0.00031622505 0.00031622505 0.09301507 0.038191736 0.884728 0.006957234
00000000: 7950 903c 9a72 6e3c d082 903e 16a8 ad3b
00000010: 8a2e ab3b c0f6 d341 b07c ad3b 3709 673d
00000020: 02cb a539 02cb a539 af7e be3d f06e 1c3d
00000030: 897d 623f 82f9 e33b

action_model._continuous_distribution.log_sigma f4 [1, 2]
0.0034158742 0.005394481
00000000: dcdc 5f3b 30c4 b03b

action_model._continuous_distribution.mu.bias f4 [2]
0.005160225 0.0025927366
00000000: 1b17 a93b e7ea 293b

action_model._continuous_distribution.mu.weight f4 [2, 256]
0.015900819 0.007324178 -0.007062288 0.0054096286 0.017610501 -0.007846103 -0.01741339 0.017285764
0.0065771504 0.017648673 0.0007582949 0.018577173 0.016669268 0.0011391715 -0.021897009 0.0074285544
-0.013949856 -0.025030687 0.0066110995 0.02409237 -0.006581817 -0.016798928 -0.0070046037 -0.010690416
0.0038050113 -0.012844157 -0.0010691397 -0.0049619633 0.022082314 -0.021181755 0.021380229 0.012651483
0.029100532 0.0040926333 0.0061042095 0.011488661 0.009334851 -0.0013323491 -0.0063997107 0.006681439
0.013872303 0.0002924111 0.008245063 -0.019210827 0.022196803 0.014280067 -0.025779333 0.004066119
0.016622107 0.0081637185 -0.030192854 0.020920308 0.041038126 -0.018468378 -0.005728388 -0.005629265
-0.010333657 -0.0010848582 -0.01409955 -0.004775818 -0.004985195 0.007865921 0.023201926 0.011010659
-0.01755722 0.0045955023 0.0043977834 0.01592214 -0.008231129 -0.004471599 0.005745581 -0.0037809054
0.01714238 -0.017106233 0.020941861 -0.021577794 -0.008206457 -0.0237248 0.0036982605 0.020685095
-0.0024760917 -0.009579764 -0.017268378 0.006974079 0.0018437472 -0.021919247 -0.006035705 0.026336215
0.019021977 0.002600896 0.0021512946 -0.018260313 0.0122638345 0.0011605137 -0.0059208134 -0.010883596
0.013076315 -0.010318191 -0.022842938 -0.017448109 0.013123038 -0.014489213 0.006952844 0.015989104
-0.0016454309 -0.0107275555 -0.0037552102 0.015257171 -0.0025623862 0.032820642 0.0055842204 0.006418102
0.012431106 0.01059148 0.0088641355 0.004063886 -0.013342081 0.00024434522 -0.011368441 0.027496688
-0.004366432 -0.022142258 0.0028974763 -0.003665436 -0.009818437 0.0069317813 0.009583722 -0.022934351
-0.003748317 -0.007399938 0.011350814 0.011015421 0.00079340214 0.0034278603 -0.008265422 -0.021634605
0.015771879 0.0056652483 0.026541699 0.0004318705 -0.0072115916 0.0041167904 -0.01878888 -0.008501028
-0.0014461821 0.013755649 -0.0065221456 0.009549437 -0.022547252 -0.02120817 0.028485324 0.020841822
0.01610094 -0.007005881 -0.009711581 0.015537198 -0.0028243812 0.012190079 0.010775052 -0.0012814333
-0.012422959 -0.0030677232 0.009344805 -0.010270135 -0.005042638 -0.009510602 -0.008599619 -0.018097496
-0.017885227 0.01894537 -0.0079067135 -0.023671046 -0.003986899 -0.009721513 -0.012557213 0.00637183
0.008124181 0.012337073 -0.0025997187 -0.01138707 0.019975591 -0.009590953 -0.021504406 0.006244908
-0.010107143 0.0050758766 0.012085131 -0.012680113 0.0055847317 -0.010339821 0.014890832 -0.0028656337
0.0020826166 0.0044786707 0.00471584 0.014912383 -0.019068196 -0.0028372654 0.0018105998 -0.01927902
0.001936616 -0.013809437 0.03645178 -0.00030339826 -0.0103539135 0.020219393 -0.00072678964 0.020934403
-0.0029257594 0.00091386924 -0.0043133404 -0.018607916 0.017155318 -0.02015601 -0.0025500148 -0.009275408
-0.008509755 0.010166008 0.020920211 -0.032146934 -0.016252093 -0.01158665 -0.017839637 0.011952358
0.010507678 0.02062427 -0.014515965 0.004867805 -0.021246556 0.00117027 0.005031792 0.01229095
-0.01032899 0.018676419 -0.0037453484 0.0034028636 0.026255535 0.009150231 -0.014994137 -0.0075703207
0.007944863 0.0016094809 -0.025406707 0.0014445523 -0.016686838 -0.0020645703 -0.008960976 -0.028146964
-0.0094780885 0.026739705 0.0010651534 -0.008522803 -0.015921425 0.0020099024 -0.008162594 -0.0066103823
00000000: 6f42 823c a8ff ef3b c46a e7bb 4143 b13b
00000010: e643 903c f18c 00bc 87a6 8ebc e09a 8d3c
00000020: 2385 d73b f393 903c 4fc8 463a 282f 983c
00000030: fd8d 883c 4150 953a 5b61 b3bc 3b6b f33b
00000040: f08d 64bc 280d cdbc eca1 d83b 5d5d c53c
00000050: 48ac d7bb e89d 89bc e086 e5bb db26 2fbc
00000060: 7f5d 793b 4d70 52bc 6022 8cba f797 a2bb
00000070: f8e5 b43c 5c85 adbc 9725 af3c 2a48 4f3c
00000080: 3d64 ee3c 7f1b 863b d205 c83b f03a 3c3c
00000090: 34f1 183c 38a2 aeba aab4 d1bb f9ef da3b
000000a0: a848 633c c14e 9939 4d16 073c 0660 9dbc
000000b0: 12d6 b53c f1f6 693c 2e2f d3bc 143d 853b
000000c0: 162b 883c 1ec1 053c 0157 f7bc 1161 ab3c
000000d0: 9817 283d ff4a 97bc 34b5 bbbb b375 b8bb
000000e0: 804e 29bc cd31 8eba cd01 67bc 777e 9cbb
000000f0: d95a a3bb 10e0 003c f711 be3c 0d66 343c
00000100: 29d4 8fbc de95 963b 481b 903b 266f 823c
00000110: dbdb 06bc 7e86 92bb 6d45 bc3b 11c9 77bb
00000120: 2d6e 8c3c 5f22 8cbc 448e ab3c eac3 b0bc
00000130: 6074 06bc 835a c2bc 845e 723b ca73 a93c
00000140: ed45 22bb 71f4 1cbc 6a76 8dbc d186 e43b
00000150: e4a9 f13a fe8f b3bc 2ac7 c5bb 0cbf d73c
00000160: fad3 9b3c cb73 2a3b bcfc 0c3b a796 95bc
00000170: 40ee 483c 611c 983a 6203 c2bb 1c51 32bc
00000180: 0a3e 563c a10d 29bc 1d21 bbbc 56ef 8ebc
00000190: 0302 573c 2a64 6dbc afd4 e33b 95fb 823c
000001a0: 80ab d7ba a1c2 2fbc f919 76bb 37f9 793c
000001b0: b5ed 27bb f06e 063d d6fb b63b f14e d23b
000001c0: d6ab 4b3c e387 2d3c e13a 113c 592a 853b
000001d0: be98 5abc 761b 8039 b342 3abc bc40 e13c
000001e0: 4914 8fbb ae63 b5bc 96e3 3d3b d037 70bb
000001f0: 82dd 20bc ff23 e33b 0b05 1d3c d2e0 bbbc
00000200: 53a6 75bb 2e7b f2bb c4f8 393c 067a 343c
00000210: 51fc 4f3a f4a5 603b b16b 07bc 0e3b b1bc
00000220: 0734 813c 8ca3 b93b fa6d d93c ad6c e239
00000230: 374f ecbb 24e6 863b 23eb 99bc e547 0bbc
00000240: d28d bdba 605f 613c b9b7 d5bb 3e75 1c3c
00000250: 04b5 b8bc c2bc adbc 0e5a e93c 78bc aa3c
00000260: 1ee6 833c 9791 e5bb 531d 1fbc bb8f 7e3c
00000270: 4119 39bb e6b8 473c d889 303c c4f5 a7ba
00000280: ab89 4bbc db0b 49bb f41a 193c 1144 28bc
00000290: b73c a5bb 5bd2 1bbc 6be5 0cbc 3341 94bc
000002a0: 0a84 92bc 5233 9b3c 298b 01bc c8e9 c1bc
000002b0: 88a4 82bb fb46 1fbc c5bc 4dbc c9ca d03b
000002c0: 491b 053c 6f21 4a3c 0b60 2abb d590 3abc
000002d0: daa3 a33c 5f23 1dbc 022a b0bc 16a2 cc3b
000002e0: 6e98 25bc 8a53 a63b b700 463c 40c0 4fbc
000002f0: 2000 b73b 5a68 29bc adf8 733c 5bcd 3bbb
00000300: 827c 083b d0c1 923b 5587 9a3b 1153 743c
00000310: e834 9cbc 6af1 39bb a651 ed3a 09ef 9dbc
00000320: 0dd6 fd3a fa40 62bc 764e 153d 6d11 9fb9
00000330: 76a3 29bc 24a3 a53c 0786 3eba a07e ab3c
00000340: 19be 3fbb ba90 6f3a ec56 8dbb a16f 98bc
00000350: 4f89 8c3c 371e a5bc 261e 27bb e2f7 17bc
00000360: 806c 0bbc 548f 263c dd60 ab3c 81ac 03bd
00000370: 1c23 85bc efd5 3dbc 6e24 92bc d3d3 433c
00000380: 6528 2c3c 3bf4 a83c 5fd4 6dbc 1c82 9f3b
00000390: 420d aebc bf63 993a bbe1 a43b fb5f 493c
000003a0: ed3a 29bc 4aff 983c 8574 75bb 9402 5f3b
000003b0: d915 d73c daea 153c f8a9 75bc 7410 f8bb
000003c0: 2c2b 023c 38f5 d23a ba21 d0bc 2257 bd3a
000003d0: d6b2 88bc be4d 07bb 0fd1 12bc 7694 e6bc
000003e0: fc49 1bbc 3a0d db3c 9e9c 8b3a 3aa3 0bbc
000003f0: a66d 82bc 91b8 033b 67bc 05bc e89b d8bb

network_body._body_endoder.seq_layers.0.bias f4 [256]
-0.0005508411 0.003102332 0.008961265 -0.002231453 -0.0014619612 0.0033223205 0.00092756026 0.0052680774
-0.00313591 -0.0007746939 0.007828846 0.0013681279 0.0086678 -0.0011985099 0.001165403 0.0055800825
0.004340618 0.0023366297 0.0014572808 -0.0014154437 0.0035027985 0.006244109 0.00208874 0.0042142384
0.0076538566 0.008578833 -0.008272639 0.003284929 0.0016979488 -0.004529114 0.0017967309 0.0009447076
-0.0022808267 0.0035079187 0.00022669419 0.002739335 -0.004909495 0.001259686 0.0009098856 0.0047517032
0.017662212 0.0025902651 0.0029659467 -0.0015424879 -0.0034468381 0.0064433636 0.004085282 0.0013540792
0.001248311 -0.0001503658 0.0051457966 -0.0036560423 -0.00029295523 0.00062899955 0.002363276 -0.0007444565
0.009702178 0.0072740503 -5.1767915e-05 0.005900023 0.0038006117 0.0022980112 0.01513633 -2.5807494e-05
0.0029734091 5.7875227e-06 0.00041738193 0.0027443732 0.007969992 0.007885828 -0.00017587867 -0.0040719374
-0.00011538641 0.0026889825 0.0049454174 0.0030107163 0.013109359 0.0063223327 0.0038155955 0.0053705494
0.0007223138 0.00064617203 0.001838414 -0.004394554 0.0070528365 0.0044878353 -0.005187786 0.012886151
-0.0010321306 -0.00046987826 0.0008801262 0.00576144 0.005889879 0.0048352433 -0.0009293094 0.0009200865
0.002295115 0.005824559 0.009340635 -1.7809089e-05 -0.001503674 0.009242993 -0.0007326831 0.004781326
-0.00021329366 0.0058149006 -0.003990253 0.005395724 -0.00360444 0.0050594723 -0.0032353932 0.0065809838
0.0034300666 0.0036053816 0.011417574 0.0041903066 -0.0025964465 0.008618548 -0.0010887943 0.0011692345
0.008062728 0.0071414253 0.002832124 -0.00056295504 -0.0015799202 0.0047718924 0.0031661296 0.0017565413
0.003981017 -0.0003312245 -0.00034224807 0.008060324 0.005520929 0.0020534408 0.0033212022 0.004237582
-0.00022116027 0.0035706668 0.00029550435 0.011433537 0.00012755227 0.00022238423 0.009606075 0.0065597184
-0.0022880738 0.0049365247 0.0016143991 0.006732168 0.0025248898 0.00086828694 0.0061750794 0.008427351
0.005555715 -0.00247702 -0.003715188 0.0017441432 0.0010132827 0.00125173 -0.005556914 0.0010072206
0.0058985725 -0.00019713875 -0.002236782 0.0016993383 0.00038778817 0.002640568 0.005273035 -0.0021635294
0.004478799 0.0040744576 0.004293287 0.00052063115 0.004012367 0.006547833 0.0110650845 -0.0029210004
-0.0013357592 0.006817817 0.002310473 -0.0005752568 0.0027558797 -0.00845851 0.0031281011 -0.00019003435
0.0017038981 0.0007508216 0.007035238 -0.00420288 -0.0029372617 -0.00062142336 0.0040414124 0.0046684314
0.0039914837 0.004802352 0.006835037 -0.009164061 0.0042529264 0.006616783 0.004334078 0.005316873
0.008115851 0.002552807 -0.00044470708 0.0012735476 0.0061278013 -0.0031031584 0.010743198 -0.0042074444
0.0051383674 0.0040948815 0.004938896 0.0040480434 -0.0013693899 0.01295426 0.0034198535 0.0041868323
0.006228929 -0.0038298173 0.003897781 -0.005952742 0.0020944714 0.00363974 -8.298681e-05 0.0033012358
0.004582786 0.004982374 0.00025826416 1.0135644e-06 -0.0032745234 0.003847627 0.0024719106 0.0037859648
0.002679819 0.0010558689 0.0022810486 0.0044011003 0.0026788835 -0.0036736226 -0.0027401403 0.006964977
0.0013192924 -0.0034829134 -0.0030952145 -0.0019612776 -0.0042438665 -0.004395255 -0.0025011431 0.0049836235
0.013650591 0.003287525 0.0023761708 -0.0013962537 0.0034041745 0.0011342723 0.00020640547 0.0048015555
00000000: 5266 10ba 7e50 4b3b 45d2 123c 923d 12bb
00000010: 479f bfba 4abb 593b 8427 733a d69f ac3b
00000020: d783 4dbb d414 4bba 8f44 003c c152 b33a
00000030: 6303 0e3c 5217 9dba 70c0 983a 20d9 b63b
00000040: be3b 8e3b 2422 193b 3b02 bf3a 6986 b9ba
00000050: 358f 653b 629b cc3b 3ee3 083b 9817 8a3b
00000060: 34cd fa3b 3c8e 0c3c f689 07bc f747 573b
00000070: b58d de3a f668 94bb 4980 eb3a 41a6 773a
00000080: ec79 15bb 1ce5 653b c2b4 6d39 6a86 333b
00000090: d4df a0bb 0c1c a53a 6485 6e3a 2db4 9b3b
000000a0: 58b0 903c 70c1 293b 5460 423b 4e2d caba
000000b0: 59e4 61bb da22 d33b d4dd 853b 5c7b b13a
000000c0: 5e9e a33a 83ab 1db9 129e a83b 369a 6fbb
000000d0: c997 99b9 72e3 243a 31e1 1a3b a127 43ba
000000e0: e2f5 1e3c 285b ee3b 6021 59b8 fb54 c13b
000000f0: af13 793b 3b9a 163b 5ffe 773c 2c7d d8b7
00000100: 87dd 423b 7132 c236 0ed4 da39 f1da 333b
00000110: 9294 023c 8f33 013c 126c 38b9 e36d 85bb
00000120: 9bfb f1b8 a439 303b 2b0d a23b 704f 453b
00000130: a3c8 563c 922b cf3b 120f 7a3b 6ffb af3b
00000140: a959 3d3a df63 293a f0f6 f03a 3100 90bb
00000150: 7b1b e73b b10e 933b 4efe a9bb 6f20 533c
00000160: 8e48 87ba fe59 f6b9 45b8 663a 76ca bc3b
00000170: e3ff c03b f670 9e3b e69c 73ba f631 713a
00000180: a469 163b f1db be3b 7609 193c ba64 95b7
00000190: ed16 c5ba ec6f 173c 8811 40ba abac 9c3b
000001a0: 95a7 5fb9 ec8a be3b abc0 82bb 9dce b03b
000001b0: 7838 6cbb eec9 a53b e408 54bb 4ba5 d73b
000001c0: f8ca 603b 4448 6c3b c710 3b3c d74e 893b
000001d0: 2529 2abb cf34 0d3c e0b5 8eba 0041 993a
000001e0: 8819 043c 9e02 ea3b 289b 393b 4693 13ba
000001f0: 5315 cfba 895d 9c3b d77e 4f3b bf3b e63a
00000200: 3173 823b 33a8 adb9 c26f b3b9 730f 043c
00000210: e9e8 b43b 0593 063b 87a8 593b 6adb 8a3b
00000220: 42e7 67b9 d901 6a3b eced 9a39 bb53 3b3c
00000230: 8dbf 0539 d02f 6939 cc62 1d3c e8f2 d63b
00000240: 82f3 15bb 92c2 a13b 3f9a d33a 8599 dc3b
00000250: 9f78 253b c09d 633a 5258 ca3b df12 0a3c
00000260: b70c b63b 8055 22bb 837a 73bb bc9b e43a
00000270: 20d0 843a 1711 a43a c616 b6bb b704 843a
00000280: d048 c13b 08b7 4eb9 fa96 12bb 55bc de3a
00000290: 0c50 cb39 610d 2d3b 6cc9 ac3b 00ca 0dbb
000002a0: e4c2 923b 0783 853b b4ae 8c3b f77a 083a
000002b0: 2d7a 833b 348f d63b 544a 353c 416e 3fbb
000002c0: a414 afba ff67 df3b 4e6b 173b d5cc 16ba
000002d0: fd9b 343b 9095 0abc d400 4d3b f543 47b9
000002e0: 5555 df3a c9d2 443a db87 e63b 50b8 89bb
000002f0: 137f 40bb 04e7 22ba d36d 843b a4f9 983b
00000300: feca 823b 0c5d 9d3b 72f8 df3b dc24 16bc
00000310: 225c 8b3b 99d1 d83b e204 8e3b 2a39 ae3b
00000320: 59f8 043c ff4c 273b 9327 e9b9 2bed a63a
00000330: b9cb c83b 5c5e 4bbb 3d04 303c 9ade 89bb
00000340: c05f a83b 5b2e 863b 76d6 a13b 73a5 843b
00000350: 1a7d b3ba 1b3e 543c 9f1f 603b b231 893b
00000360: 0b1c cc3b acfd 7abb ea71 7f3b 380f c3bb
00000370: 6643 093b b488 6e3b 3409 aeb8 8c59 583b
00000380: 322b 963b 2f43 a33b a167 8739 cf09 8835
00000390: 6399 56bb 7828 7c3b c7ff 213b f31d 783b
000003a0: e79f 2f3b 1565 8a3a a57d 153b 1b37 903b
000003b0: 3590 2f3b 29c1 70bb ed93 33bb 763a e43b
000003c0: 1bec ac3a 9741 64bb 15d9 4abb c788 00bb
000003d0: 2210 8bbb 1206 90bb 38ea 23bb aa4d a33b
000003e0: baa6 5f3c 8473 573b 88b9 1b3b 8002 b7ba
000003f0: 9218 5f3b ddab 943a 8c6e 5839 5e56 9d3b

network_body._body_endoder.seq_layers.0.weight f4 [256, 14]
0.11587867 0.5687113 0.10931612 -0.12106476 -0.0049538505 -0.06023628 -0.29212785 0.08474
-0.10209036 -0.026403088 0.20719081 -0.039064605 -0.11197548 0.06836186 0.0008013772 0.46711007
0.080238655 0.38476774 0.23882759 -0.2891666 0.15440348 0.14321709 0.41101742 -0.04658947
-0.1732267 0.5797489 0.16478124 -0.13659926 -0.30457678 -0.08473258 0.108572066 0.25445598
0.22845694 -0.28893057 0.23967372 0.36597973 0.10645278 -0.0830089 0.0018893231 0.2657159
-0.43968838 -0.06558507 -0.23754603 -0.18134685 -0.36559296 0.37700552 -0.27164835 -0.038441945
0.25868887 0.08923405 -0.25017235 0.1661899 0.15893465 0.021555016 0.4486279 -0.07930956
0.029550465 0.4581767 -0.08002445 0.0063291187 0.051519997 -0.3077372 0.16500148 -0.10214449
0.16917172 -0.056579854 0.29912233 -0.47427565 -0.12122649 -0.084596954 0.027192792 -0.47307116
0.099995494 0.16555387 -0.4192657 -0.1556708 0.061338414 -0.18530911 -0.27648276 0.113403454
0.11855655 0.21540782 0.5706227 0.17786252 0.3354897 -0.21922846 0.40565357 -0.06207979
0.111796565 0.19854887 0.030342858 -0.24805984 0.08937818 0.24256285 -0.26055238 0.23850857
-0.34324703 -0.7400504 0.15588866 -0.33991927 -0.020109568 0.20528938 0.58037925 -0.39977437
-0.42614573 0.35614225 -0.29762518 -0.32302353 0.017623754 0.27289066 -0.19615366 -0.0014198422
0.024250077 -0.35807192 -0.1718631 0.8043517 -0.40241173 0.01565575 -0.03407666 0.52945805
0.36268443 0.43806094 0.25447467 -0.28451663 -0.38056493 -0.4915152 -0.16122548 -0.20178354
0.25258034 0.09833022 -0.2512537 0.07371429 0.0012574751 0.12319077 -0.2540775 -0.07577749
-0.16321874 0.06020635 0.058677856 -0.14588523 0.34289074 0.37037244 0.38662845 0.15549587
-0.105443545 0.10997484 -0.031649772 0.11663743 -0.1341542 0.57615715 0.1687339 0.057444617
-0.18643115 0.040048983 -0.1016321 0.42887804 -0.003938834 0.16567907 0.025372857 -0.39600602
-0.29072377 0.21389914 0.5356377 0.006838452 0.18139859 -0.42412844 -0.47181898 0.20223747
0.0110886125 0.04749997 0.068870224 -0.010448077 0.07760984 0.5337602 -0.091454506 0.084966294
0.17486703 0.12352635 -0.25070652 0.45216075 0.70625997 0.058754373 -0.41733295 0.26358554
-0.021027785 0.31257275 -0.09028297 -0.42917648 -0.012914768 -0.35911378 0.77999073 -0.0774218
0.33625972 -0.07254655 0.14765252 0.080243446 0.47545034 -0.12572552 -0.4432924 0.124878325
-0.16992725 -0.26316276 0.04575145 0.43065143 -0.14914471 -0.38974062 0.5130958 0.1747425
-0.008834135 0.078013726 0.09161868 -0.14807186 -0.11822378 -0.1746477 -0.0028671804 -0.024338113
-0.24763331 -0.16898087 0.2238463 -0.34944668 -0.22341157 -0.21375123 0.12211762 0.16777194
0.27094805 -0.2595816 0.048647795 0.36603564 -0.08429182 0.26932672 -0.20906797 0.21731324
0.0028801032 -0.41983944 0.2105996 0.35800275 0.45603046 0.22024083 -0.13730338 0.38875067
0.10573407 -0.018905396 -0.11903438 -0.33470872 0.16286774 0.10876367 0.20491602 0.13663144
-0.016593382 -0.70476544 0.26895776 0.24961972 -0.060116693 -0.042490106 -0.21037054 0.21152033
00000000: cc51 ed3d 1097 113f 21e1 df3d cdf0 f7bd
00000010: e953 a2bb 51ba 76bd c891 95be 2a8c ad3d
00000020: c014 d1bd 4a4b d8bc d429 543e 3502 20bd
00000030: 6753 e5bd 4e01 8c3d 8313 523a 0d29 ef3e
00000040: 2a54 a43d 4700 c53e 388f 743e a50d 94be
00000050: f21b 1e3e 80a7 123e e070 d23e 9ad4 3ebd
00000060: 5762 31be 6d6a 143f 6abc 283e ade0 0bbe
00000070: 7df1 9bbe 4688 adbd 085b de3d 0e48 823e
00000080: 9ef0 693e b5ee 93be 076d 753e b261 bb3e
00000090: ea03 da3d 9200 aabd 2aa3 f73a ea0b 883e
000000a0: d61e e1be 7751 86bd 443f 73be fdb2 39be
000000b0: 002f bbbe de06 c13e 7e15 8bbe 4d75 1dbd
000000c0: de72 843e 57c0 b63d 9716 80be af2d 2a3e
000000d0: c4bf 223e 2594 b03c 8eb2 e53e 0d6d a2bd
000000e0: d113 f23c 2396 ea3e dce3 a3bd 7f64 cf3b
000000f0: a206 533d bb8f 9dbe 26f6 283e 2131 d1bd
00000100: 5a3b 2d3e 47c0 67bd 9026 993e 42d4 f2be
00000110: 9845 f8bd 2b41 adbd 6bc3 de3c 6236 f2be
00000120: 70ca cc3d f486 293e fea9 d6be 2b68 1fbe
00000130: fd3d 7b3d acc1 3dbe 268f 8dbe 1240 e83d
00000140: c7cd f23d de93 5c3e 5414 123f 9821 363e
00000150: 4ec5 ab3e 6d7d 60be d3b1 cf3e 6147 7ebd
00000160: 99f5 e43d 6550 4b3e 9691 f83c 6603 7ebe
00000170: e80b b73d 6562 783e 1f67 85be 973b 743e
00000180: 13be afbe f173 3dbf 47a1 1f3e e609 aebe
00000190: d2bc a4bc 6137 523e bc93 143f 3aaf ccbe
000001a0: c62f dabe 4758 b63e 5462 98be 5763 a5be
000001b0: b15f 903c 53b8 8b3e 81dc 48be 001a baba
000001c0: 19a8 c63c 3455 b7be e1fc 2fbe fee9 4d3f
000001d0: e908 cebe 7d40 803c f893 0bbd 908a 073f
000001e0: c6b1 b93e 8649 e03e 814a 823e 2aac 91be
000001f0: 68d9 c2be e1a7 fbbe 4b18 25be 58a0 4ebe
00000200: 3652 813e 5b61 c93d 53a4 80be 85f7 963d
00000210: ddd1 a43a 714b fc3d 7216 82be 3b31 9bbd
00000220: d022 27be ef9a 763d 3158 703d f062 15be
00000230: 608f af3e 75a1 bd3e 2af4 c53e 4f3a 1f3e
00000240: c9f2 d7bd 7d3a e13d 31a3 01bd 9bdf ee3d
00000250: b85f 09be 097f 133f 94c8 2c3e 0c4b 6b3d
00000260: cfe7 3ebe 670a 243d 7e24 d0bd e795 db3e
00000270: 5611 81bb c6a7 293e bdda cf3c 4dc1 cabe
00000280: bfd9 94be 6008 5b3e 8d1f 093f 1815 e03b
00000290: 8dc0 393e 5d27 d9be 4292 f1be 5717 4f3e
000002a0: 03ad 353c 548f 423d d50b 8d3d 692e 2bbc
000002b0: e8f1 9e3d 82a4 083f 804c bbbd cf02 ae3d
000002c0: 5810 333e 62fb fc3d 9b5c 80be 9d81 e73e
000002d0: 74cd 343f 6da8 703d aaac d5be aff4 863e
000002e0: 7642 acbc 8909 a03e 47e6 b8bd 05bd dbbe
000002f0: 7798 53bc c3dd b7be 79ad 473f 528f 9ebd
00000300: 3c2a ac3e 4993 94bd 3932 173e ad56 a43d
00000310: 3a6e f33e 31be 00be 39f7 e2be 35c0 ff3d
00000320: 6901 2ebe 45bd 86be df65 3b3d 587e dc3e
00000330: 64b9 18be 158c c7be 3f5a 033f b3ef 323e
00000340: 0cbd 10bc a9c5 9f3d 93a2 bb3d 26a0 17be
00000350: 4f1f f2bd d9d6 32be 4ee7 3bbb b960 c7bc
00000360: 9693 7dbe 5209 2dbe f737 653e adea b2be
00000370: 01c6 64be 9ae1 5abe ce18 fa3d 68cc 2b3e
00000380: b4b9 8a3e e1e7 84be e942 473d 0669 bb3e
00000390: 31a1 acbd 31e5 893e ea15 56be 5d87 5e3e
000003a0: 1dc0 3c3b 32f5 d6be 6ca7 573e 234c b73e
000003b0: d37c e93e d086 613e 4299 0cbe 540a c73e
000003c0: 1b8b d83d 7ddf 9abc 4cc8 f3bd f15e abbe
000003d0: cdc6 263e 7dbf de3d 81d5 513e 1de9 0b3e
000003e0: d8ee 87bc 826b 34bf d5b4 893e 509c 7f3e
000003f0: ec3c 76bd 1b0a 2ebd 606b 57be c998 583e

network_body._body_endoder.seq_layers.2.bias f4 [256]
0.003445944 0.0027102288 0.0022481482 0.0046027903 -0.0011681711 -0.00551731 0.0045852684 0.00024022262
-0.0060632555 -0.0023245958 0.0037158234 -0.0016491466 0.0024541544 0.0025241186 -0.005484462 0.004368253
-0.0006814416 0.004835937 -0.00084057404 -0.0047803894 0.0028769837 0.005614183 -0.0039604283 -0.0042032516
-9.646649e-06 -0.0011146565 -0.0032957739 0.0077564972 -0.0042762468 -0.0048297914 0.0037012566 0.0035266618
0.00797107 -0.0059838947 0.0013245867 0.0008429545 0.0062253983 0.0023174724 -0.005790428 0.009801325
-0.0026134884 0.0025177544 0.006903008 0.0009288025 -0.00304351 0.0032531822 -0.0028397283 0.004430729
-0.0038144786 0.006817327 0.007862364 0.004162363 0.006380137 0.0005589304 0.0022988294 0.0035688183
0.0035068144 -0.0018149758 0.0034724423 -0.0012208797 0.0012787768 0.0026375449 -0.0027133 0.0065563796
0.0074367947 0.00070735527 -0.00058315665 0.0053508766 -0.0010565858 0.0028364724 -0.00394858 0.0009736268
-0.0033144783 0.0012191593 0.005463716 -0.0026469757 0.0030834263 0.0014448559 -0.0025007776 -0.00021752913
0.000751841 -0.0021321834 -0.0069797495 -0.00058360683 0.0055230954 0.0010697474 -0.0043465965 0.008456324
0.0047306623 0.0006763026 0.004972725 0.0033885438 0.0047132964 -0.0017241891 0.0015091399 0.0015742081
-0.0021363096 -0.0030669135 -0.0031484114 -0.0026745747 0.004720406 0.004717874 0.006353839 -0.0037939302
-0.002765326 -0.0013357551 -0.005150796 -5.7402438e-05 0.0022289555 -0.004492277 0.010109241 -0.0020327475
-0.003802706 -0.002297894 0.005089353 0.0036080978 -0.003563068 -0.0033010424 -0.0037330112 0.0038529944
-0.0050677555 0.0010194968 -0.0026122686 0.0003601774 -0.003550604 -0.007623611 0.0035771013 0.00034057393
-0.0011599258 0.002188815 -0.0015048943 0.0006724781 -0.0034074658 0.00577892 0.00021336152 -0.0027010264
0.004444343 0.00689051 0.0057197665 0.0022045278 0.0009343237 0.006851129 -0.0021803728 0.0053328527
-0.006050671 0.0060132793 0.0044080624 -0.0028744764 -0.0010301931 0.0023192114 -0.0030326713 0.0030728315
0.006750842 0.0046962816 0.00023634911 -0.007474181 0.009404592 -0.00017060013 0.0002971573 0.0036721313
-0.00239163 0.0029430317 -0.0046096435 -0.003831937 -0.0023271856 -0.005067868 -0.004135094 -0.007347714
0.0030513941 -0.004945816 0.005997713 -0.002217862 0.006099666 0.0020971436 -0.0024533332 0.006147258
0.003979881 0.0074355844 0.00042762677 -0.0042967703 -0.0033375928 0.005129862 -0.010469639 -0.0011630463
-0.0031875572 0.0038835895 0.0013510754 0.0046261875 0.001208913 -0.00059606414 -0.002827011 -0.0055510444
0.009883466 0.0043289885 0.002024854 0.00077414414 -0.0033194916 -0.0020872224 -0.0014049376 -0.004119832
-0.003133695 0.0061673163 0.008002116 0.0035074216 0.0059605404 -0.006299508 0.00016604537 0.0012580785
0.0061082006 0.0030671556 0.004688921 0.0061087925 0.0024020502 0.0006563947 0.004792552 -0.0077773924
-0.0014771362 -0.0016928083 0.00048269436 0.0075214985 -0.0036677641 0.0063260966 0.0011078713 -0.0017380434
0.0016882104 0.0090600345 0.0054551954 0.0023203378 -0.00091038883 0.0017125017 0.0060264976 -0.0038732453
0.0049533066 1.865103e-05 -0.0012184308 0.0004168267 -0.0036068119 -0.0031799711 -0.000596211 -0.005593538
-0.0036495912 -0.0015933363 -0.0016112495 0.0024217698 0.0020490976 0.006420449 0.0017561332 0.001318356
-2.412701e-05 -0.0005305333 0.0021100563 -0.0047715236 -0.0038579952 0.0036006584 -0.005536273 -0.0020799604
00000000: 59d5 613b 189e 313b ab55 133b 01d3 963b
00000010: 511d 99ba 8dca b4bb 0540 963b 45e4 7b39
00000020: 46ae c6bb 3f58 18bb 2c85 733b 2d28 d8ba
00000030: e1d5 203b af6b 253b 00b7 b3bb 9023 8f3b
00000040: c6a2 32ba c876 9e3b f859 5cba d0a4 9cbb
00000050: c78b 3c3b 2ef7 b73b 7bc6 81bb 6ebb 89bb
00000060: 0bd8 21b7 aa19 92ba e9fd 57bb 372a fe3b
00000070: c21f 8cbb 3a43 9ebb c890 723b 911f 673b
00000080: 1799 023c 8c14 c4bb c19d ad3a b8f9 5c3a
00000090: 6dfe cb3b bce0 173b a1bd bdbb bd95 203c
000000a0: 0f47 2bbb e900 253b a132 e23b e17a 733a
000000b0: a075 47bb 5733 553b bc1a 3abb a62f 913b
000000c0: 55fc 79bb e263 df3b 25d1 003c 6e64 883b
000000d0: 7810 d13b 2f85 123a f5a7 163b d6e2 693b
000000e0: 95d2 653b 7be4 edba ea91 633b ed05 a0ba
000000f0: a19c a73a a9da 2c3b 9fd1 31bb e6d6 d63b
00000100: 5bb0 f33b cf6d 393a fbde 18ba 6856 af3b
00000110: 237d 8aba 1ce4 393b 1763 81bb fd3a 7f3a
00000120: b837 59bb 33cc 9f3a f908 b33b e278 2dbb
00000130: 4f13 4a3b 5261 bd3a 16e4 23bb 8818 64b9
00000140: 3217 453a 1abc 0bbb 62b6 e4bb 31fd 18ba
00000150: 15fb b43b c436 8c3a e56d 8ebb 658c 0a3c
00000160: ac03 9b3b e649 313a 3ef2 a23b 5512 5e3b
00000170: ff71 9a3b 30fe e1ba 55ce c53a a955 ce3a
00000180: 5401 0cbb 45fe 48bb 9455 4ebb eb47 2fbb
00000190: a3ad 9a3b 6598 9a3b dd33 d03b 96a3 78bb
000001a0: 793a 35bb 8114 afba 02c8 a8bb 66c3 70b8
000001b0: ab13 123b f333 93bb 3ba1 253c d837 05bb
000001c0: d236 79bb 4498 16bb 96c4 a63b d675 6c3b
000001d0: 5d82 69bb 4d56 58bb 89a5 74bb 8582 7c3b
000001e0: 6a0f a6bb a3a0 853a 9832 2bbb 31d6 bc39
000001f0: 40b1 68bb 7ccf f9bb cd6d 6a3b 0f8f b239
00000200: a708 98ba 3972 0f3b e03f c5ba 3e49 303a
00000210: ca4f 5fbb 185d bd3b ccb9 5f39 b403 31bb
00000220: daa1 913b cac9 e13b e16c bb3b d779 103b
00000230: 67ed 743a 6f7f e03b 96e4 0ebb 36bf ae3b
00000240: b544 c6bb 0b0b c53b 8271 903b b661 3cbb
00000250: 8b07 87ba e9fd 173b c8bf 46bb 8f61 493b
00000260: 2b36 dd3b 44e3 993b 7bd4 7739 f9e9 f4bb
00000270: b815 1a3c 20e3 32b9 c7cb 9b39 24a8 703b
00000280: e5bc 1cbb e1df 403b 7e0c 97bb 3c21 7bbb
00000290: b283 18bb 5c10 a6bb af7f 87bb 18c5 f0bb
000002a0: e6f9 473b 8310 a2bb 7788 c43b 8d59 11bb
000002b0: b5df c73b 3b70 093b 1ac8 20bb f06e c93b
000002c0: a969 823b 34a6 f33b 1833 e039 eccb 8cbb
000002d0: 84bb 5abb 6718 a83b d988 2bbc 5c71 98ba
000002e0: 56e6 50bb d283 7e3b 9116 b13a 4697 973b
000002f0: 6474 9e3a 3041 1cba 6045 39bb 89e5 b5bb
00000300: 43ee 213c 30da 8d3b 6ab3 043b efef 4a3a
00000310: d48b 59bb c8c9 08bb e225 b8ba a8ff 86bb
00000320: ae5e 4dbb 3317 ca3b 4f1b 033c c5dc 653b
00000330: a350 c33b 1a6c cebb 771c 2e39 1ce6 a43a
00000340: 4d27 c83b 5502 493b 85a5 993b 442c c83b
00000350: b76b 1d3b e711 2c3a d70a 9d3b 7fd9 febb
00000360: 779c c1ba 39e1 ddba 2412 fd39 e776 f63b
00000370: df5e 70bb 254b cf3b fe35 913a 0fcf e3ba
00000380: f146 dd3a 8a70 143c 7fc1 b23b cf10 183b
00000390: 29a7 6eba 0676 e03a ed79 c53b 46d6 7dbb
000003a0: 594f a23b c874 9c37 c1b3 9fba 8889 da39
000003b0: 4360 6cbb 1067 50bb 0b4b 1cba ff49 b7bb
000003c0: fb2d 6fbb 7fd7 d0ba 9030 d3ba 8eb6 1e3b
000003d0: 274a 063b a162 d23b 0d2e e63a b0cc ac3a
000003e0: 5c64 cab7 7d13 0bba df48 0a3b 715a 9cbb
000003f0: 6bd6 7cbb 06f9 6b3b a069 b5bb f24f 08bb

network_body._body_endoder.seq_layers.2.weight f4 [256, 256]
-0.18348534 0.007985092 0.11931026 0.010134853 -0.057335302 0.04882311 -0.07619401 0.039739303
0.036802724 0.011694917 0.06972408 -0.05218409 0.106560536 0.04598592 0.036222547 0.089378126
0.024511082 -0.028327143 -0.02123924 0.014580746 0.016698968 -0.13810606 0.031920798 -0.011593952
-0.012350802 -0.11774497 -0.040283695 -0.061731413 -0.06305604 -0.01465448 -0.0061935876 -0.13275857
-0.030839428 0.020228656 0.026285976 0.102441885 -0.1098433 -0.092879094 0.008984315 0.046984076
-0.08355866 -0.07399889 0.016319366 0.00284967 0.121145494 -0.017826745 -0.014443484 -0.10598096
-0.019162197 -0.009826853 -0.041333515 0.060215954 0.008159041 -0.04894718 -0.016930973 -0.077567324
-0.08959324 -0.06706753 0.045758493 -0.028922647 0.06575554 -0.03205852 0.10335022 -0.022838034
-0.0028863843 -0.032787465 0.03901379 -0.057522602 0.046645407 0.070245355 -0.0321136 0.04372136
0.11795181 -0.037311863 -0.049906824 -0.057576872 -0.030646982 -0.038311675 -0.045794412 -0.0039208126
-0.03169684 0.012260295 -0.044072285 -0.09388374 -0.0060084364 -0.05903232 -0.04153278 -0.060051482
0.09578232 -0.024747945 0.04336796 -0.07646373 0.012315058 -0.10606665 0.0037776746 -0.100352935
0.07874617 -0.0067330846 0.08795765 0.025779657 -0.12584724 -0.087404385 -0.02491758 0.039238527
0.016147291 -0.005506587 -0.06928809 0.09193468 0.034002397 0.012577575 0.03003881 -0.041298747
0.07964072 0.0139776 0.032719858 -0.028094051 -0.116224065 0.03743477 0.0154649895 0.029809134
0.1320176 -0.08161144 0.05515354 0.04626074 0.005275932 0.061023954 0.0027390027 0.013913916
0.028546114 0.046994273 -0.0929066 0.034164876 0.026273917 0.086015925 -0.022485472 0.06734652
-0.07643918 -0.038060125 0.035464797 -0.008032627 0.01405709 0.055653047 -0.0105613265 -0.029888576
0.13445497 0.021346824 0.007344398 -0.06543073 0.02120785 0.053533204 0.08703888 0.017077202
0.035070673 0.0018181851 -0.06020164 0.121924594 0.00193626 0.07169505 9.265466e-05 0.009311385
-0.055889815 -0.0130609395 -0.00626711 -0.001545004 0.0957027 -0.01561975 -0.011828258 -0.045162607
-0.035418097 0.037891526 0.053506088 0.035869345 -0.009797491 0.12390742 -0.03785035 -0.017689722
-0.048526935 -0.036101103 -0.028468078 0.047726143 -0.018584149 0.096309 0.008772871 -0.06253797
-0.05415671 -0.03007193 0.076201975 0.13051489 0.004443456 -0.018824825 -0.04673138 -0.1151243
0.065326884 0.05050086 -0.025361959 0.030893212 -0.029346712 -0.009248937 0.04580965 0.016478483
0.020392204 -0.046277385 0.056436695 0.032442525 -0.060103584 -0.0058489847 -0.020798638 0.028771527
-0.019512614 0.041746195 0.15133058 0.084738724 -0.012134067 -0.16622542 0.077533044 0.01608347
0.02355171 0.053696882 0.07157614 -0.022262951 0.1552657 -0.07128681 0.0007640524 -0.033975266
-0.12356026 0.017298339 0.032697428 0.05089606 -0.0075343917 0.020604154 -0.0038102267 0.12796764
0.049618613 -0.007087363 0.05088449 -0.011660265 0.014298267 0.01502063 -0.051019065 0.010678947
-0.12246377 -0.064811185 0.03202865 -0.062108077 0.032863133 0.017867235 0.010690585 0.05958758
-0.03205192 0.017290398 -0.09723808 0.09102697 0.053478453 0.14724621 0.08857099 -0.0985948
00000000: 95e3 3bbe e7d3 023c f058 f43d a80c 263c
00000010: 6cd8 6abd befa 473d 9b0b 9cbd aec5 223d
00000020: 74be 163d 0a9c 3f3c 80cb 8e3d fcbe 55bd
00000030: 693c da3d bb5b 3c3d 185e 143d e10b b73d
00000040: 77cb c83c 530e e8bc eafd adbc 15e4 6e3c
00000050: 46cc 883c ad6b 0dbe 62bf 023d 8ff4 3dbc
00000060: 055b 4abc 4624 f1bd 8400 25bd 14da 7cbd
00000070: 8623 81bd 5819 70bc 94f3 cabb ddf1 07be
00000080: f8a2 fcbc 91b6 a53c b055 d73c 0dcd d13d
00000090: 86f5 e0bd 6537 bebd f332 133c 6072 403d
000000a0: cd20 abbd bb8c 97bd 31b0 853c 87c1 3a3b
000000b0: 211b f83d 6509 92bc 5da4 6cbc 8c0c d9bd
000000c0: 0afa 9cbc cf00 21bc 554d 29bd 01a5 763d
000000d0: 80ad 053c d77c 48bd d3b2 8abc 9edb 9ebd
000000e0: a97c b7bd b35a 89bd 426d 3b3d 30ef ecbc
000000f0: d7aa 863d cb4f 03bd 48a9 d33d d416 bbbc
00000100: 7e29 3dbb 264c 06bd edcc 1f3d d29c 6bbd
00000110: 410f 3f3d ccdc 8f3d 8d89 03bd 2b15 333d
00000120: b890 f13d 53d4 18bd 196b 4cbd bad5 6bbd
00000130: 610f fbbc b4ec 1cbd ec92 3bbd 297a 80bb
00000140: 8cd4 01bd 68df 483c 2485 34bd 1e46 c0bd
00000150: 6be2 c4bb e0cb 71bd 471e 2abd 8bf8 75bd
00000160: 8529 c43d 34bc cabc 9aa2 313d 0499 9cbd
00000170: 19c5 493c 7939 d9bd dd92 773b d785 cdbd
00000180: ac45 a13d 35a1 dcbb 2423 b43d dc2f d33c
00000190: 19de 00be 1201 b3bd f41f ccbc 94b8 203d
000001a0: 5347 843c 9a70 b4bb eae6 8dbd 4048 bc3d
000001b0: 1946 0b3d 2c12 4e3c f313 f63c e028 29bd
000001c0: ac1a a33d 4e02 653c 4205 063d 7f25 e6bc
000001d0: e206 eebd 3455 193d de60 7d3c 4932 f43c
000001e0: 9f2f 073e e623 a7bd aee8 613d e77b 3d3d
000001f0: bae1 ac3b 41f4 793d d780 333b 32f7 633c
00000200: 8ad9 e93c 117d 403d d145 bebd 78f0 0b3d
00000210: 663c d73c 1e29 b03d 7433 b8bc f9ec 893d
00000220: 258c 9cbd efe4 1bbd 8943 113d 489b 03bc
00000230: b54f 663c 73f4 633d 6a09 2dbc e3d8 f4bc
00000240: 90ae 093e 89df ae3c 47a9 f03b 8c00 86bd
00000250: 16bc ad3c a245 5b3d 7141 b23d 7de5 8b3c
00000260: 44a6 0f3d 2b50 ee3a ff95 76bd 9ab3 f93d
00000270: 1bca fd3a dbd4 923d 984f c238 c88e 183c
00000280: b8ec 64bd 8dfd 55bc 545c cdbb bb81 caba
00000290: c7ff c33d fbe9 7fbc 4fcb 41bc 6dfc 38bd
000002a0: 9112 11bd 2534 1b3d 3329 5b3d bceb 123d
000002b0: a885 20bc 2cc3 fd3d f808 1bbd 09ea 90bc
000002c0: 2ec4 46bd c0de 13bd e335 e9bc 7d7c 433d
000002d0: c93d 98bc a73d c53d 17bc 0f3c e813 80bd
000002e0: 6dd3 5dbd 6859 f6bc c80f 9c3d b2a5 053e
000002f0: 699a 913b 8536 9abc 6769 3fbd 4ac6 ebbd
00000300: 1aca 853d fdd9 4e3d e2c3 cfbc c313 fd3c
00000310: 8468 f0bc da88 17bc e6a2 3b3d e2fd 863c
00000320: 8d0d a73c 5b8d 3dbd 2a2a 673d 74e2 043d
00000330: 2d2f 76bd d7a8 bfbb e861 aabc 44b2 eb3c
00000340: ebd8 9fbc 0ffe 2a3d 67f6 1a3e 7f8b ad3d
00000350: f7cd 46bc ff36 2abe a5c9 9e3d 7bc1 833c
00000360: 84ef c03c 43f1 5b3d 8396 923d cb60 b6bc
00000370: f9fd 1e3e d2fe 91bd b04a 483a a629 0bbd
00000380: 290d fdbd 3fb5 8d3c bded 053d 6378 503d
00000390: 0fe3 f6bb 0bca a83c ffb4 79bb f309 033e
000003a0: e33c 4b3d 1c3d e8bb 416c 503d b20a 3fbc
000003b0: 4743 6a3c 1719 763c 5ef9 50bd c0f6 2e3c
000003c0: 49ce fabd babb 84bd 7930 033d 0a65 7ebd
000003d0: 7e9b 063d 4f5e 923c 9027 2f3c 1b12 743d
000003e0: e048 03bd 98a4 8d3c c224 c7bd 596c ba3d
000003f0: 390c 5b3d b6c7 163e b564 b53d 12ec c9bd

network_body._body_endoder.seq_layers.4.bias f4 [256]
0.005711153 0.00253545 -0.00048715156 -0.0015929039 0.0044448148 0.00058762863 -0.0016691303 0.0059258337
-0.0008112913 0.006747969 -0.0019738267 0.0009934823 0.005493423 -0.0007910372 -0.0050171 0.003506183
-0.0036669772 -0.0025953816 -0.00075389794 0.0058099753 -0.0041545364 -0.0018400849 -0.004339797 -0.0049930043
-0.002127232 -0.0060284245 -0.0009771411 -0.0038410097 0.0052812337 -0.0032429036 0.0043178517 0.0073717255
0.0057887295 0.003518975 -0.0016526914 0.0033431156 0.0040983395 0.0012037638 -0.0051290565 0.0068828478
0.0050967294 0.0015008297 0.0018564755 -0.003922453 0.006262863 0.0034438241 -0.0040832493 -0.001949226
0.0055068894 0.0048413463 -0.006234937 0.005049289 0.007356003 -0.002064172 -0.0015503496 -0.0034528445
-0.0043414105 0.0013296085 -0.005148543 -0.0029693074 -0.0007073697 0.0045148544 0.0059310286 0.005393403
-0.003528878 0.003496764 0.004414696 0.004654264 -0.0071110693 -0.0050421334 0.005121105 -0.002784941
0.0028579098 -0.003057167 0.0047233365 -0.004944906 -0.00087242585 -0.004250665 -0.0011670727 0.005498015
0.0020263244 -0.0053928792 -0.0041495543 0.004685606 0.0008046194 -0.0030364897 -0.0004260162 0.006930751
0.007008713 0.001617133 -0.0019842149 -0.003255071 0.0007012211 -0.003653141 -0.0050634854 -0.00083781284
0.003905497 -0.0042801443 -0.002480966 -0.004514271 0.0018318516 -0.0047918223 0.004949389 0.0011637843
-0.0021162154 -0.0037735738 -0.0032722661 0.0071325502 -0.0020773201 0.006064861 0.0033504853 -0.0010004272
0.003293777 0.0060777483 0.005934012 0.002845476 -0.0045098783 -0.0013883408 -0.004584405 0.007823531
-0.007119302 -0.004784451 -0.001055406 -0.0034907868 -0.0053359093 -0.0008080703 0.0055394825 -0.001251751
-0.0033647837 -0.0020108116 0.00057208864 0.001259415 -0.0029638936 -0.00017009741 -0.0015271256 -0.005716904
0.0036510804 0.0056467433 0.006370357 0.001845841 -0.005380931 -3.6798765e-06 -0.0046353824 0.00086934504
0.0020565232 0.0068858275 -0.005293841 0.0021108054 -0.005329479 -0.00650667 0.0049944078 0.0083790505
0.006921552 -0.005678142 -0.0058262087 0.006191665 0.0013562879 0.0058065536 0.0053400663 -0.0028364835
-0.0036986764 -0.0027603805 0.002977629 -0.0016038989 -0.0030498188 -0.0053915093 -0.006077443 -0.0049718465
-0.006709 0.0039813244 -0.0028569389 -0.003681786 0.0013487539 -0.0019508643 -0.003629041 0.0035135266
0.000871637 0.0018276272 -0.0024042195 -0.0045457976 0.004482719 -0.003951911 -0.002186614 0.0009883578
-0.0044746986 -0.0011930815 -0.00042732744 -0.0015754007 0.00018006201 -0.004601364 0.006682612 -0.0020477364
0.0023364418 -0.0013360255 0.0016550315 0.00645254 -0.0059973095 0.002136847 2.1578411e-05 -0.0061812047
0.0016660522 -0.0045493785 0.00601049 0.002190693 -0.0045439037 0.0026498775 0.0012734194 0.004851704
-0.0018507602 -0.001978715 -0.0045734085 -0.0048956615 0.0060590305 -0.004065808 0.0014696876 -0.0053394916
-0.0031612106 0.0021291033 0.0047320947 -0.0033181296 -0.0028501088 0.0003250032 -0.0038603563 0.0042180936
0.0028526087 0.0017193132 -0.004925149 -0.0008916556 -0.0031978597 0.0012043588 0.00032993534 0.005527109
-0.00096525997 0.005745687 0.0021369145 -0.0011880763 0.0061814813 0.00492249 -0.0001715546 0.0005409007
0.0062979045 0.0009480004 -0.0032928495 0.0036628856 -0.004654027 0.00030937206 -0.0038000788 -0.0042392937
-0.0041229897 0.0075716055 0.0026994203 -0.0046478673 -0.004744542 -0.0019514235 -0.003987787 -0.002874273
00000000: a024 bb3b cb29 263b 6068 ffb9 fcc8 d0ba
00000010: cfa5 913b 170b 1a3a b8c6 daba 7f2d c23b
00000020: d6ac 54ba 111e dd3b 515b 01bb bc37 823a
00000030: 2c02 b43b 9c5d 4fba 7c66 a4bb fdc7 653b
00000040: ab51 70bb 4717 2abb 3ca1 45ba 9b61 be3b
00000050: c722 88bb 012f f1ba db34 8ebb 5b9c a3bb
00000060: 0869 0bbb 178a c5bb 6a13 80ba 73b9 7bbb
00000070: 330e ad3b e586 54bb c47c 8d3b 848e f13b
00000080: 62af bd3b 9b9e 663b 1f9f d8ba 2c18 5b3b
00000090: 5d4b 863b 9cc7 9d3a a511 a8bb 8389 e13b
000000a0: 7702 a73b 7db7 c43a fb54 f33a ec87 80bb
000000b0: b438 cd3b c8b1 613b c7cc 85bb 2c7d ffba
000000c0: 2373 b43b 28a4 9e3b 714e ccbb 8274 a53b
000000d0: a00a f13b 0f47 07bb 1a35 cbba 1e49 62bb
000000e0: 6442 8ebb 4246 ae3a 1cb5 a8bb b698 42bb
000000f0: c76e 39ba 58f1 933b 1359 c23b 25bb b03b
00000100: c044 67bb f729 653b 27a9 903b cc82 983b
00000110: f903 e9bb 7b38 a5bb f1ce a73b 8f83 36bb
00000120: c54b 3b3b c05a 48bb 38c6 9a3b e108 a2bb
00000130: 82b3 64ba 2a49 8bbb 76f8 98ba b128 b43b
00000140: 15cc 043b c0b6 b0bb fcf8 87bb b689 993b
00000150: 18ed 523a d8ff 46bb ed5a dfb9 5a1b e33b
00000160: 59a9 e53b fbf5 d33a 9a09 02bb 0753 55bb
00000170: 27d2 373a 8969 6fbb 98eb a5bb aba0 5bba
00000180: 5ef3 7f3b 7440 8cbb b497 22bb 73ec 93bb
00000190: bd1a f03a b804 9dbb 7c2e a23b 1f8a 983a
000001a0: 34b0 0abb 104e 77bb 8473 56bb 2bb8 e93b
000001b0: a623 08bb bebb c63b d193 5b3b c420 83ba
000001c0: 68dc 573b d927 c73b 1a72 c23b 2a7b 3a3b
000001d0: 9ac7 93bb fdf8 b5ba c738 96bb 442e 003c
000001e0: 0949 e9bb e2c6 9cbb 8d55 8aba afc5 64bb
000001f0: dad8 aebb aed4 53ba 8c84 b53b cb11 a4ba
00000200: b483 5cbb d2c7 03bb 38f8 153a f412 a53a
00000210: e23d 42bb 2d5c 32b9 d529 c8ba de54 bbbb
00000220: f746 6f3b 5108 b93b 6dbe d03b 25f0 f13a
00000230: 8552 b0bb ccf3 76b6 68e4 97bb c2e4 633a
00000240: bcc6 063b 82a2 e13b f577 adbb 7055 0a3b
00000250: e9a2 aebb e735 d5bb 21a8 a33b 4948 093c
00000260: 30ce e23b b50f babb c8e9 bebb 73e3 ca3b
00000270: 78c5 b13a e744 be3b b9fb ae3b 4ce4 39bb
00000280: 7e65 72bb 80e7 34bb 5324 433b eb39 d2ba
00000290: 78df 47bb 42ab b0bb 4925 c7bb dfea a2bb
000002a0: 2cd7 dbbb c575 823b 7b3b 3bbb 1e4a 71bb
000002b0: acc8 b03a 25b4 ffba 34d5 6dbb 3243 663b
000002c0: 927e 643a fe8c ef3a 1c90 1dbb eaf4 94bb
000002d0: c6e3 923b 087f 81bb 4c4d 0fbb c98b 813a
000002e0: 7ea0 92bb 2c61 9cba eb0a e0b9 ad7d ceba
000002f0: 07cf 3c39 0ac7 96bb d0f9 da3b 5133 06bb
00000300: fd1e 193b 941d afba a4ed d83a d46f d33b
00000310: 1485 c4bb 580a 0c3b 4903 b537 b48b cabb
00000320: 6f5f da3a f412 95bb a5f3 c43b bb91 0f3b
00000330: 07e5 94bb 91a9 2d3b dde8 a63a 0bfb 9e3b
00000340: 3595 f2ba 54ad 01bb 88dc 95bb c96b a0bb
00000350: d58a c63b 783a 85bb 88a2 c03a e7f6 aebb
00000360: 502c 4fbb 6d88 0b3b b00f 9b3b fa74 59bb
00000370: e4c8 3abb 3165 aa39 08fe 7cbb ef37 8a3b
00000380: d5f2 3a3b 945a e13a 2563 a1bb ffbd 69ba
00000390: 2f93 51bb 93db 9d3a 2cfb ac39 c01c b53b
000003a0: 8009 7dba 5146 bc3b 7a0b 0c3b 3ab9 9bba
000003b0: 068e ca3b d74c a13b 56e3 33b9 3bcb 0d3a
000003c0: a75e ce3b 3b83 783a d9cc 57bb 060d 703b
000003d0: cf80 98bb 3733 a239 be0a 79bb c6e9 8abb
000003e0: 251a 87bb 3b1b f83b c2e8 303b 234d 98bb
000003f0: 1a78 9bbb e8c6 ffba fbab 82bb 4d5e 3cbb

network_body._body_endoder.seq_layers.4.weight f4 [256, 256]
-0.017714566 -0.031481232 -0.03432816 0.025265796 -0.011628998 0.05443327 0.054043483 0.013099643
-0.05248323 0.085497245 0.07478051 0.028626716 -0.017484147 0.028609509 -0.019075718 0.06925105
-0.09205784 0.025816163 0.07766071 -0.12296117 0.046364605 0.004894498 0.06358133 0.05660605
0.08090612 0.0006183409 0.048036993 0.031942554 0.03157915 -0.0682676 -0.09818614 0.07320013
0.029008687 0.025190024 0.043457545 0.04590929 0.021160964 -0.044328734 0.014166612 0.05202972
0.05727811 0.087453455 -0.09009855 0.022080667 -0.017810237 -0.011068193 0.094851084 -0.027866114
-0.025175715 0.032777056 0.0075087175 -0.019573579 -0.0008858838 -0.06755125 0.017139958 0.084213994
0.09220044 -0.021142827 0.051102284 -0.0321744 -0.039607864 -0.09034693 -0.027435856 0.034291886
-0.052570406 0.12260998 -0.027230728 -0.0067996476 -0.06804898 0.15146162 -0.007989243 0.010777047
0.05024879 0.11918828 -0.07177556 -0.1129703 -0.02527022 -0.012927361 -0.12454771 0.036183517
0.057798725 -0.10029732 -0.03167748 -0.04119836 0.021083929 0.049907073 0.057596806 0.06300286
-0.068463944 -0.17865337 -0.015845828 0.10835139 -0.041720152 -0.027616544 -0.019295331 0.02110702
-0.12035854 -0.057010688 0.0064496677 -0.028927967 -0.060120896 -0.040326793 -0.02087423 0.07484129
-0.057066917 0.06602393 -0.07307697 -0.00039277042 -0.12554407 0.056107637 -0.005440372 0.026738713
0.05781783 -0.0035810224 -0.021456718 0.060487498 0.07082068 -0.096060924 0.036105897 0.05178975
-0.12518789 -0.036948662 -0.05566818 -0.03243127 0.108313404 -0.09313172 -0.0014792313 0.0067094886
-0.092340566 -0.046661668 -0.14883225 0.007028926 0.09790575 0.0027956634 0.03344866 -0.10540497
0.012395526 -0.01159262 -0.021902984 -0.10587848 -0.010598367 0.06783776 0.049989775 0.122124754
0.014018392 0.00057388283 -0.03059583 0.010600162 -0.076585315 0.055622574 -0.01215862 0.021190548
-0.062042437 0.02760697 -0.033431694 0.0119631495 -0.003351894 -0.005239749 0.012034813 -0.086304046
-0.092940606 0.062181108 -0.06151798 0.0012569566 -0.09462338 -0.06044967 -0.0019504784 0.011332442
0.07955148 -0.070200235 -0.009904369 -0.14201069 -0.008193074 -0.11152638 -0.05479179 0.08372905
-0.0065274774 -0.03714056 -0.095446385 0.092313595 0.023948368 0.015495848 -0.02315219 -0.09935329
-0.10935502 -0.026578102 -0.0034163916 0.0172814 -0.021057636 0.1342696 -0.031925477 -0.049939387
0.06493562 0.04538831 0.042798 0.06064329 -0.056831874 0.023027278 0.010687567 -0.008439341
0.020162253 0.058510117 -0.0168267 0.04751714 -0.086644575 0.1187704 -0.038013022 0.08616435
-0.07221021 0.021041365 -0.10751661 0.080439895 0.14602886 0.041366585 -0.040508274 0.07111342
-0.12044288 0.009067058 0.024358524 0.103828825 0.045314062 0.00978801 0.034986418 -0.0019817036
0.0053688334 -0.105186895 0.024466202 0.033845723 0.07381949 -0.20188622 0.121312805 -0.10612612
0.10472909 0.07055824 0.010971583 -0.1600158 0.0021635182 -0.03334684 -0.028804269 -0.082677536
0.0002704953 0.06916341 0.04916185 0.099998996 -0.0032728382 -0.0070334966 0.021600047 0.012363409
-0.016100159 0.028973026 -0.03745968 0.046520993 -0.003745104 -0.0265102 -0.05796654 0.057721686
00000000: 231e 91bc 77f2 00bd af9b 0cbd 37fa ce3c
00000010: 8e87 3ebc 6cf5 5e3d b35c 5d3d e39f 563c
00000020: a8f8 56bd 2e19 af3d 8626 993d 9382 ea3c
00000030: ea3a 8fbc 7d5e ea3c ae44 9cbc 7fd3 8d3d
00000040: d288 bcbd 6b7c d33c 940c 9f3d 11d3 fbbd
00000050: d0e8 3d3d 0662 a03b ee36 823d bfdb 673d
00000060: 1cb2 a53d 2818 223a 70c2 443d 32d6 023d
00000070: 2459 013d e2cf 8bbd d115 c9bd f3e9 953d
00000080: a0a3 ed3c 4f5b ce3c 8a00 323d 610b 3c3d
00000090: c259 ad3c 0c92 35bd 141b 683c 1e1d 553d
000000a0: 749c 6a3d cc1a b33d 9785 b8bd 84e2 b43c
000000b0: c6e6 91bc 5e57 35bc 4941 c23d 7a47 e4bc
000000c0: 4d3d cebc 3c41 063d b00b f63b c558 a0bc
000000d0: a83a 68ba 4f58 8abd 1969 8c3c 6378 ac3d
000000e0: 96d3 bc3d b933 adbc a150 513d 4ec9 03bd
000000f0: db3b 22bd d007 b9bd 29c1 e0bc a675 0c3d
00000100: 1154 57bd f11a fb3d fa12 dfbc 94cf debb
00000110: 435d 8bbd c118 1b3e 50e5 02bc 3692 303c
00000120: add1 4d3d fc18 f43d 11ff 92bd f95c e7bd
00000130: 7e03 cfbc 48cd 53bc df12 ffbd 2b35 143d
00000140: 5bbe 6c3d ae68 cdbd 3fc0 01bd 9dbf 28bd
00000150: 34b8 ac3c 5c6b 4c3d a1ea 6b3d a507 813d
00000160: d336 8cbd e9f0 36be 1ccf 81bc 55e7 dd3d
00000170: c0e2 2abd 173c e2bc 3e11 9ebc a1e8 ac3c
00000180: 8a7e f6bd 0a84 69bd bc57 d33b 58fa ecbc
00000190: 5441 76bd b52d 25bd 6f00 abbc 6446 993d
000001a0: 00bf 69bd 8e37 873d 61a9 95bd c1ec cdb9
000001b0: a08e 00be 1fd1 653d 2645 b2bb 250b db3c
000001c0: 64d2 6c3d 96af 6abb 00c6 afbc bdc1 773d
000001d0: 6f0a 913d 97bb c4bd c7e3 133d 7d21 543d
000001e0: 4131 00be 7b57 17bd 5104 64bd a7d6 04bd
000001f0: 6bd3 dd3d d8bb bebd c4e2 c1ba 45db db3b
00000200: 0d1d bdbd 4e20 3fbd 7b67 18be e852 e63b
00000210: cf82 c83d 7337 373b 7601 093d 90de d7bd
00000220: 9b16 4b3c f9ee 3dbc e36d b3bc d1d6 d8bd
00000230: c6a4 2dbc 86ee 8a3d 14c2 4c3d 8b1c fa3d
00000240: 66ad 653c a070 163a 1ba4 fabc 4dac 2d3c
00000250: c3d8 9cbd 7fd4 633d f334 47bc cd97 ad3c
00000260: 3620 7ebd 0328 e23c acef 08bd 1601 443c
00000270: 73ab 5bbb 33b2 abbb aa2d 453c 2dc0 b0bd
00000280: a557 bebd 9eb1 7e3d 47fa 7bbd 77c0 a43a
00000290: e7c9 c1bd 139a 77bd 32a7 ffba b5ab 393c
000002a0: e3eb a23d 24c5 8fbd ef45 22bc 406b 11be
000002b0: 3e3c 06bc f167 e4bd 5b6d 60bd 237a ab3d
000002c0: 73e4 d5bb b320 18bd 6579 c3bd e90e bd3d
000002d0: 5e2f c43c 4ce2 7d3c a9a9 bdbc bd79 cbbd
000002e0: 86f5 dfbd 52ba d9bc 8ae5 5fbb b991 8d3c
000002f0: 1081 acbc f87d 093e 4ac4 02bd 3e8d 4cbd
00000300: f7fc 843d 18e9 393d f54c 2f3d 1965 783d
00000310: 8ac8 68bd b4a3 bc3c e81a 2f3c 2945 0abc
00000320: 4f2b a53c 4ea8 6f3d 26d8 89bc 55a1 423d
00000330: b672 b1bd e53d f33d 8bb3 1bbd ef76 b03d
00000340: f2e2 93bd f15e ac3c ab31 dcbd acbd a43d
00000350: 9788 153e 0270 293d 01ec 25bd eaa3 913d
00000360: c2aa f6bd ff8d 143c 878b c73c 35a4 d43d
00000370: 3d9b 393d e45d 203c eb4d 0f3d 78df 01bb
00000380: 0aed af3b 3a6c d7bd 586d c83c d0a1 0a3d
00000390: ac2e 973d 43bb 4ebe d972 f83d a758 d9bd
000003a0: 357c d63d d780 903d 28c2 333c 2fdb 23be
000003b0: d0c9 0d3b b296 08bd eef6 ebbc d752 a9bd
000003c0: 44d1 8d39 8ca5 8d3d f05d 493d 46cc cc3d
000003d0: 1d7d 56bb 3f79 e6bb 95f2 b03c e58f 4a3c
000003e0: 7be4 83bc d758 ed3c 526f 19bd cc8c 3e3d
000003f0: 6b70 75bb eb2b d9bc 536e 6dbd 936d 6c3d

network_body.observation_encoder.processors.0.normalizer.running_mean f4 [14]
0.10575739 0.10533815 1.216925 0.012238751 0.012099428 63.37546 0.012025884 0.15452336
0.0 0.0 0.05479736 0.017553976 0.36528343 0.027348626
00000000: 5597 d83d 87bb d73d 33c4 9b3f 0b85 483c
00000010: ae3c 463c 7980 7d42 3708 453c 5f3b 1e3e
00000020: 0000 0000 0000 0000 3273 603d 5bcd 8f3c
00000030: 6e06 bb3e 3a0a e03c
