rrs_unity/Assets/Models/OnlyLeft.onnx (onnx, 546483 bytes, 11 tensors)

network_body.observation_encoder.processors.0.normalizer.running_mean f4 [14]
0.107044175 0.10665139 1.246738 0.009866412 0.009684425 52.9148 0.010084116 0.15318534
0.0 0.0 0.040226806 0.017257854 0.27335215 0.017414307
00000000: fa39 db3d 0b6c da3d 1c95 9f3f bba6 213c
00000010: 6cab 1e3c c1a8 5342 d937 253c 9edc 1c3e
00000020: 0000 0000 0000 0000 ddc4 243d 5860 8d3c
00000030: d0f4 8b3e 73a8 8e3c

network_body._body_endoder.seq_layers.0.weight f4 [256, 14]
0.22643952 0.17566162 0.094323166 0.2848878 -0.36137608 -0.066013806 -0.32399118 0.30273566
0.17153804 0.40443826 -0.017523857 0.2189562 -0.39696884 0.052564785 -0.5981942 0.40581265
0.27520746 -0.29949212 0.3732207 -0.43632707 0.06428192 0.05368206 -0.45974702 -0.112088926
-0.039077554 -0.5703623 0.37438512 0.15539394 -0.44082335 -0.0016319612 0.022729669 -0.10070187
0.06330892 -0.106644996 0.3392961 0.30498174 -0.49165696 -0.11139256 -0.17762065 0.33359864
0.5753524 0.33972827 0.17364754 0.34652296 -0.070564285 0.103830196 -0.7977508 -0.007618554
0.3396254 0.22931904 -0.35043472 -0.30535814 0.22629377 0.12514383 0.07111604 -0.16338609
0.09485613 -0.21019024 0.044358585 -0.049423445 -0.10747694 -0.019116182 0.16944717 -0.08341825
0.12908372 0.059859656 -0.42771688 -0.26581702 0.13591105 -0.36359563 -0.25477645 0.30671722
0.010282706 -0.35931948 0.06658393 -0.038083952 0.18707399 0.21331294 -0.059432708 0.037325796
0.14041886 0.4580479 -0.38189688 -0.18446119 -0.018286727 0.14189893 0.26740822 0.050346036
0.07712013 -0.16837415 -0.008477853 0.018900333 0.2373416 0.17625496 -0.008258231 0.055792455
0.0075009037 0.1116948 -0.0033582756 -0.22732195 0.044210173 0.33609635 0.47387236 0.13348521
0.057023484 -0.14770329 0.13605596 0.19727747 -0.3895954 0.26883224 0.011044299 0.2876701
-0.09735873 -0.17474557 -0.05037054 -0.07104928 -0.33390716 -0.12581608 -0.4060615 0.22225572
0.08374092 0.18086854 -0.1406639 0.16511242 -0.363114 -0.26100132 -0.07591937 0.04863081
0.1646037 0.013461112 -0.13076048 -0.3715901 -0.025295263 -0.16684021 -0.02634729 0.21461812
-0.056331743 0.21389292 0.16790593 -0.03092499 0.16431074 -0.066529304 -0.17894742 0.6991065
-0.39781523 0.23674251 0.65330255 -0.027724544 0.48031297 -0.35526448 -0.097525515 0.20269717
0.2638513 -0.032366697 -0.15456878 0.28528658 -0.5835028 0.025495661 0.10467724 0.102214076
-0.1376861 -0.19321384 -0.07304103 0.25154713 -0.03180522 -0.042668045 -0.009586836 -0.010374733
-0.4809362 0.091064885 0.12917925 0.03925965 -0.04549531 0.2651974 0.2758561 0.14825112
0.121100694 -0.4523101 -0.47244665 0.54830575 -0.054391354 0.20340616 0.18671365 -0.23271301
0.29558522 -0.13804762 0.051334575 -0.112502165 0.13980946 -0.34919238 0.33754417 -0.21973474
0.08715534 0.018817639 0.07637853 0.37383008 -0.31395826 -0.14956215 0.37228453 -0.06123019
-0.02374936 0.16960824 -0.19898164 -0.41643614 -0.53504664 0.05563845 0.44845045 0.08695512
-0.11184788 -0.20601772 0.4777637 0.20325239 0.18313597 0.002503144 0.4153356 -0.10730024
-0.1945566 0.3968096 0.051484283 0.3830984 -0.25062105 0.042407956 -0.17887327 -0.017459324
0.113335185 0.29724732 0.0013939192 0.5686862 -0.016586374 -0.19897759 -0.17105822 -0.40027183
0.026593434 0.06056201 0.4299664 -0.10052213 -0.2156742 -0.12540196 0.04882464 -0.34374955
-0.35828236 -0.40417397 0.4294356 -0.3896422 0.12497373 -0.33620644 0.55190414 -0.003994726
-0.063154645 0.12394958 -0.03210604 -0.27628696 -0.5551641 -0.52233243 -0.42811707 -0.0250759
00000000: c3df 673e a4e0 333e 812c c13d d0dc 913e
00000010: 4906 b9be 3f32 87bd 2ce2 a5be 2b00 9b3e
00000020: aba7 2f3e 8812 cf3e 318e 8fbc 0e36 603e
00000030: 803f cbbe 2c4e 573d 4123 19bf adc6 cf3e
00000040: fee7 8c3e 0857 99be c916 bf3e 4366 dfbe
00000050: 3da6 833d b8e1 5b3d f663 ebbe e18e e5bd
00000060: c90f 20bd 4403 12bf 68af bf3e 971f 1f3e
00000070: 99b3 e1be 88e7 d5ba 9233 ba3c c83c cebd
00000080: 1ba8 813d b168 dabd 38b8 ad3e 9126 9c3e
00000090: 76ba fbbe c821 e4bd 30e2 35be 71cd aa3e
000000a0: 4b4a 133f ddf0 ad3e a9d0 313e 756b b13e
000000b0: 0284 90bd eda4 d43d 6539 4cbf 10a5 f9bb
000000c0: 61e3 ad3e 9cd2 6a3e 2e6c b3be e757 9cbe
000000d0: 8eb9 673e b425 003e 49a5 913d af4e 27be
000000e0: ee43 c23d 1c3c 57be 59b1 353d 3d70 4abd
000000f0: df1c dcbd 8a99 9cbc 8f83 2d3e 30d7 aabd
00000100: 862e 043e 662f 753d b5fd dabe 2b19 88be
00000110: 442c 0b3e 3529 babe 0f72 82be 0a0a 9d3e
00000120: cb78 283c b9f8 b7be 285d 883d ebfd 1bbd
00000130: 5390 3f3e b56e 5a3e b66f 73bd efe2 183d
00000140: f6c9 0f3e 4185 ea3e fd87 c3be 65e3 3cbe
00000150: 0cce 95bc f44d 113e bbe9 883e a537 4e3d
00000160: 29f1 9d3d 466a 2cbe b1e6 0abc dfd4 9a3c
00000170: ad09 733e 2e7c 343e 884d 07bc a186 643d
00000180: 24ca f53b 3ec0 e43d 8416 5cbb 16c7 68be
00000190: ba15 353d d214 ac3e 669f f23e 59b0 083e
000001a0: 7591 693d 883f 17be 4152 0b3e 1b03 4a3e
000001b0: 0c79 c7be 61a4 893e 26f3 343c 7f49 933e
000001c0: 0464 c7bd 81f0 32be 5751 4ebd 4982 91bd
000001d0: e1f5 aabe eed5 00be 4be7 cfbe 0197 633e
000001e0: 5c80 ab3d 9a35 393e 330a 10be 3b13 293e
000001f0: 14ea b9be f7a1 85be 9d7b 9bbd 1a31 473d
00000200: df8d 283e ff8b 5c3c 13e6 05be 0f41 bebe
00000210: 0338 cfbc 29d8 2abe 46d6 d7bc dac4 5b3e
00000220: 1dbc 66bd bf06 5b3e 88ef 2b3e 6856 fdbc
00000230: 1341 283e 8440 88bd fe3d 37be a5f8 323f
00000240: 70ae cbbe a16c 723e d63e 273f 951e e3bc
00000250: 95eb f53e 3ae5 b5be 75bb c7bd d98f 4f3e
00000260: 8517 873e f192 04bd 4747 1ebe 1511 923e
00000270: 7160 15bf 47dc d03c 0561 d63d 9d55 d13d
00000280: 96fd 0cbe d9d9 45be 8996 95bd c9ca 803e
00000290: 3146 02bd b0c4 2ebd 1b12 1dbc c9fa 29bc
000002a0: 453d f6be 3a80 ba3d 9147 043e bace 203d
000002b0: 4a59 3abd f4c7 873e 033d 8d3e 24cf 173e
000002c0: a403 f83d 3095 e7be 87e4 f1be c45d 0c3f
000002d0: 78c9 5ebd b449 503e dd31 3f3e 524c 6ebe
000002e0: f256 973e 5b5c 0dbe 3444 523d 8967 e6bd
000002f0: 362a 0f3e 58c9 b2be 97d2 ac3e 2502 61be
00000300: 807e b23d 7327 9a3c 596c 9c3d a866 bf3e
00000310: 23bf a0be d226 19be 149c be3e 82cc 7abd
00000320: 058e c2bc c8ad 2d3e d8c1 4bbe 1e37 d5be
00000330: d1f8 08bf 25e5 633d 4c9b e53e 8715 b23d
00000340: 8010 e5bd 4ff6 52be 729d f43e 6521 503e
00000350: ff87 3b3e ca0b 243b dea6 d43e 3ac0 dbbd
00000360: d839 47be a12a cb3e 2fe1 523d 7925 c43e
00000370: 6751 80be f7b3 2d3d 8e2a 37be db06 8fbc
00000380: 471c e83d cd30 983e 2bb4 b63a 6b95 113f
00000390: 26e0 87bc c8c0 4bbe e329 2fbe 6ef0 ccbe
000003a0: 79da d93c df0f 783d 8e24 dc3e 8cde cdbd
000003b0: b3d9 5cbe 5f69 00be 59fc 473d f1ff afbe
000003c0: c970 b7be e4ef cebe fcde db3e 2f7f c7be
000003d0: 3af2 ff3d 4023 acbe 9749 0d3f 31e6 82bb
000003e0: 3957 81bd 47d9 fd3d 9f81 03bd 7c75 8dbe
000003f0: 3c1f 0ebf 94b7 05bf 2932 dbbe f96b cdbc

network_body._body_endoder.seq_layers.0.bias f4 [256]
0.0025518374 -0.0058718957 0.010139203 -0.0036457072 -0.005089438 -0.000880983 0.011385745 -0.004224444
-0.0003763209 -0.008889054 0.008442031 0.0024512287 0.015393319 0.008676379 -0.0049696583 0.005495409
-0.0035320774 -0.003593518 0.008115696 0.008840456 0.0070222174 0.0064096716 0.002563699 0.011191059
0.00268781 0.0047591673 0.0013195338 -0.005447148 0.0020991697 0.003468136 0.0071367365 0.0022136064
-0.0037725163 -0.003210449 -0.003217142 0.0017667079 -0.007863787 -0.0021654929 -0.0040193447 0.0008918066
0.006532881 -0.0018690478 -0.0020317016 0.0041694627 0.003370184 0.006701526 0.007110585 -0.0015973691
0.0047649546 0.004126429 0.0018719063 0.012322424 -0.002217321 0.0037682247 -0.002346224 -0.0033335208
0.009060183 0.0016561851 -0.0037476327 -0.0050520767 0.009245227 0.0013943288 0.0059091044 0.0066959793
-0.0014750264 -0.0053983512 -0.006253354 0.0010536393 -0.0057872646 0.006786328 0.01075764 0.004965828
0.0042871796 -0.0026538665 -0.0015847782 0.007037422 -0.006771616 0.0195731 0.008667 -0.00082253065
0.00378245 -0.0032799772 -0.0070139123 0.0036645303 0.0009017731 0.0024115045 0.008028289 0.010559636
0.009470032 0.0009609504 -0.004784773 -0.0041344827 -0.0018877907 -0.0036050603 0.0070706094 0.010865536
0.0011120923 0.011602012 0.00085410924 0.008537929 0.0030386061 0.0020188924 0.0058328044 -0.002265506
0.0022472732 0.0019075761 0.0038362527 0.005777463 0.002200428 0.006811053 -0.012520293 0.010018151
-0.00010884856 0.0019864603 0.0060570757 0.013943183 -0.0050660186 0.003237559 0.007046509 0.006954558
0.011367889 -0.004478252 -0.00868407 0.00219164 -0.0094644595 -0.006508156 0.0036010907 0.006896425
-0.0045873662 0.0060633905 0.005943429 -0.0029906407 0.006102762 0.009713441 -0.0037033467 -0.00017572395
0.005791154 0.009949923 0.009878693 -0.0016784747 0.011763116 0.0020657028 0.010072169 -0.005745104
0.0012850435 0.010935592 0.008288466 0.006901807 -0.004065774 -0.000119569195 0.002019375 0.0011417075
0.0011707585 0.00628654 0.0017510995 0.0054046377 0.0005884581 0.008892379 0.0054958723 0.0017972551
-0.0014834068 0.008011705 0.008185039 0.0035972267 0.009800522 0.0043183607 0.0038473988 -0.0022088394
-0.003195088 0.0020481811 -0.002380096 -0.0041751144 0.005224526 0.0007057224 -0.011347198 0.0019577122
0.007376791 -0.0046754316 -0.0057162778 -0.011220198 0.0028871903 0.0045867222 -0.003707045 -0.0087180985
-0.0036598803 -0.0035597035 0.004198252 0.0022292323 0.0018854209 0.0067221774 0.005917847 0.005002748
0.0054576094 -0.0003872023 -0.0020081606 0.008232101 0.0059113256 0.0032781952 0.008921241 -0.0007892237
-0.0030640739 0.0115659395 0.00791308 0.0054319003 0.0059789754 0.005231807 -0.0036256737 0.006500544
-0.004502233 0.004690892 0.00831985 0.0005892228 -0.0030496768 0.0017078423 -0.0038608878 -0.0019566186
-0.00042032165 0.0019497754 0.0027108996 -0.00054687227 0.0049906545 0.012439222 -0.002980196 0.004843678
0.006376809 0.0077168467 0.007540312 0.006506496 0.0067465603 -0.0046112547 -0.007291136 -0.00015145013
0.0041377377 0.0075745853 0.004585247 -0.003117687 -0.0055974564 0.00067708694 -0.008099389 0.0074822144
0.0001766069 -0.0030534724 -0.0028914555 0.0025385143 0.0056385174 0.0012205099 -0.0031185718 -0.0020302269
0.012619235 0.007906083 0.0019276397 -0.002139148 -0.0027548908 0.0007420058 -0.00012472496 0.012168644
00000000: ba3c 273b 0869 c0bb e61e 263c d1ec 6ebb
00000010: 4dc5 a6bb c5f1 66ba 478b 3a3c 346d 8abb
00000020: f04c c5b9 65a3 11bc 7250 0a3c cba4 203b
00000030: 4234 7c3c 5f27 0e3c 84d8 a2bb d512 b43b
00000040: 6d7a 67bb 3a81 6bbb b2f7 043c 8fd7 103c
00000050: a11a e63b 3908 d23b bb03 283b b45a 373c
00000060: f825 303b caf2 9b3b 35f4 ac3a fd7d b2bb
00000070: 3992 093b ab49 633b 49db e93b 2712 113b
00000080: 523c 77bb 6566 52bb b0d6 52bb e190 e73a
00000090: 1dd7 00bc f1ea 0dbb b5b4 83bb 21c8 693a
000000a0: c711 d63b d6fa f4ba 4c26 05bb fd9f 883b
000000b0: 4ede 5c3b 7a98 db3b e9ff e83b d05e d1ba
000000c0: 5623 9c3b ff36 873b c15a f53a fee3 493c
000000d0: 7950 11bb 52f4 763b 1bc3 19bb 3377 5abb
000000e0: 2971 143c 5a14 d93a d89a 75bb e48b a5bb
000000f0: 4b79 173c e9c1 b63a 29a1 c13b f269 db3b
00000100: ac55 c1ba a7e4 b0bb efe8 ccbb 451a 8a3a
00000110: 18a3 bdbb d85f de3b d040 303c 62b8 a23b
00000120: 787b 8c3b 7eec 2dbb 55b8 cfba 2d9a e63b
00000130: 6fe4 ddbb c457 a03c 0800 0e3c 199f 57ba
00000140: fbe2 773b e3f4 56bb f6d4 e5bb 9e28 703b
00000150: f864 6c3a 550a 1e3b 1689 033c 5302 2d3c
00000160: 3128 1b3c 4ae8 7b3a 96c9 9cbb 8e7a 87bb
00000170: bf6f f7ba e042 6cbb 92b0 e73b 5c05 323c
00000180: a0c3 913a 5e16 3e3c 4de6 5f3a abe2 0b3c
00000190: 5a23 473b 654f 043b 1c21 bf3b e278 14bb
000001a0: fd46 133b a207 fa3a a469 7b3b df50 bd3b
000001b0: 0e35 103b 412f df3b ea21 4dbc 2c23 243c
000001c0: a045 e4b8 462f 023b 6f7a c63b f371 643c
000001d0: d800 a6bb 3a2d 543b 67e6 e63b 10e3 e33b
000001e0: 6240 3a3c 4dbe 92bb a147 0ebc 9ea1 0f3b
000001f0: d210 1bbc 5f42 d5bb 4700 6c3b 68fb e13b
00000200: 9e51 96bb 68af c63b 19c1 c23b a0fe 43bb
00000210: aef9 c73b 2025 1f3c d9b3 72bb 8a42 38b9
00000220: b9c3 bd3b 0005 233c 3eda 213c 4400 dcba
00000230: 16ba 403c be60 073b bd05 253c 6d41 bcbb
00000240: e86e a83a 332b 333c 59cc 073c 8e28 e23b
00000250: 2f3a 85bb 39c1 fab8 7e57 043b 59a5 953a
00000260: 2374 993a 52ff cd3b 2685 e53a 6319 b13b
00000270: c142 1a3a 57b1 113c b816 b43b e091 eb3a
00000280: df6e c2ba 8743 033c 8b1a 063c 73bf 6b3b
00000290: 5e92 203c 0981 8d3b a424 7c3b 2dc2 10bb
000002a0: ae64 51bb c73a 063b 62fb 1bbb 66cf 88bb
000002b0: 8032 ab3b 3b00 393a 99e9 39bc f64c 003b
000002c0: 02b9 f13b 5d34 99bb 9d4f bbbb ecd4 37bc
000002d0: 0437 3d3b 374c 963b e5f1 72bb 5bd6 0ebc
000002e0: 9ada 6fbb ea49 69bb 7e91 893b 5018 123b
000002f0: 3a20 f73a b645 dc3b 80ea c13b 18ee a33b
00000300: bfd5 b23b 6a01 cbb9 589b 03bb efdf 063c
00000310: cbb3 c13b fdd6 563b 662a 123c e8e3 4eba
00000320: a1ce 48bb 117f 3d3c dda5 013c 15fe b13b
00000330: 48eb c33b 946f ab3b b69c 6dbb 8402 d53b
00000340: 7887 93bb 0eb6 993b fb4f 083c 1376 1a3a
00000350: 16dd 47bb aed9 df3a f306 7dbb 9d3a 00bb
00000360: 9e5e dcb9 9b8f ff3a 59a9 313b fa5b 0fba
00000370: a588 a33b e1cd 4b3c 644f 43bb b7b7 9e3b
00000380: 8df4 d03b 9add fc3b b914 f73b 7234 d53b
00000390: 4012 dd3b 021a 97bb 7bea eebb 96ce 1eb9
000003a0: dc95 873b 3a34 f83b d73f 963b 1c52 4cbb
000003b0: de6a b7bb 897e 313a 4db3 04bc 5d2d f53b
000003c0: 8e2f 3939 c41c 48bb 937e 3dbb 345d 263b
000003d0: 50c3 b83b 84f9 9f3a f460 4cbb 8e0d 05bb
000003e0: e8c0 4e3c 8488 013c dba8 fc3a f330 0cbb
000003f0: 668b 34bb 2b83 423a 9ac8 02b9 fe5e 473c

network_body._body_endoder.seq_layers.2.weight f4 [256, 256]
0.0132106785 0.10768544 0.20289996 0.107238926 -0.04677624 -0.048986994 0.019662714 0.030142652
0.10061053 -0.07275032 0.1278314 -0.030197669 0.050799012 -0.015911914 -0.14429285 0.045958266
0.03499972 0.024179028 0.0751539 -0.008297452 -0.005307326 -0.03741159 -0.020482816 0.0036352735
-0.033315796 -0.02438028 -0.047808968 -0.044474974 -0.013870665 -0.015641421 0.04369067 -0.04580949
-0.028960137 -0.07318903 -0.018899992 0.039786424 -0.03968641 -0.023958413 0.06804882 -0.014567012
0.08482575 0.15677798 -0.009854184 -0.030741962 0.026663681 0.07377614 -0.0641986 -0.014641532
-0.047405344 -0.016093291 0.035030697 0.04829249 0.011434739 0.0024247847 0.031848427 -0.1006092
-0.049132504 -0.04008369 -0.0366677 0.024847087 -0.014461924 0.063797556 -0.044102002 0.04661162
0.1727706 0.009273525 -0.08858414 -0.072332926 0.087999076 0.050899483 0.060905036 -0.06155041
0.0042875507 -0.048750628 -0.045181867 0.09434175 -0.057214223 -0.03660697 -0.08942941 -0.09861713
0.043571286 0.014993157 0.05269637 -0.061708245 0.017443206 -0.009692439 0.009338965 -0.049762618
0.0074851406 0.012868532 -0.05882103 0.0023310608 0.019453414 0.01710484 0.09553949 -0.052087944
0.027301682 0.0111196805 0.035628427 0.07883164 0.070500135 0.116656125 -0.06577199 -0.091694266
0.037504308 -0.06721405 -0.00541877 0.015717195 -0.08124006 -0.10396456 -0.035257142 0.06556926
0.037734114 -0.06461924 0.10122773 -0.091903456 0.11707261 0.042329952 0.024438817 0.13612694
-0.09541697 -0.08838984 0.050343387 0.0502779 -0.042332888 0.11230053 0.065724105 -0.033161517
-0.0017482702 0.07034628 -0.044582907 -0.025409851 -0.07269807 -0.02263422 -0.047348216 -0.06166132
0.05412785 0.012279799 -0.026932398 0.058878846 0.013976432 -0.031236058 -0.026339306 -0.10079179
0.08044338 0.038714673 -0.08767508 0.016931796 -0.027699841 -0.021092702 -0.044195827 -0.07273709
0.0056317355 0.016277738 0.032283172 0.02067294 -0.045062985 -0.089709535 0.04452006 -0.110044375
-0.1983733 0.10329632 0.119349696 -0.0147470515 0.049913142 0.08707185 0.025825841 -0.054081604
0.061509695 0.1147497 0.09201448 0.069116816 0.011880571 -0.01344486 -0.027284225 -0.069158755
-0.0645152 0.0057167034 0.060330622 0.12196983 -0.039203424 0.075563565 -0.048626278 0.050323438
-0.051525496 -0.115343675 0.015928648 -0.029363068 -0.01991163 0.023264132 0.070760116 -0.06880572
0.031465005 -0.05789724 -0.01088461 -0.067692034 -0.05079879 -0.0018646241 -0.022946028 0.14157109
0.17085986 -0.08038586 -0.03271861 -0.13565083 0.0540033 0.012874562 0.0046793544 0.115312
-0.059802804 -0.009997225 -0.014850292 -0.051688597 -0.045298554 0.07252832 -0.0031136023 0.032294467
-0.05220224 0.118427075 0.07196998 -0.057228804 0.07435821 0.038073484 -0.0037093076 -0.055356216
0.03531033 -0.12417826 0.0053920005 0.01988125 0.027681036 0.11211809 -0.013923035 -0.024944995
0.02005754 -0.05669564 0.035262074 0.03713238 -0.059923526 0.08621694 -0.0944196 -0.010715597
0.031745102 0.0032150948 0.0052596563 -0.15676178 0.08990438 0.15847826 0.015284344 -0.020257456
0.03654882 -0.084045485 0.06626443 0.024000525 0.008876383 0.0035127464 -0.006008706 -0.049216922
00000000: 9a71 583c 2f8a dc3d 02c5 4f3e 15a0 db3d
00000010: 7198 3fbd 96a6 48bd b313 a13c b9ed f63c
00000020: e50c ce3d 1ffe 94bd 3ce6 023e 1a61 f7bc
00000030: a012 503d b459 82bc 81c1 13be bc3e 3c3d
00000040: de5b 0f3d 1913 c63c 4aea 993d 09f2 07bc
00000050: 14e9 adbb e53c 19bd 94cb a7bc c53d 6e3b
00000060: 2576 08bd 27b9 c7bc 56d3 43bd 642b 36bd
00000070: c941 63bc 7022 80bc fdf4 323d bba2 3bbd
00000080: cf3d edbc 21e4 95bd 28d4 9abc 17f7 223d
00000090: 388e 22bd 6f44 c4bc 2e5d 8b3d 7aaa 6ebc
000000a0: 1fb9 ad3d 688a 203e 7273 21bc 91d6 fbbc
000000b0: cb6d da3c f217 973d 8e7a 83bd 09e3 6fbc
000000c0: 1b2c 42bd 14d6 83bc 597c 0f3d 59ce 453d
000000d0: c658 3b3c 23e9 1e3b 7f73 023d 320c cebd
000000e0: 2a3f 49bd cc2e 24bd df30 16bd 1e8c cb3c
000000f0: b5f1 6cbc 4ba8 823d 4da4 34bd d3eb 3e3d
00000100: c7ea 303e fcef 173c 9a6b b5bd 4923 94bd
00000110: dc38 b43d fa7b 503d 8f77 793d 481c 7cbd
00000120: 957e 8c3b bdae 47bd 9f10 39bd 3f36 c13d
00000130: 7659 6abd 31f1 15bd c426 b7bd c7f7 c9bd
00000140: ce77 323d dca5 753c 26d8 573d c9c1 7cbd
00000150: 0ee5 8e3c 09cd 1ebc 7502 193c e3d3 4bbd
00000160: e945 f53b 89d6 523c 52ee 70bd b6c4 183b
00000170: c45c 9f3c 731f 8c3c 35aa c33d 2b5a 55bd
00000180: c7a7 df3c 522f 363c 1def 113d 7c72 a13d
00000190: 6062 903d 68e9 ee3d 77b3 86bd 34ca bbbd
000001a0: 1e9e 193d 85a7 89bd f08f b1bb 59c1 803c
000001b0: 3061 a6bd 5feb d4bd cb69 10bd 2d49 863d
000001c0: 168f 1a3d 1857 84bd 7c50 cf3d e137 bcbd
000001d0: c4c3 ef3d 2c62 2d3d ea33 c83c dc64 0b3e
000001e0: f969 c3bd bc05 b5bd de34 4e3d 33f0 4d3d
000001f0: 4065 2dbd d2fd e53d 5c9a 863d 5fd4 07bd
00000200: 3726 e5ba b611 903d 919c 36bd 5228 d0bc
00000210: bae2 94bd 666b b9bc 34f0 41bd 9590 7cbd
00000220: 2ab5 5d3d 3631 493c 55a1 dcbc f22a 713d
00000230: 68fd 643c c3e2 ffbc 87c5 d7bc ed6b cebd
00000240: 80bf a43d 4793 1e3d fe8e b3bd 8db4 8a3c
00000250: c7ea e2bc 9aca acbc af06 35bd 2ff7 94bd
00000260: 6c8a b83b e458 853c 5c3b 043d 4c5a a93c
00000270: f793 38bd a2b9 b7bd ab5a 363d f25e e1bd
00000280: 5f22 4bbe 058d d33d 9d6d f43d 9e9d 71bc
00000290: b971 4c3d ba52 b23d b790 d33c ac84 5dbd
000002a0: 97f1 7b3d e401 eb3d 1672 bc3d 1e8d 8d3d
000002b0: baa6 423c d447 5cbc 2b83 dfbc 1ba3 8dbd
000002c0: 8c20 84bd 2f53 bb3b 3e1d 773d 51cb f93d
000002d0: c593 20bd 12c1 9a3d 592c 47bd f31f 4e3d
000002e0: 660c 53bd 4e39 ecbd cc7c 823c d18a f0bc
000002f0: b71d a3bc 6c94 be3c aeea 903d 03ea 8cbd
00000300: 73e1 003d a825 6dbd 5d55 32bc 1fa2 8abd
00000310: 6412 50bd 6766 f4ba 4ff9 bbbc 03f8 103e
00000320: e3f5 2e3e 57a1 a4bd f303 06bd 0de8 0abe
00000330: 9032 5d3d d4ef 523c 4555 993b b328 ec3d
00000340: c9f3 74bd 67cb 23bc a44e 73bc 6cb7 53bd
00000350: fa8a 39bd ba89 943d 940d 4cbb 3447 043d
00000360: 04d2 55bd e589 f23d ff64 933d c068 6abd
00000370: 1e49 983d f1f2 1b3d db17 73bb 33bd 62bd
00000380: 91a1 103d 2c51 febd 61af b03b 01de a23c
00000390: 57c3 e23c 2b9e e53d 711d 64bc 7259 ccbc
000003a0: b64f a43c b039 68bd f76e 103d 1f18 183d
000003b0: 5f72 75bd 8292 b03d 105f c1bd 7990 2fbc
000003c0: 2707 023d 57b4 523b 3259 ac3b 2986 20be
000003d0: ca1f b83d 2048 223e 2f6b 7a3c f7f2 a5bc
000003e0: 37b4 153d 0a20 acbd a5b5 873d c09c c43c
000003f0: 406e 113c 1b36 663b aee4 c4bb af97 49bd

network_body._body_endoder.seq_layers.2.bias f4 [256]
0.007335312 -0.003308323 -0.0047065415 -0.0048679607 0.0026367302 -0.0073652677 -0.0076871286 0.012456347
0.006892893 -0.0029820667 -0.0039032623 -0.0062149456 0.010509921 0.009302242 0.0072313743 0.0006247808
0.0085099 0.00019626718 -0.003184257 -0.0067482293 0.0078032333 -0.0017466792 -0.0028236378 0.0035469178
-0.0027565835 0.005918043 -0.004373389 -0.008079848 0.007659289 -0.0066735777 -0.005899025 0.005058223
0.008942055 -0.006904678 -0.004153714 0.002249888 -0.0012404282 0.003173965 0.008691159 0.004056804
0.010649205 -0.006325987 0.010276441 -0.0057867 0.008214007 0.0080104945 0.009800277 -0.010000648
-0.0019307474 -0.0010723369 -0.0059182993 0.0027179124 0.0004944266 -0.00022766089 -0.007117826 0.0061742174
0.010719691 -0.0005944502 -0.0060063805 0.0046347594 0.0061170748 0.0060448227 0.0049270964 0.007246258
-0.0034591237 -0.0030885488 -0.0014574709 0.008215418 0.0043778857 0.009060086 0.00707083 0.0070555545
-0.0038095848 -0.006528884 0.0053862026 0.0071754972 0.0032182483 0.0060478114 4.570423e-06 0.0086610075
0.003796964 -0.002424799 0.0042454144 0.009233243 -0.0014481014 0.0005486601 -0.0045142625 0.0017618312
0.0024377373 -0.006650058 0.008698739 0.008299489 0.008205645 0.006869157 0.005528393 0.006898454
0.007312493 -0.00324821 0.0077124313 0.0047040475 -0.0022629087 -0.00562879 0.0062984596 0.0093770055
-0.008392666 0.00873863 0.005704545 -0.006683067 0.007583544 -0.0006112917 0.0029421768 0.0019231244
-0.004623969 -0.005787234 0.0013782304 0.00979058 -0.008949805 0.010687661 -0.004456768 -0.004468518
0.001417591 0.0028843328 -0.0064480333 0.0073075797 -0.008879043 0.003940479 0.0058638533 -0.004465814
0.008095956 0.002839493 0.003252866 0.008184274 -0.00033823441 0.006164944 0.008774075 0.010090993
-0.0033293245 -0.009252125 -0.0023693652 0.0063825063 0.001699919 -0.0044762315 0.007650174 0.009579318
0.0037967819 -0.0023361722 0.008245593 0.012656167 -0.0053764163 0.0056821276 -0.005059148 7.1573922e-06
0.0074255187 -0.0017047409 0.009888179 -0.0079463655 -0.0053858426 0.00039976375 0.008329256 -0.008279691
-0.009505443 0.007821352 0.0055731083 -0.0024908972 0.007069345 5.440127e-05 -0.0072309603 -0.0034783857
0.0062470464 -0.0030297523 0.0048508826 -0.007711303 0.00629703 0.007210302 0.0025880793 -0.000100973135
0.0008201868 -0.0046817693 0.007106882 -0.0070748185 0.006801404 0.0023277584 -0.0033739249 0.0062545226
0.007473616 9.125888e-05 -0.004589847 -0.0072217355 0.0028868548 0.003062218 -0.008569761 0.0072493865
0.0047119665 0.0084080435 0.0073923576 0.0051826467 -0.0007544875 0.007564291 -0.005159505 -0.00015547652
-0.0015852029 0.0069187717 0.0029500949 0.012462633 0.005851821 0.007639287 -0.003716009 0.008704015
-0.0035420049 0.008219046 0.0037468593 -0.005110068 -0.0019727745 0.0019276113 0.009131685 -0.0005710315
-0.0067234254 0.0017361678 -0.0055172998 -0.006645347 -0.0002939588 0.0058930833 0.004749166 -0.0075674355
0.0074599427 0.000183558 0.009573608 -0.006196118 -0.0057655177 0.0061909254 0.005515703 0.00826398
-0.0010708572 -2.3057519e-05 -0.009268554 0.009392855 -0.0012518112 -0.0057890275 -0.0012026967 -0.0001781653
-0.0023150058 -0.0053266822 -0.0012497612 0.0030324147 -0.0013802228 0.0072523034 0.012348582 0.008931172
0.008098381 -0.00233188 0.010847832 -0.005530181 0.0066576293 0.00017354554 0.005141833 0.011279392
00000000: 0f5d f03b 73d0 58bb 5539 9abb 6a83 9fbb
00000010: fecc 2c3b 5858 f1bb 4fe4 fbbb b515 4c3c
00000020: c7dd e13b c76e 43bb e0cd 7fbb bea6 cbbb
00000030: ce31 2c3c 6e68 183c 2af5 ec3b 54c8 233a
00000040: 1c6d 0b3c 12cd 4d39 f8ae 50bb 4020 ddbb
00000050: 44b2 ff3b d4f0 e4ba c80c 39bb 6873 683b
00000060: cca7 34bb 25ec c13b a54e 8fbb 5761 04bc
00000070: c6fa fa3b 07ae dabb 9c4c c1bb 73bf a53b
00000080: b281 123c a340 e2bb e11b 88bb db72 133b
00000090: dd95 a2ba 4c02 503b 5d65 0e3c f0ee 843b
000000a0: 017a 2e3c 3a4a cfbb 855e 283c 5c9e bdbb
000000b0: 0b94 063c 733e 033c 5791 203c c2d9 23bc
000000c0: 2211 fdba a88d 8cba 4bee c1bb 011f 323b
000000d0: 689c 013a 41b8 6eb9 a73c e9bb 1751 ca3b
000000e0: a5a1 2f3c e1d4 1bba 2cd1 c4bb 2edf 973b
000000f0: be71 c83b a613 c63b 7b73 a13b 0572 ed3b
00000100: 77b2 62bb 4069 4abb 9c08 bfba f699 063c
00000110: 5e74 8f3b c170 143c 6cb2 e73b 4832 e73b
00000120: 3aaa 79bb 40f0 d5bb be7e b03b 6f20 eb3b
00000130: 3fe9 523b b82c c63b a25b 9936 e6e6 0d3c
00000140: 7cd6 783b 60e9 1ebb 1e1d 8b3b 0747 173c
00000150: 38ce bdba f5d3 0f3a 61ec 93bb 3fed e63a
00000160: 72c2 1f3b bbe8 d9bb 2885 0e3c 94fa 073c
00000170: f870 063c aa16 e13b 8627 b53b 6d0c e23b
00000180: a39d ef3b ecdf 54bb 90b8 fc3b 6924 9a3b
00000190: 4f4d 14bb b671 b8bb 4f63 ce3b 03a2 193c
000001a0: 6481 09bc 792c 0f3c 31ed ba3b a1fd dabb
000001b0: 617f f83b 173f 20ba 89d1 403b 5911 fc3a
000001c0: aa84 97bb d6a2 bdbb bda5 b43a ab68 203c
000001d0: 34a2 12bc 4d1b 2f3c 140a 92bb a56c 92bb
000001e0: 76ce b93a 1307 3d3b 064a d3bb 6c74 ef3b
000001f0: 6879 11bc 221f 813b 9125 c03b f755 92bb
00000200: e7a4 043c ca16 3a3b 092e 553b 5517 063c
00000210: 0e55 b1b9 4c03 ca3b 23c1 0f3c b154 253c
00000220: cc30 5abb 3a96 17bc 5a47 1bbb 5824 d13b
00000230: d1cf de3a 5aad 92bb 50ae fa3b 92f2 1c3c
00000240: 6ed3 783b 771a 19bb 8618 073c d05b 4f3c
00000250: a62c b0bb 2431 ba3b 36c7 a5bb 8829 f036
00000260: c451 f33b 9d71 dfba 0702 223c 7931 02bc
00000270: b97b b0bb 6297 d139 6f77 083c 8ba7 07bc
00000280: b8bc 1bbc 2125 003c 9f9e b63b 523e 23bb
00000290: f7a5 e73b eb2c 6438 b1f1 ecbb a1f5 63bb
000002a0: 06b4 cc3b cf8e 46bb 27f4 9e3b 19af fcbb
000002b0: 5157 ce3b 6644 ec3b c49c 293b 8ac1 d3b8
000002c0: ce01 573a 8769 99bb d9e0 e83b e1d3 e7bb
000002d0: 50de de3b 4e8d 183b 111d 5dbb bdf2 cc3b
000002e0: 3ce5 f43b 3d62 bf38 6d66 96bb 4fa4 ecbb
000002f0: 6331 3d3b 7eaf 483b 2f68 0cbc 438c ed3b
00000300: d766 9a3b e4c1 093c 973b f23b 31d3 a93b
00000310: cdc8 45ba dfdd f73b 1111 a9bb 6907 23b9
00000320: 95c6 cfba ddb6 e23b 6156 413b 1230 4c3c
00000330: a2c0 bf3b fc52 fa3b 4988 73bb 499b 0e3c
00000340: fb20 68bb 2da9 063c de8d 753b 5b72 a7bb
00000350: aa49 01bb e7a7 fc3a 109d 153c 46b1 15ba
00000360: 2e50 dcbb 2090 e33a 77ca b4bb 36c1 d9bb
00000370: 7b1e 9ab9 c41a c13b e49e 9b3b 40f8 f7bb
00000380: 8972 f43b 7a79 4039 9fda 1c3c ce08 cbbb
00000390: abec bcbb 3fdd ca3b 12bd b43b a565 073c
000003a0: 015c 8cba a56b c1b7 22db 17bc 7de4 193c
000003b0: d013 a4ba e2b1 bdbb cea3 9dba e2d1 3ab9
000003c0: 5ab7 17bb 738b aebb 07cf a3ba 7abb 463b
000003d0: 98e8 b4ba bba4 ed3b b551 4a3c 0d54 123c
000003e0: 12af 043c 74d2 18bb 1bbb 313c 8536 b5bb
000003f0: 3e28 da3b c7f9 3539 d27c a83b 33cd 383c

network_body._body_endoder.seq_layers.4.weight f4 [256, 256]
-0.07291991 0.048272006 -0.10467917 0.025650367 -0.10202031 0.014265891 0.011603142 0.085824415
-0.11761071 -0.12210912 0.12219008 0.040255163 -0.06626521 0.08466583 0.070642404 -0.012974984
0.009580668 -0.06869706 0.09170964 -0.024232546 -0.07821433 -0.016772248 0.107438534 -0.06726141
0.028097944 0.07921522 -0.03247398 -0.015016149 -0.016501622 0.024063148 -0.08714992 0.046111956
-0.032756265 -0.057294752 0.0002667158 -0.017912105 0.028465465 -0.044172104 0.118709594 0.02038581
-0.037256792 0.089427605 0.0652816 -0.10690503 0.043947607 0.053142354 0.11211723 -0.05229284
-0.14042018 0.121269695 0.041658986 -0.05536378 -0.11355156 -0.10037743 -0.033776563 0.01625796
0.06049864 0.062667236 -0.022427833 0.021525653 -0.0318607 -0.0035748177 0.06687986 0.034159094
-0.044208694 -0.0037724725 -0.000849841 0.07214475 -0.10513244 0.02390771 0.004227709 0.04484124
0.013450628 0.083812386 0.052198015 -0.021612598 -0.13092105 -0.091629736 -0.03300463 0.11226583
-0.033500183 -0.051210094 0.06989948 0.057614192 -0.0732159 0.06626434 0.019844858 -0.0050396556
0.013961281 0.025567403 -0.035259284 0.040361922 0.016686374 -0.12831683 0.05605931 0.010003301
-0.06437256 -0.07975625 0.06472189 -0.035067726 0.08255281 -0.006413517 0.0038076409 0.041061293
-0.043981444 0.09197649 -0.032787714 -0.010974901 -0.048036918 -0.037072215 -0.045406803 0.15251958
-0.01400945 0.028553076 0.025230125 0.031188112 -0.065265164 0.09090866 0.04689176 -0.049411226
-0.09707621 0.093979605 0.0027476319 0.0016081996 0.018057635 0.0044115074 0.08568036 -0.038617507
0.032436177 -0.09550325 -0.0684951 0.014361542 0.080816284 0.09497649 0.09700449 -0.056833535
0.016602317 -0.091428556 -0.028019015 -0.014309108 -0.020156866 -0.025447328 -0.023925489 -0.034206662
-0.0020335724 -0.04229954 0.015018133 -0.027710574 0.031156298 0.08670293 -0.031546418 -0.08387422
-0.003199506 -0.1984794 0.020760465 0.04832154 -0.066045314 -0.03523597 0.076590054 -0.025198648
0.015555845 -0.052839354 0.059992615 -0.03034421 0.0024151048 -0.05123588 0.12090001 -0.01120737
0.027350215 -0.062528275 -0.085767604 0.01943504 0.03477288 0.10338408 -0.09782683 0.01653938
0.08672783 0.03038092 -0.0069292886 -0.04752805 0.122469954 -0.040926773 0.019337479 -0.03368596
0.0010496139 -0.06768832 0.035596684 0.06045319 -0.17045747 -0.010497006 0.020234274 0.007968793
-0.041549746 -0.004817673 0.0435301 0.025970262 0.012042498 -0.012081724 -0.05871963 -0.0692141
-0.10003841 0.04363302 0.032795683 0.097302794 -0.05046821 0.082777664 -0.09698149 -0.045432124
-0.088469505 -0.10683064 -0.0817 -0.03778661 0.0021379683 0.035141997 0.008345233 0.08071345
-0.074600585 -0.024374008 0.08556787 -0.032208778 -0.06917651 -0.090316854 0.068234436 0.016375575
0.011028251 0.09421148 -0.04645002 0.020284524 -0.11401504 0.02812758 -0.09357327 0.016511165
0.003864221 0.015569214 0.020845843 -0.04080807 -0.0862989 -0.05330643 0.018624343 0.0146498475
0.0774235 0.003616142 0.021784365 -0.06268777 -0.009550848 0.009136397 0.019519756 -0.059376523
0.030249022 -0.017443355 -0.009047012 0.04399526 0.0529993 -0.04505325 -0.11133959 -0.04028841
00000000: 0957 95bd deb8 453d 0862 d6bd b820 d23c
00000010: 06f0 d0bd 7cbb 693c 1b1b 3e3c b6c4 af3d
00000020: e2dd f0bd 5914 fabd cb3e fa3d 99e2 243d
00000030: 0eb6 87bd 4765 ad3d f7ac 903d 0795 54bc
00000040: 3cf8 1c3c 0bb1 8cbd 44d2 bb3d 5583 c6bc
00000050: d62e a0bd f465 89bc bc08 dc3d 5ac0 89bd
00000060: a92d e63c 973b a23d 7003 05bd 4b06 76bc
00000070: 692e 87bc 1420 c53c a87b b2bd e4df 3c3d
00000080: 6f2b 06bd e7ad 6abd fdd5 8b39 68bc 92bc
00000090: 6830 e93c cfed 34bd 041e f33d 2400 a73c
000000a0: 949a 18bd d225 b73d 5cb2 853d 06f1 dabd
000000b0: 6802 343d ccab 593d b89d e53d 0431 56bd
000000c0: 4fca 0fbe 3f5c f83d 9da2 2a3d 22c5 62bd
000000d0: b88d e8bd af92 cdbd 4b59 0abd 6a2f 853c
000000e0: 6ccd 773d ae57 803d 93ba b7bc 9156 b03c
000000f0: 5e80 02bd 7d47 6abb 4ff8 883d 68ea 0b3d
00000100: 2d14 35bd 963b 77bb ddc7 5eba a0c0 933d
00000110: ad4f d7bd 1ada c33c 9888 8a3b 73ab 373d
00000120: 0660 5c3c d4a5 ab3d 96cd 553d e70c b1bc
00000130: 2b10 06be 5fa8 bbbd dd2f 07bd a1eb e53d
00000140: 7d37 09bd adc1 51bd 7527 8f3d dcfc 6b3d
00000150: 38f2 95bd 99b5 873d af91 a23c b223 a5bb
00000160: dbbd 643c bb72 d13c 0a6c 10bd 8b52 253d
00000170: ddb1 883c 7d65 03be 729e 653d e3e4 233c
00000180: c3d5 83bd 3f57 a3bd e98c 843d 2da3 0fbd
00000190: 7311 a93d 7b28 d2bb 9d89 793b e32f 283d
000001a0: e325 34bd 2c5e bc3d 694c 06bd 12d0 33bc
000001b0: 5cc2 44bd 09d9 17bd 7cfc 39bd 182e 1c3e
000001c0: e487 65bc 24e8 e93c 68af ce3c 367e ff3c
000001d0: bea9 85bd 522e ba3d 9311 403d 6d63 4abd
000001e0: e4cf c6bd 6178 c03d 9d11 343b 39ca d23a
000001f0: 9bed 933c 688e 903b 2f79 af3d 642d 1ebd
00000200: ccdb 043d 3597 c3bd 2947 8cbd ac4c 6b3c
00000210: 0283 a53d 0983 c23d 4aaa c63d 48ca 68bd
00000220: 9501 883c e53e bbbd 2288 e5bc c070 6abc
00000230: 0320 a5bc ea76 d0bc 63ff c3bc 491c 0cbd
00000240: af45 05bb 4842 2dbd 9e0e 763c 4901 e3bc
00000250: 7e3b ff3c 4e91 b13d d136 01bd 3fc6 abbd
00000260: ceae 51bb 2f3e 4bbe da11 aa3c cfec 453d
00000270: c442 87bd 9853 10bd 3fdb 9c3d 656d cebc
00000280: f1dd 7e3c 146e 58bd d1ba 753d 6c94 f8bc
00000290: bc46 1e3b b7dc 51bd 6d9a f73d 1e9f 37bc
000002a0: 8f0d e03c d30e 80bd eda6 afbd 3c36 9f3c
000002b0: 026e 0e3d 08bb d33d 6f59 c8bd 987d 873c
000002c0: 5c9e b13d 68e1 f83c 160f e3bb c6ac 42bd
000002d0: 87d1 fa3d d5a2 27bd a269 9e3c 4afa 09bd
000002e0: 3393 893a 2da0 8abd d4cd 113d c49d 773d
000002f0: 678c 2ebe a2fb 2bbc 59c2 a53c 8a8f 023c
00000300: 1130 2abd 92dd 9dbb 9e4c 323d 96bf d43c
00000310: e64d 453c 6cf2 45bc ff83 70bd 1fc0 8dbd
00000320: f0e0 ccbd 8ab8 323d c454 063d b046 c73d
00000330: c1b7 4ebd 5687 a93d 3b9e c6bd 0917 3abd
00000340: 802f b5bd 06ca dabd 5452 a7bd 22c6 1abd
00000350: 281d 0c3b 0ef1 0f3d 72ba 083c 184d a53d
00000360: 31c8 98bd 00ac c7bc 353e af3d 5aed 03bd
00000370: 6aac 8dbd 0bf8 b8bd 7fbe 8b3d 1226 863c
00000380: d6af 343c f3f1 c03d 6042 3ebd bb2b a63c
00000390: b880 e9bd d06b e63c 58a3 bfbd 6c42 873c
000003a0: df3e 7d3b 0416 7f3c e7c4 aa3c 5d26 27bd
000003b0: 7abd b0bd d857 5abd 1492 983c ea05 703c
000003c0: 3690 9e3d ccfc 6c3b 2075 b23c 7262 80bd
000003d0: 297b 1cbc d4b0 153c e5e7 9f3c cc34 73bd
000003e0: cccc f73c 5ee5 8ebc eb39 14bc 6034 343d
000003f0: cb15 593d c289 38bd 0306 e4bd 7605 25bd

network_body._body_endoder.seq_layers.4.bias f4 [256]
-0.0003980699 0.010571344 0.00917812 0.006747469 -0.0022267648 0.0014535879 -0.0060257046 0.008553305
-0.005841989 0.002661278 -0.0068030194 0.009348496 -0.00010186329 0.009950701 -0.0052318014 0.0038638245
-0.0077207517 -0.00231805 -0.002849735 0.009734142 0.008171164 0.009425756 -0.0071097016 0.0051194187
-0.0019668222 -0.0048940056 -0.004984359 0.007937591 0.0069050463 0.009706766 0.009229922 0.009300083
0.009887142 -0.0066225673 0.0013088569 0.0068705603 -0.003284471 0.005506081 0.00028021782 0.00065271737
-0.0036161086 -0.0037294195 0.007633848 -0.0014983886 -0.0075517227 -0.005205804 -0.005587828 0.0058888593
-0.0014817534 -0.004338328 0.0038240568 0.0075923195 0.0019369227 0.01232051 0.007998064 0.0067532933
-0.006388599 -0.0070265587 -0.0014402142 -0.006736393 -0.00051570946 0.005590022 0.0075498796 -0.0046614474
0.008830984 0.005991413 -0.008360954 0.0077546993 0.0035663014 0.009755317 -0.007520605 -0.0076002195
0.00045466356 -0.0030112236 -0.0055542635 0.008425838 0.009535217 0.006042031 -0.006476764 -0.00080841116
0.008476202 -0.0074467603 -0.0016069459 0.0021252313 -0.004836131 0.0019213723 0.0073895054 -0.0018290364
-0.008251745 0.001819329 -0.0067750844 0.005933362 -0.0040990184 0.008821485 -0.0063330424 -0.0068320343
-0.007992525 -0.006420726 0.0076158303 0.009193145 -0.005648385 0.0042816917 0.008704532 -0.009147871
0.0037917783 0.010936632 0.0020454568 0.001248878 -0.008509678 0.0009935721 0.008756755 0.0011212806
-0.0083239935 -0.0070079262 0.010665677 0.009101413 -0.009418773 -0.0076147895 0.006580515 0.010524487
0.0012591074 -0.0052442523 -0.0036657194 0.00028008016 -0.003556234 -0.0069597843 0.0025774299 -0.005448785
0.006559719 0.001046322 0.010411666 0.008123989 0.0059627583 0.005404801 0.008689576 0.0053841434
0.007855744 0.0029186418 -0.0040081646 0.010152849 0.007828541 -0.006889884 -0.0030735217 -0.0072941
-0.007397336 0.006277496 -0.00841506 -0.0032471577 -0.007239805 -0.0041408525 0.003331682 0.0076216077
0.009194307 -0.0042858915 -0.0041948757 -0.008439418 0.0011001112 -0.004771918 -0.005667586 0.002871383
0.0038894296 -0.0030233744 0.004875934 -0.0014006819 0.008079031 -0.0056397347 -0.004324839 0.006306979
-0.0071793166 -0.0054066456 0.007826009 0.009103766 0.0010889935 -0.0007061348 0.013235293 -0.0012427185
0.0035358758 -0.0048243986 0.008574046 0.0052206405 -0.0049648467 -0.0037361463 -0.0089748185 -0.0004116836
-0.006653433 0.0043974817 -0.005803519 0.00034129576 -0.005682513 -0.0072016628 -0.0050390605 -0.0067279804
-0.007912118 -0.0040259957 0.0020177052 -0.0020106295 0.009414232 0.010466666 0.001689046 0.007280428
-0.0042474754 -0.0011559987 -0.0037852314 0.0046139057 0.008902367 -0.0068801367 0.0024607012 0.0046266676
-0.0049151983 -0.0031223262 0.0018980425 0.005604702 0.0036048428 0.0039457893 0.008107926 0.0037003034
0.005253523 -0.009447594 -0.0038642038 -0.005796134 -0.00064829644 0.0016397401 0.0045781643 0.010205142
0.006858778 -0.006118421 0.008877895 0.0049022404 0.0077816504 -0.008734939 -0.0062709562 0.009231408
0.0028592618 0.0075718947 -0.0024749697 -0.006773983 0.009787163 -0.002916017 -0.003565537 0.0033817256
-0.008161941 -0.0005401444 0.008363206 0.008255767 -0.0033653763 -0.0018734323 0.011385046 -0.005429706
0.008504597 0.0044466136 0.005529592 -0.0024476757 0.0052048783 0.0026325793 -0.005895029 0.003380334
00000000: 0ab4 d0b9 6e33 2d3c d35f 163c df19 dd3b
00000010: eaee 11bb 5186 be3a 4673 c5bb 2923 0c3c
00000020: 286e bfbb d668 2e3b ddeb debb 6f2a 193c
00000030: 709f d5b8 4408 233c 886f abbb 3838 7d3b
00000040: 5cfe fcbb 6dea 17bb 9fc2 3abb f37b 1f3c
00000050: 59e0 053c 7c6e 1a3c 80f8 e8bb ccc0 a73b
00000060: cde5 00bb e55d a0bb d553 a3bb ab0c 023c
00000070: ba43 e23b 2109 1f3c 1939 173c 605f 183c
00000080: aefd 213c 1f02 d9bb f38d ab3a 7022 e13b
00000090: 4840 57bb 5b6c b43b 33ea 9239 1f1b 2b3a
000000a0: 3cfc 6cbb 4769 74bb 5c25 fa3b 9465 c4ba
000000b0: 7174 f7bb 7395 aabb 191a b7bb 55f7 c03b
000000c0: 6537 c2ba 8828 8ebb 079d 7a3b fec8 f83b
000000d0: 57e0 fd3a f7db 493c 500a 033c bb4a dd3b
000000e0: 7457 d1bb 0c3f e6bb 92c5 bcba f6bc dcbb
000000f0: ad30 07ba 812c b73b fb64 f73b 0ebf 98bb
00000100: d5af 103c 9d53 c43b 62fc 08bc 221b fe3b
00000110: 9cb8 693b c4d4 1f3c 686f f6bb 430b f9bb
00000120: e95f ee39 f357 45bb 8a00 b6bb 870c 0a3c
00000130: 9939 1c3c 3bfc c53b 093b d4bb 8eeb 53ba
00000140: c5df 0a3c f403 f4bb 28a0 d2ba 7747 0b3b
00000150: 6878 9ebb 8ed6 fb3a aa23 f23b 47bc efba
00000160: 5432 07bc 8d76 ee3a 8701 debb a66c c23b
00000170: 0f51 86bb fd87 103c 6985 cfbb 42df dfbb
00000180: 14f3 02bc f464 d2bb 378e f93b d89e 163c
00000190: 1616 b9bb 6f4d 8c3b 749d 0e3c f4e0 15bc
000001a0: 7c7f 783b 8f2f 333c 120d 063b 64b1 a33a
000001b0: 2d6c 0bbc bf3a 823a 7e78 0f3c eff7 923a
000001c0: 5c61 08bc bfa2 e5bb 17bf 2e3c 181e 153c
000001d0: 3351 1abc 7c85 f9bb 5ca1 d73b e66e 2c3c
000001e0: a208 a53a fad7 abbb 913c 70bb b9d7 9239
000001f0: b50f 69bb e70e e4bb 19ea 283b b98b b2bb
00000200: e9f2 d63b be24 893a b195 2a3c 7b1a 053c
00000210: 3e63 c33b c21a b13b b95e 0e3c 786d b03b
00000220: 61b5 003c af46 3f3b ec56 83bb 2358 263c
00000230: 4843 003c 89c4 e1bb 236d 49bb 5803 efbb
00000240: 5a65 f2bb 74b3 cd3b 52df 09bc 44ce 54bb
00000250: e33b edbb fdaf 87bb 5958 5a3b aebe f93b
00000260: b8a3 163c aa70 8cbb 2b75 89bb 7c45 0abc
00000270: 9b31 903a c05d 9cbb 28b7 b9bb d02d 3c3b
00000280: cde5 7e3b ce23 46bb 4dc6 9f3b 1697 b7ba
00000290: e95d 043c 86cd b8bb 61b7 8dbb c6aa ce3b
000002a0: 7940 ebbb 3b2a b1bb a938 003c f627 153c
000002b0: 8fbc 8e3a e71b 39ba d8d8 583c b7e2 a2ba
000002c0: 27ba 673b fd15 9ebb 287a 0c3c e811 ab3b
000002d0: 27b0 a2bb 22da 74bb 1e0b 13bc 3dd7 d7b9
000002e0: 0b05 dabb c018 903b 722b bebb f1ef b239
000002f0: 6034 babb edfb ebbb b41e a5bb 6476 dcbb
00000300: d4a1 01bc 80ec 83bb 7a3b 043b c4c4 03bb
00000310: 273e 1a3c 617c 2b3c fb62 dd3a a890 ee3b
00000320: 682e 8bbb e184 97ba a511 78bb 3f30 973b
00000330: 3cdb 113c c572 e1bb b743 213b 4d9b 973b
00000340: ac0f a1bb f19f 4cbb bdc7 f83a a6a7 b73b
00000350: 3a3f 6c3b ae4b 813b 1bd7 043c ca80 723b
00000360: bf25 ac3b 15ca 1abc 953e 7dbb 7fed bdbb
00000370: 70f2 29ba 8cec d63a 6d04 963b 7833 273c
00000380: 9abf e03b 097d c8bb 9774 113c f9a2 a03b
00000390: 37fd fe3b fd1c 0fbc 987c cdbb 553f 173c
000003a0: 7462 3b3b a81d f83b 1a33 22bb 4af8 ddbb
000003b0: 565a 203c a61a 3fbb c9ab 69bb f19f 5d3b
000003c0: a9b9 05bc 7a98 0dba d405 093c 3243 073c
000003d0: a58d 5cbb f58d f5ba 5888 3a3c adeb b1bb
000003e0: dd56 0b3c e6b4 913b 9431 b53b 2f69 20bb
000003f0: af8d aa3b 5a87 2c3b 162b c1bb 9888 5d3b

action_model._continuous_distribution.log_sigma f4 [1, 2]
0.004084862 0.005600659
00000000: 4eda 853b bc85 b73b

action_model._continuous_distribution.mu.weight f4 [2, 256]
0.0024570643 0.027404582 0.027224865 0.01909447 0.00903966 -0.007905127 -0.01710118 0.010904454
-0.0312804 0.010009179 -0.005221358 0.009170315 0.0055324202 0.012065252 -0.0017114888 0.00064860657
-0.013259707 -0.0053584925 -0.039968852 0.021194858 0.005327237 0.020653404 -0.020261558 0.022100482
-0.016421052 -0.0187458 -0.022323223 0.037435174 0.0069744107 0.01256162 0.013072238 0.022409348
0.013105237 -0.03186613 0.02066805 0.011882871 0.0040427605 0.007769668 -0.009419473 0.0077264025
-0.0022710173 -0.011125743 0.025744881 0.0061820745 -0.02380107 -0.006897 -0.006743656 0.0097768735
0.0034590827 -0.014687209 0.0064754505 0.0057213367 -0.00655717 0.027227309 0.012838229 0.00633951
-0.027411113 -0.015399594 0.0049899276 -0.02161077 -0.0071147894 0.014399481 0.018230133 -0.014448199
0.009675976 0.007244248 -0.0065613813 0.00484846 0.0015322717 0.020503264 -0.008911308 -0.012749053
-0.0030422665 -0.012929109 -0.013059034 0.02716227 0.022168864 0.029814944 -0.011871626 -0.0155503135
0.022281405 -0.026472626 -0.008132766 0.00510541 -0.0046471795 0.018740399 0.021953886 0.009333259
-0.022511212 0.016468532 -0.020411186 0.0051492425 -0.017009925 0.0068486384 -0.009747704 -0.019974906
-0.0099801775 -0.01895572 0.022488065 0.011713818 -0.01881394 0.009297812 0.022596495 -0.0053663896
0.009231838 0.0201101 0.0016810562 0.01308089 -0.034768965 -0.0071257837 0.0112465685 -0.003053235
-0.015261982 -0.014294628 0.0027181476 0.017483857 -0.0070592505 -0.015292388 0.012742632 0.004034804
-0.0022132793 -0.008610176 -0.02397667 0.01592036 -0.027062 -0.013352627 -0.0022181056 -0.0052051814
0.021322338 -0.005307142 0.008225664 0.03340527 0.014766573 0.014969321 0.009135825 0.004313365
0.008357251 0.0019262115 -0.004348244 0.015983246 0.004744239 -0.0343036 -0.029985225 -0.014950952
-0.006790406 0.006730501 -0.012003663 0.0013380941 -0.026140196 -0.020810332 0.015376722 0.017165842
0.030487144 -0.016540298 -0.014631929 -0.0251849 0.008497751 -0.0036926726 -0.016863413 0.01660857
0.002347619 -0.032016385 0.033729307 -0.011027647 0.012783347 -0.01848303 -0.004604257 0.013927033
-0.023314524 -0.01599374 0.007316413 0.023861319 -0.001513012 0.002817246 0.018022563 0.010463621
-0.002672647 -0.011619229 0.018514035 0.0054765167 -0.014323715 -0.009028997 -0.0083798785 -0.0023009207
-0.031529695 0.006372475 -0.00960603 0.012514176 -0.023382096 -0.013930738 -0.0029910288 -0.006587261
-0.014195459 -0.021476416 -0.008468505 -0.013036884 0.016533623 0.019804459 0.01455217 0.007429299
-0.026920829 -5.4544405e-05 -0.0052044485 0.0029335746 0.015649391 -0.025077958 0.009979335 0.015346133
-0.029985445 -0.01470603 -0.0027174216 0.007921644 0.021663483 0.0031182203 0.008986094 0.008244886
0.02065149 -0.008597647 -0.005917021 -0.009039825 -0.0026934906 0.0020044083 0.0027216254 0.011552225
0.0057433634 -0.007903419 0.0048167016 0.0039607314 0.026107684 -0.02746688 -0.020443296 0.013325165
0.0063650464 0.004973929 0.0074527245 -0.022221982 0.01066521 -0.008064488 -0.008674583 -0.0068291007
-0.020473465 -0.016830806 0.02511923 0.002141919 -0.008439473 -0.0066487766 0.030678364 -0.0213771
0.04141401 0.0016869578 0.006814708 0.0029237312 0.010376492 -0.004483737 -0.014583296 0.0017922869
00000000: b306 213b 937f e03c ae06 df3c 026c 9c3c
00000010: 151b 143c 8184 01bc c617 8cbc 98a8 323c
00000020: e01f 00bd 8afd 233c ed17 abbb 173f 163c
00000030: 4e49 b53b 56ad 453c 0954 e0ba 4007 2a3a
00000040: 3e3f 59bc 4b96 afbb 61b6 23bd d7a0 ad3c
00000050: 1a90 ae3b 5431 a93c 91fb a5bc 120c b53c
00000060: 7185 86bc cb90 99bc 31df b6bc a055 193d
00000070: 9989 e43b 41cf 4d3c f12c 563c cf93 b73c
00000080: 59b7 563c 0f86 02bd 0b50 a93c 60b0 423c
00000090: 2279 843b b398 fe3b 2254 1abc c32d fd3b
000000a0: 59d5 14bb c048 36bc eee6 d23c 0093 ca3b
000000b0: 76fa c2bc 3b00 e2bb e3f9 dcbb 2e2f 203c
000000c0: c7b1 623b 9fa2 70bc 0430 d43b 0d7a bb3b
000000d0: 87dd d6bb ce0b df3c 6f57 523c aabb cf3b
000000e0: 458d e0bc 944e 7cbc 8c82 a33b 1209 b1bc
000000f0: 2e23 e9bb cdeb 6b3c 5c57 953c 24b8 6cbc
00000100: fc87 1e3c 2861 ed3b db00 d7bb d5df 9e3b
00000110: 82d6 c83a 76f6 a73c bc00 12bc 67e1 50bc
00000120: c360 47bb 9dd4 53bc 8ff5 55bc 6983 de3c
00000130: 7a9b b53c 783e f43c 3581 42bc bec6 7ebc
00000140: 7e87 b63c 1fdd d8bc 4b3f 05bc 484b a73b
00000150: 5e47 98bb 7785 993c a3d8 b33c 87ea 183c
00000160: 6f69 b8bc 04e9 863c 5c35 a7bc faba a83b
00000170: 6658 8bbc 8b6a e03b d5b4 1fbc 6aa2 a3bc
00000180: e683 23bc 0749 9bbc e438 b83c 50eb 3f3c
00000190: b11f 9abc da55 183c 491c b93c 8ad8 afbb
000001a0: 2341 173c f0bd a43c e356 dc3a 3b51 563c
000001b0: e769 0ebd 687f e9bb 8743 383c c818 48bb
000001c0: 640d 7abc 0434 6abc f322 323b 4e3a 8f3c
000001d0: 4951 e7bb ed8c 7abc 79c6 503c 6436 843b
000001e0: aa0c 11bb b211 0dbc b96a c4bc 6a6b 823c
000001f0: 21b1 ddbc fac4 5abc a35d 11bb 3a90 aabb
00000200: 2fac ae3c 89e7 adbb efc4 063c f7d3 083d
00000210: 7fef 713c e241 753c 6dae 153c 2157 8d3b
00000220: daec 083c ef78 fc3a b77b 8ebb 4cef 823c
00000230: 9075 9b3b ef81 0cbd 93a3 f5bc d6f4 74bc
00000240: 0e82 debb 898b dc3b 03ab 44bc fd62 af3a
00000250: f723 d6bc 6e7a aabc a6ee 7b3c 619f 8c3c
00000260: 2dc0 f93c 857f 87bc c2ba 6fbc 9050 cebc
00000270: 273a 0b3c c400 72bb 2425 8abc b20e 883c
00000280: 83da 193b 9d23 03bd be27 0a3d 4ead 34bc
00000290: 3e71 513c b969 97bc 4fdf 96bb 362e 643c
000002a0: 1afe bebc 4e05 83bc 85be ef3b d078 c33c
000002b0: 4250 c6ba 8ba1 383b 0ea4 933c 9b6f 2b3c
000002c0: 9327 2fbb 945e 3ebc bfaa 973c 5a74 b33b
000002d0: 04ae 6abc 5cee 13bc c24b 09bc 0bcb 16bb
000002e0: 4825 01bd 32d0 d03b 9c62 1dbc 4208 4d3c
000002f0: cf8b bfbc c03d 64bc 2305 44bb f3d9 d7bb
00000300: 1294 68bc 4fef afbc 7cbf 0abc a898 55bc
00000310: 8571 873c f63c a23c 3a6c 6e3c 7a71 f33b
00000320: 1289 dcbc 9cc6 64b8 148a aabb 3741 403b
00000330: 2733 803c 4a70 cdbc 5d80 233c 596e 7b3c
00000340: 09a4 f5bc 8ff1 70bc c516 32bb c8c9 013c
00000350: 9e77 b13c 0e5b 4c3b 693a 133c 8f15 073c
00000360: 502d a93c 25dd 0cbc 92e3 c1bb c61b 14bc
00000370: 4685 30bb 645c 033b 4c5d 323b 8b45 3d3c
00000380: d332 bc3b 587d 01bc 6cd5 9d3b 06c9 813b
00000390: c8df d53c 3902 e1bc b378 a7bc cb51 5a3c
000003a0: e191 d03b 57fc a23b fc35 f43b e00a b6bc
000003b0: 22bd 2e3c ea20 04bc d71f 0ebc a6c6 dfbb
000003c0: f8b7 a7bc c2e0 89bc d8c6 cd3c 705f 0c3b
000003d0: b745 0abc fbdd d9bb 3151 fb3c 071f afbc
000003e0: bda1 293d e91c dd3a ea4d df3b 129c 3f3b
000003f0: 2902 2a3c 50ec 92bb c7ee 6ebc 2beb ea3a

action_model._continuous_distribution.mu.bias f4 [2]
0.007659643 0.004214892
00000000: befd fa3b 141d 8a3b

54 f4 [14]
0.017092125 0.014652186 0.29380816 0.0050558085 0.005339284 25.81263 0.004928856 0.056298655
0.0003922387 0.0003922387 0.07824506 0.040204566 0.78225696 0.006371133
00000000: c904 8c3c b90f 703c 066e 963e 32ab a53b
00000010: 29f5 ae3b 4480 ce41 3e82 a13b 6b99 663d
00000020: 63a5 cd39 63a5 cd39 f23e a03d 8bad 243d
00000030: fe41 483f f0c4 d03b
