rrs_unity/Assets/Models/POURNET-CNN.onnx (onnx, 546483 bytes, 11 tensors)

network_body.observation_encoder.processors.0.normalizer.running_mean f4 [14]
0	0x3dd64221	0.10461832
1	0x3dd1839d	0.10230181
2	0x3f983099	1.1889831
3	0x3c4811ba	0.012211258
4	0x3c469520	0.012120515
5	0x427c70a4	63.11
6	0x3c47765f	0.012174218
7	0x3e1fa3e7	0.15589868
8	0x3e508b47	0.2036563
9	0x38bd9ac2	9.041048e-05
10	0x3d3eacfd	0.046551693
11	0x3cc132a3	0.023583716
12	0x3e41f06c	0.1893937
13	0x3c1c7256	0.009548744

network_body._body_endoder.seq_layers.0.weight f4 [256, 14]
0	0x3e1280ca	0.14306942
1	0x3e44c590	0.19215989
2	0xbefbcb14	-0.49178374
3	0x3d76cb20	0.06025231
4	0x3d0329ef	0.032022413
5	0xbd47bab1	-0.048762027
6	0xbe119f28	-0.1422087
7	0x3f0ea714	0.5572369
8	0x3e19ddb2	0.15025976
9	0xbec1ef8c	-0.37878072
10	0xbe9750ad	-0.29553738
11	0xbde218e4	-0.11039904
12	0x3e4f3caa	0.20237985
13	0xbda90e66	-0.082546994
14	0x3e7110aa	0.23541513
15	0x3de413c1	0.1113658
16	0xbf4e4db3	-0.8058731
17	0xbcbd94c9	-0.023142235
18	0x3dae7546	0.08518462
19	0xbcd5ea42	-0.02611268
20	0xbe294dae	-0.16533539
21	0x3e0423b6	0.12904248
22	0x3e84e654	0.25956976
23	0x3ea662aa	0.3249715
24	0xbe043291	-0.12909915
25	0x3dc29e0d	0.09502802
26	0xbec57e1f	-0.38572785
27	0xbe89736f	-0.2684588
28	0x3e4232fb	0.1896476
29	0xbe93d74d	-0.288752
30	0x3e3a7309	0.18207945
31	0x3edf8989	0.43659618
32	0x3e90a63f	0.28251836
33	0x3e02ce07	0.12773906
34	0x3e57cddf	0.21074627
35	0xbc02327f	-0.0079466095
36	0x3e295b0a	0.16538635
37	0x3f138067	0.576178
38	0xbebad41a	-0.36489946
39	0xbe22045c	-0.15821975
40	0xbe682eeb	-0.22674148
41	0xbd335d1b	-0.043789964
42	0xbe46be0d	-0.19408436
43	0xbdcac047	-0.09899955
44	0x3eb8aa7a	0.36067563
45	0xbe783f80	-0.24242973
46	0x3e9d3a23	0.30708417
47	0x3e997119	0.299691
48	0xbd54b0a8	-0.051926285
49	0x3dff9b77	0.124808244
50	0xbe82a888	-0.25519204
51	0xbd95680e	-0.072952375
52	0xbf28be66	-0.65915525
53	0x3dd996f8	0.10624498
54	0xbe5c5686	-0.21517381
55	0xbb875bf6	-0.0041308356
56	0x3dd80fa6	0.1054986
57	0xbec89298	-0.39174342
58	0xbb259547	-0.0025265978
59	0xbdb81c08	-0.089897215
60	0xbe89d031	-0.2691665
61	0xbea2404b	-0.31689677
62	0xbbef73dc	-0.0073075127
63	0xbec2aeb6	-0.3802392
64	0xbee729ec	-0.4514917
65	0x3f106b65	0.5641387
66	0x3ebc70cc	0.36804807
67	0xbd8b2204	-0.06793597
68	0x3e70cc57	0.2351545
69	0x3ee4a26e	0.44655174
70	0x3e507b4f	0.20359538
71	0xbbac52d1	-0.005258896
72	0x3e3ab210	0.18231988
73	0x3e20d8b3	0.15707664
74	0x3e4a23b5	0.19740184
75	0xbe416164	-0.18884808
76	0x3d5254e5	0.051350493
77	0xbe5d3254	-0.2160123
78	0x3e816933	0.25275573
79	0x3e309014	0.17242461
80	0xbda3bd0b	-0.079950415
81	0xbe75e26c	-0.24012154
82	0xbd458b85	-0.04822876
83	0x3ea9a11a	0.33130723
84	0x3e14348f	0.14473175
85	0xbe46162b	-0.19344394
86	0xbcdacc2f	-0.02670869
87	0xbea9b51b	-0.33145985
88	0xbe426b32	-0.18986204
89	0xbe1cea3e	-0.15323731
90	0x3e0fe34b	0.14051549
91	0xbe4134b9	-0.18867768
92	0x3ea68c65	0.32528988
93	0xbee761eb	-0.45191893
94	0x3f0b841a	0.54498446
95	0xbe998e53	-0.29991397
96	0x3e7b59d3	0.24545984
97	0xbeeb7777	-0.45989582
98	0x3ea879b6	0.32905358
99	0x3e8b1d00	0.27170563
100	0xbf0554e5	-0.52082664
101	0x3e99c79f	0.3003511
102	0xbed8e81d	-0.42364588
103	0xbe978b8a	-0.29598647
104	0x3ecddd6b	0.4020799
105	0x3dd76f2e	0.10519253
106	0x3e09748b	0.13423364
107	0x3e8b2e01	0.27183536
108	0xbda020de	-0.07818769
109	0x3ebf8ad3	0.37410602
110	0x3e025273	0.12726764
111	0xbcc82b4b	-0.024434706
112	0x3e413208	0.18866742
113	0xbc858f68	-0.016303733
114	0xbc85ff10	-0.016356975
115	0x3dfb94b7	0.122842245
116	0xbe031c25	-0.12803705
117	0x3dfdb832	0.12388648
118	0xbe50a5da	-0.20375767
119	0xbeaf4d57	-0.34238693
120	0x3b46f9f8	0.0030361395
121	0xbdfe7421	-0.124244936
122	0x3de65dd1	0.11248363
123	0x3ee94fc5	0.45568672
124	0xbe556a13	-0.20841245
125	0xbe72a66a	-0.23696294
126	0x3e5139bd	0.20432182
127	0xbe2b30c7	-0.16717826
128	0x3e2fdd87	0.1717435
129	0xbe485048	-0.19561875
130	0xbe835fab	-0.25658926
131	0x3ec15e67	0.37767336
132	0x3f4adbfb	0.79241914
133	0xbe0ba04b	-0.13635366
134	0x3e590c67	0.21196137
135	0xbf5264ed	-0.8218525
136	0xbf09a457	-0.5376639
137	0x3e95c963	0.29255208
138	0x3e5aa6a1	0.21352626
139	0xbf031a7d	-0.5121229
140	0xbe2b3449	-0.16719164
141	0x3e97444a	0.29544288
142	0x3e5d20f7	0.21594606
143	0xbd27aa46	-0.04093387
144	0x3d1d67fc	0.038429245
145	0xbea648f4	-0.32477534
146	0x3e068819	0.13137855
147	0x3eda072a	0.4258359
148	0xbe419cf7	-0.18907534
149	0x3f141848	0.5784955
150	0xbef217d9	-0.4728382
151	0x3d16b5c9	0.036794458
152	0xbf115e3c	-0.56784415
153	0xbe9e0b79	-0.30868128
154	0xbf174282	-0.5908586
155	0xbe30d67c	-0.1726932
156	0x3ed945c8	0.4243605
157	0xbe0a28f7	-0.1349219
158	0xbe69716a	-0.2279717
159	0x3d211f32	0.03933639
160	0x3ea368e0	0.3191595
161	0xbe3cacfd	-0.18425365
162	0x3e6c86bf	0.23098277
163	0x3e82f9ac	0.2558111
164	0xbe9b3fe5	-0.30322185
165	0xbed12eca	-0.4085601
166	0xbe4a5409	-0.1975862
167	0xbc549132	-0.01297407
168	0x3ec9aa72	0.39387852
169	0xbeb5edf6	-0.35533112
170	0xbea78f2d	-0.32726422
171	0x3ee6b91d	0.45063105
172	0xbed517d7	-0.4161975
173	0xbe4d5ad0	-0.20054173
174	0xbec540b2	-0.3852592
175	0xbdb30f57	-0.0874316
176	0x3e2e2575	0.17006476
177	0xbea885f8	-0.3291471
178	0xbd8e25b5	-0.06940786
179	0xbe348784	-0.1762982
180	0xbdff3e50	-0.12463057
181	0x3ca51afd	0.02015447
182	0x3ec50780	0.38482285
183	0x3d3e300d	0.046432544
184	0x3c496395	0.012291809
185	0xbcfbb39e	-0.030725297
186	0xbf2f0afd	-0.6837614
187	0xbeee6f65	-0.46569362
188	0x3ddec72a	0.10877831
189	0xbebe7ef0	-0.3720622
190	0x3d9b2a24	0.07576397
191	0x3e16cfea	0.1472775
192	0x3dbe989a	0.0930645
193	0xbc3d0e57	-0.011539063
194	0xbeb61081	-0.35559466
195	0xbe2fb832	-0.17160109
196	0xbe2ea592	-0.17055348
197	0xbdee54ab	-0.11637243
198	0x3f1a9416	0.6038221
199	0xbd90a52c	-0.07062754
200	0xbe9febe0	-0.31234646
201	0xbda030f3	-0.07821836
202	0x3e6aa64c	0.22915
203	0x3eaea5ff	0.3411102
204	0xbe2d4088	-0.16919148
205	0x3e7685b7	0.24074446
206	0xbbe34fc1	-0.0069369976
207	0x3e1d66aa	0.15371194
208	0x3e987701	0.29778293
209	0xbd2d5dde	-0.042325847
210	0xbe787c68	-0.24266207
211	0xbe9678a5	-0.2938892
212	0xbd96175b	-0.073286735
213	0x3d831474	0.064003855
214	0x3e26f7bc	0.1630544
215	0x3d987c68	0.074456036
216	0x3ce7d813	0.028301274
217	0x3dc3c481	0.095589645
218	0x3c67b7af	0.014142915
219	0xbe073cab	-0.13206737
220	0xbe1d600c	-0.1536867
221	0xbe09f1e5	-0.13471182
222	0xbbea0952	-0.0071422243
223	0xbe5fc571	-0.21852662
224	0xbe42ade5	-0.19011648
225	0x3e52e103	0.20593648
226	0xbf1460bd	-0.5796011
227	0x3b8b26e6	0.0042465804
228	0x3e06f861	0.13180687
229	0x3ed60267	0.41798708
230	0xbcd726f5	-0.026263693
231	0x3f1558aa	0.58338416
232	0x3da10e68	0.07864076
233	0x3c693fd8	0.014236413
234	0x3b15ec63	0.0022876493
235	0xbed13b3d	-0.40865508
236	0x3e0f112d	0.13971396
237	0x3d9111e2	0.07083489
238	0xbde3d040	-0.11123705
239	0xbea21053	-0.3165308
240	0xbdc2df4d	-0.095152475
241	0xbd21e740	-0.039527178
242	0xbeb222c1	-0.3479214
243	0xbea08cd0	-0.3135743
244	0x3de667d3	0.11250272
245	0x3e181be1	0.14854385
246	0x3bfffbe3	0.0078120097
247	0xbee933c4	-0.45547307
248	0xbe6289ad	-0.22122832
249	0x3db1c218	0.086795986
250	0xbf2855ed	-0.6575611
251	0x3eeed588	0.46647286
252	0xbd283d3c	-0.041074023
253	0xbd664a20	-0.056223035
254	0xbdfb9ace	-0.12285386
255	0x3ef2583b	0.4733294

network_body._body_endoder.seq_layers.0.bias f4 [256]
0	0xba50c04c	-0.0007963225
1	0x3b53cf6e	0.0032319683
2	0x3b138ea5	0.0022515443
3	0x3afa2503	0.0019084517
4	0x3ade896e	0.0016978213
5	0x3a9aceca	0.0011810896
6	0xba3fe398	-0.0007319986
7	0xbb1aa55d	-0.00235971
8	0xb9e64e92	-0.00043927558
9	0x3a778b73	0.0009443082
10	0xbb483d5d	-0.0030554153
11	0x3992b5ef	0.0002798284
12	0x38982599	7.254928e-05
13	0xbab8bef3	-0.0014094993
14	0xba1746f1	-0.0005770764
15	0x3ac3e89b	0.0014946641
16	0x3b138a7f	0.002251297
17	0xba617f87	-0.0008602072
18	0x3b178f43	0.0023126162
19	0x3b348fe8	0.0027551595
20	0xbadc4aa3	-0.0016806911
21	0x3b1add2a	0.002363036
22	0xbaba48d1	-0.0014212375
23	0xb9f52699	-0.000467588
24	0x3b227943	0.0024791516
25	0xbb0c67c5	-0.0021424156
26	0xba89f397	-0.0010524866
27	0x3a145bff	0.00056594604
28	0xb9b00eaf	-0.00033580276
29	0xb820f159	-3.8371745e-05
30	0x3a27ecb5	0.00064058165
31	0xba288e76	-0.000642992
32	0x3a1a3fa3	0.00058841164
33	0x3a0890ed	0.0005209584
34	0xb99298b8	-0.00027961074
35	0x3ac2f8cd	0.0014875174
36	0xba5923f8	-0.0008283253
37	0xbae65ca8	-0.0017575221
38	0x3a80e67f	0.0009834318
39	0x3a48f5a5	0.00076659984
40	0xb928dffa	-0.00016105166
41	0x3a663ffc	0.0008783338
42	0x394edba5	0.00019727515
43	0x3ae4edd2	0.0017465896
44	0x3b0d2c9c	0.0021541482
45	0xbaf6031e	-0.001876924
46	0x3a8ddb7b	0.0010822857
47	0x3ae38f9f	0.0017361528
48	0x3b32cfe2	0.0027284552
49	0x3b0a846d	0.002113606
50	0xb95090d5	-0.0001989038
51	0x3a6891ed	0.00088718423
52	0x3b110a90	0.002213154
53	0xb8c25f27	-9.2683644e-05
54	0x3adaee9e	0.0016703194
55	0x3b3227e9	0.0027184433
56	0xbac20c13	-0.0014804624
57	0xb9e3bb4e	-0.00043436367
58	0xbab7f220	-0.0014033951
59	0x3a4df87d	0.0007857157
60	0x3a9887fc	0.0011637206
61	0x380a61fd	3.2993023e-05
62	0x3b1ca50b	0.0023902084
63	0x39808f8f	0.00024521022
64	0x39548d28	0.0002027048
65	0xb9587fb5	-0.0002064694
66	0x3af5d5fe	0.0018755791
67	0xbab30c65	-0.001366031
68	0x3a8289a6	0.0009959235
69	0x3b291a94	0.0025803195
70	0xbac02c75	-0.0014661687
71	0x3a61fa66	0.0008620381
72	0xbaf992c7	-0.0019040935
73	0xba85bd0d	-0.0010203436
74	0xbaa3eb32	-0.0012506007
75	0x3b281c83	0.002565176
76	0x39f9b3dd	0.0004762699
77	0x3b146082	0.002264053
78	0x3a968143	0.0011482615
79	0xb9c23b42	-0.00037046714
80	0x3b00e216	0.0019666008
81	0x3a786aef	0.00094763836
82	0x39c84ff2	0.00038206537
83	0x3b20c716	0.0024532727
84	0xba7b98b6	-0.0009597646
85	0xbab5bccf	-0.0013865473
86	0xbb168b21	-0.002297111
87	0x3ae3731b	0.001735303
88	0x3a8ff0c2	0.0010981786
89	0xba4cf84a	-0.00078189804
90	0x3a023c39	0.00049680803
91	0x3b252e55	0.0025204618
92	0xb9c0c299	-0.0003676608
93	0x3a844456	0.0010091166
94	0x3acc3949	0.0015581037
95	0x3a555bf1	0.00081390055
96	0xbaa6efa8	-0.0012736218
97	0xbaa73fb3	-0.0012760073
98	0xbaab9c70	-0.0013092887
99	0x3b32028d	0.0027162165
100	0x3a40fc11	0.00073617796
101	0x3a8efbe5	0.0010908811
102	0x3b0eae98	0.0021771546
103	0x3940afda	0.00018376057
104	0x399f35e3	0.00030366992
105	0x39d6c2f9	0.00040962527
106	0x3a886e1b	0.001040879
107	0x3af607d9	0.0018770649
108	0x3a54e351	0.0008121031
109	0xbaca6013	-0.0015440009
110	0xba376fee	-0.0006997575
111	0x3b8561ff	0.00407052
112	0xbaeebde6	-0.0018214553
113	0x39e63ae0	0.00043912884
114	0xb9934d5e	-0.00028095668
115	0x39ba5c78	0.0003554558
116	0xbad9dc83	-0.0016621504
117	0x3ade84c8	0.0016976828
118	0xb9981a0c	-0.00029011106
119	0xbaa01f59	-0.0012216374
120	0xbada31fa	-0.0016646974
121	0x3a9c504b	0.0011925785
122	0xbae0c2b2	-0.0017147867
123	0x3a111975	0.00055351044
124	0xba85275c	-0.0010158825
125	0x3ad56bed	0.0016282775
126	0xbb035878	-0.0020041745
127	0x3ab3aa74	0.0013707415
128	0x3ae28647	0.0017282449
129	0xba96d277	-0.0011506815
130	0x39702dc8	0.00022905238
131	0xba22a902	-0.00062049937
132	0xba79c2c9	-0.00095276214
133	0xba1ba45c	-0.0005937272
134	0x3ab05eb7	0.0013455962
135	0xba873a21	-0.0010317006
136	0x3affd3d7	0.0019518089
137	0x3b030b7f	0.0019995866
138	0x3ab59e63	0.0013856407
139	0xbaad3179	-0.0013213597
140	0x3b0c1115	0.0021372486
141	0xbaf65e2b	-0.0018796375
142	0x3b07aa01	0.0020700695
143	0xb93b853a	-0.0001788334
144	0xbadc6fa0	-0.0016817935
145	0x3af18f12	0.0018429479
146	0xb9428536	-0.00018550907
147	0x3a9fa6f3	0.0012180492
148	0xbb23cb26	-0.0024992912
149	0xbad82e29	-0.0016493249
150	0xbb03a518	-0.0020087417
151	0x3932f312	0.00017065954
152	0x3987fe14	0.0002593851
153	0x3b1ad15e	0.0023623328
154	0xbb26a557	-0.002542814
155	0xbaf821a0	-0.001893092
156	0x3ae86659	0.0017730697
157	0xba4bbe8c	-0.0007772229
158	0x3abc4d5c	0.0014366317
159	0xb83edf52	-4.5507513e-05
160	0x3b60cf4f	0.0034303253
161	0x3b1364a9	0.0022490418
162	0x39d957dd	0.0004145493
163	0x39c345d9	0.0003724534
164	0xbaa367c3	-0.0012466836
165	0xba971a0f	-0.0011528152
166	0x38982fbf	7.256818e-05
167	0x3acdeffa	0.0015711777
168	0xbb10b1ef	-0.0022078713
169	0x3a4d17ea	0.0007823693
170	0xba9c7f84	-0.0011939858
171	0x3abb1667	0.0014273644
172	0x3a9e42f4	0.0012074397
173	0x394dc133	0.00019622296
174	0x3aa8a06a	0.001286519
175	0xba995aeb	-0.0011700069
176	0x3a328a7a	0.0006810796
177	0xba9f2cc5	-0.001214408
178	0x3a9e7684	0.0012089764
179	0x3ad43910	0.0016191322
180	0xb9f07df5	-0.00045870212
181	0x3adbebc8	0.0016778642
182	0x3b19d4d0	0.0023472793
183	0x3aa019cf	0.0012214723
184	0x394655c3	0.000189147
185	0xbb121222	-0.002228864
186	0x3ac8e3b7	0.0015326653
187	0xba6a3c82	-0.0008935408
188	0xbb0368d8	-0.0020051505
189	0x3ac8e77b	0.0015327776
190	0x3ab348f0	0.0013678353
191	0xba7d9f1e	-0.00096748944
192	0xba3f87c1	-0.00073063007
193	0xba79458a	-0.00095089583
194	0xbb108d06	-0.0022056713
195	0x39f8a79f	0.00047427134
196	0xb960e335	-0.00021446946
197	0xba7a06a2	-0.00095377315
198	0xba37afe6	-0.0007007107
199	0xba1fb469	-0.0006092252
200	0x3a4ff2b3	0.00079325883
201	0xba27642d	-0.0006385472
202	0xb9e55a59	-0.00043745598
203	0xbb45adf6	-0.0030163503
204	0x3a8aa222	0.0010576884
205	0x3a050a6d	0.0005075101
206	0xbb13f301	-0.0022575262
207	0xbac1acd8	-0.0014776243
208	0x3aa0ab96	0.0012258168
209	0xba5c33ae	-0.0008400035
210	0xb9d13aa3	-0.00039907274
211	0xbab60c9a	-0.0013889254
212	0xba189a55	-0.0005821337
213	0x3a887efd	0.0010413822
214	0x3a9606c9	0.0011446114
215	0x3a4dd91a	0.000785248
216	0x3b42f8b4	0.002975029
217	0x3ab7df2d	0.0014028304
218	0xb90806be	-0.00012972482
219	0x3a5cfefc	0.00084303296
220	0x3b16dc81	0.0023019614
221	0x3aec554f	0.0018030795
222	0xbb0f6e59	-0.002188584
223	0x3a91ca53	0.0011122919
224	0x3a53de73	0.0008082159
225	0x3b02ab78	0.001993863
226	0xbb3450e9	-0.0027514047
227	0xbaaa8d3f	-0.0013012065
228	0x3511e85d	5.435484e-07
229	0xb79c65a3	-1.8643977e-05
230	0x3aa7ec19	0.0012811451
231	0x3b0b732a	0.002127836
232	0x3b36bf1f	0.0027884913
233	0x3b22dd11	0.0024851004
234	0x3afdbd3f	0.0019358768
235	0xba492dfc	-0.0007674394
236	0xba508556	-0.0007954439
237	0x3ab29f32	0.0013627766
238	0xba207d32	-0.0006122171
239	0xbb24c4d4	-0.0025141733
240	0x3b10e62b	0.0022109847
241	0xb88e2211	-6.777433e-05
242	0x3a521315	0.00080137077
243	0x3ab500cf	0.0013809445
244	0xbb0a900d	-0.002114299
245	0xba3067c4	-0.00067293295
246	0x3b07eae5	0.0020739373
247	0x3b0545fb	0.00203359
248	0xbb033022	-0.0020017703
249	0xba806d42	-0.0009798186
250	0x3a9651f3	0.0011468515
251	0x3b0730aa	0.0020628371
252	0x3ae403d0	0.0017396156
253	0xba70f207	-0.00091913383
254	0xbac120ea	-0.0014734541
255	0x3a3a1d0c	0.0007099665

network_body._body_endoder.seq_layers.2.weight f4 [256, 256]
0	0x3dee5d0d	0.11638842
1	0xba7533de	-0.0009353737
2	0x3d4afb2b	0.04955594
3	0x3d0a0c47	0.033703115
4	0xbd777116	-0.06041058
5	0x3dbc0733	0.09181061
6	0xbde1a436	-0.11017649
7	0x3d51414a	0.051087655
8	0xbcb1978a	-0.021678705
9	0xbc769b9d	-0.01505175
10	0xbd2c8954	-0.042123154
11	0x3d9b8a84	0.07594779
12	0x3cc9893f	0.024601577
13	0xbe4dbd82	-0.20091823
14	0x3e22a5be	0.15883538
15	0x3d8e31c4	0.06943086
16	0xbc40d5a3	-0.011769685
17	0xbc4323d3	-0.011910397
18	0x3caa870d	0.02081635
19	0xbdf4c9c8	-0.11952549
20	0xbc215690	-0.009847298
21	0x3e0c1632	0.13680342
22	0x3debe39a	0.11518021
23	0x3d2c4d55	0.042065937
24	0x3d81271d	0.063062884
25	0xbd5af88b	-0.053459685
26	0xbd0aee0b	-0.03391842
27	0x3d299c3a	0.041408755
28	0xbdc47797	-0.095931225
29	0xbbdc4b20	-0.006722823
30	0xbbb7f92c	-0.0056144204
31	0xbc0584e4	-0.008149359
32	0x3c32af7b	0.010906096
33	0x3c6812d5	0.014164646
34	0x3e611c87	0.21983539
35	0x3c6cb6ec	0.014447909
36	0xbd46ef83	-0.04856826
37	0x3d1226ce	0.03568154
38	0xbdafddb8	-0.08587211
39	0x3d337737	0.043814864
40	0xbd512d52	-0.05106861
41	0xbe25b176	-0.16180977
42	0x3d71ddc6	0.05904939
43	0xbc5849d1	-0.013201193
44	0xbd383918	-0.044976324
45	0xbd73a8b3	-0.059487056
46	0xbd07d90b	-0.033165973
47	0x3dce0000	0.10058594
48	0x3d79bca7	0.06097093
49	0x3d3d033e	0.04614567
50	0x3cc014c8	0.02344741
51	0x3d58ad38	0.05289957
52	0xbd88e0ec	-0.066835254
53	0xbda19f76	-0.07891743
54	0xbd38cadd	-0.04511534
55	0xbccd7f04	-0.02508498
56	0xba942dd3	-0.0011305161
57	0xbdb39fd6	-0.08770721
58	0xbdc3e7a2	-0.09565665
59	0x3dac5394	0.08414379
60	0x3d6c9bea	0.05776588
61	0x3d19220a	0.037385978
62	0x3de24a88	0.11049372
63	0x3e0b88dc	0.13626426
64	0xba864f98	-0.001024711
65	0x3d786c31	0.060650054
66	0xbe00c91b	-0.12576716
67	0xbd53932c	-0.051654026
68	0x3d9656ce	0.073407754
69	0x3d1deba7	0.038554814
70	0xbc4cbddb	-0.012496437
71	0x3e10eec3	0.1415358
72	0xbda0c0cc	-0.07849273
73	0x3a2e4737	0.0006648185
74	0x3d24a1f7	0.040193524
75	0x3d157195	0.036485273
76	0xbba11cd7	-0.004916768
77	0xbb296d8c	-0.0025852649
78	0x3c4241ae	0.01185648
79	0x3d98cfeb	0.07461532
80	0xbe004aff	-0.12528609
81	0x3da54799	0.08070297
82	0x3b0b2065	0.0021229025
83	0x3d1dad04	0.03849508
84	0xbc252d6d	-0.010081631
85	0x3d1e6d1d	0.038678277
86	0xbd77c488	-0.06049016
87	0xbc12d91b	-0.008962895
88	0xbc69d6b8	-0.014272384
89	0xbd8c90c9	-0.06863553
90	0x3c4bc464	0.01243696
91	0xbd2f53d0	-0.04280454
92	0xbd615583	-0.05501319
93	0x3da8ff9e	0.0825188
94	0x3d9d727f	0.07687854
95	0x3d76c60a	0.06024746
96	0x3d46bcc7	0.048519876
97	0xbcecf040	-0.028923154
98	0x3d2b1338	0.041766375
99	0xbd1d7866	-0.0384449
100	0x3daf6fc9	0.08566243
101	0x3ded3576	0.115824625
102	0x3b53cfc3	0.003231988
103	0x3cd335fd	0.02578258
104	0xbd76b191	-0.060227934
105	0xbdf3f8aa	-0.11912663
106	0xbd6f85dc	-0.058477268
107	0x3e113302	0.14179614
108	0xbb0d8c93	-0.0021598681
109	0xbd3db461	-0.0463146
110	0xbd90e2ae	-0.07074486
111	0xbd17e935	-0.037087638
112	0xbd107e29	-0.035276566
113	0xbd14ada3	-0.036298405
114	0xbdbdfbb9	-0.09276528
115	0x3d205310	0.039141715
116	0x3cec325f	0.028832613
117	0xbe04bf0c	-0.12963504
118	0x3cf1cc56	0.02951638
119	0x3c0b09d7	0.008486233
120	0x3c9e6ed6	0.01933996
121	0x3e307d87	0.17235385
122	0x3aa801ef	0.0012817959
123	0x3d951baf	0.07280671
124	0xbdd0eb9f	-0.10201191
125	0xbdb3223b	-0.08746763
126	0x3b834156	0.0040055914
127	0x3dad83c8	0.08472401
128	0xbda8e025	-0.08245877
129	0xbbfec82c	-0.007775327
130	0xbd93ee40	-0.07223177
131	0x3d52aea4	0.05143608
132	0x3d61db71	0.055140916
133	0xbcfbf8e2	-0.030758325
134	0x3c81b59d	0.01583367
135	0x3d28afd2	0.0411833
136	0x3d81b834	0.06333962
137	0x3c9fdcf6	0.019514542
138	0xbd8ad8dd	-0.06779645
139	0xbd67d0ec	-0.056595728
140	0x3bab85d1	0.005234458
141	0x3be3fd3a	0.006957677
142	0xbcd5835a	-0.02606361
143	0xbda96923	-0.08272006
144	0x3d997dd3	0.07494702
145	0x3d0e5b9a	0.034755327
146	0x3c34b78b	0.011030088
147	0xbc4803ef	-0.012207969
148	0x3d1a6064	0.03768958
149	0xbd97eadf	-0.07417845
150	0x3d7e3f57	0.062072124
151	0xbd6bd75e	-0.057578437
152	0x3dbee0d5	0.09320227
153	0x3d01e542	0.031712778
154	0xbcf83a6d	-0.030301297
155	0x3d2c671d	0.042090524
156	0x3c8bec14	0.017080344
157	0x3d592e6c	0.053022787
158	0x3b79c047	0.003810899
159	0xbd9bf99e	-0.0761597
160	0xbd2cf861	-0.04222906
161	0xbd371a3b	-0.04470275
162	0xbd6dc704	-0.058051124
163	0xbbb3dcb1	-0.005488955
164	0x3d87d61e	0.066326365
165	0xbcbceaf8	-0.02306126
166	0x3d03f837	0.032219138
167	0x3da79981	0.081835754
168	0x3d4371e9	0.047716055
169	0x3d0bf76b	0.034171503
170	0x3c2c7e98	0.010528229
171	0x3d51b1df	0.05119502
172	0xbbc1b2ac	-0.005911192
173	0x3d94b7ea	0.07261641
174	0x3d466d02	0.0484438
175	0x3c1aa19b	0.009437944
176	0x3cbf9dd8	0.023390695
177	0x3b9f7e60	0.00486736
178	0x3c1cfd14	0.009581823
179	0x3bfd810f	0.0077363322
180	0x3d786e66	0.06065216
181	0xbd18cb2b	-0.03730313
182	0xbd223cc1	-0.03960872
183	0x3dac4c5d	0.08413003
184	0xbd113325	-0.035449166
185	0x3ca1c738	0.019748315
186	0x3da07745	0.07835249
187	0x3d368dbe	0.04456877
188	0x3dbb1cf1	0.091363795
189	0x3de7d837	0.113205366
190	0x3c1a5f0b	0.009422074
191	0x3dada303	0.08478358
192	0xbcea878e	-0.02862909
193	0xbda67d55	-0.08129374
194	0x3dc0176c	0.09379467
195	0xbd896f77	-0.06710713
196	0x3dbedbe3	0.09319284
197	0x3c5f2d94	0.0136217065
198	0x3d8acae8	0.067769825
199	0xbd9a018a	-0.07519825
200	0xbbc3ebcb	-0.0059790364
201	0xbc4b621d	-0.012413529
202	0x3bf08267	0.007339764
203	0xbd2d27af	-0.042274173
204	0xbd3b4110	-0.045716345
205	0x3cb0e864	0.021595187
206	0x3a438eb2	0.0007459923
207	0xbe181107	-0.14850245
208	0xbcf25141	-0.02957976
209	0xbab826b0	-0.0014049616
210	0xbc23c0a1	-0.009994657
211	0xbdb92e55	-0.0904204
212	0x3cd7a595	0.026324073
213	0x39df013e	0.000425348
214	0xbdb56370	-0.08856857
215	0xbda77477	-0.08176511
216	0x3d9f9a95	0.07793156
217	0xbd9b50ce	-0.07583772
218	0xb982fdf6	-0.00024984748
219	0xbd00ffc2	-0.03149391
220	0x3b745327	0.0037281008
221	0xbcb8ba36	-0.02254973
222	0x3b6b8291	0.0035935978
223	0x3d0c6299	0.034273718
224	0x3c294980	0.010332465
225	0x3d22ceeb	0.039748114
226	0xbdafeadf	-0.0858972
227	0xbc4dcc12	-0.012560861
228	0xbc7b2026	-0.015327489
229	0xbdbabdff	-0.0911827
230	0x3e0b1712	0.1358302
231	0x3ceab8f4	0.028652646
232	0x3d90ea2b	0.07075914
233	0xbdc62a01	-0.0967598
234	0x3d6a094a	0.057137765
235	0xbde507dc	-0.1118314
236	0x3c49170a	0.012273559
237	0x3d9c442f	0.076301925
238	0x3dae4d7d	0.085108735
239	0xbd1dfefa	-0.038573243
240	0x3dcaa266	0.09894256
241	0xba4faa6e	-0.00079218193
242	0xbd21e6a1	-0.039526585
243	0xbcade70f	-0.021228341
244	0x3c159dbb	0.009131844
245	0x3cbb5a79	0.02287029
246	0xbc8967e9	-0.016773181
247	0x3cc7eede	0.024405893
248	0xbd8302c8	-0.06397015
249	0xbcfabd89	-0.030607956
250	0xbbc1c35b	-0.0059131808
251	0x3e06f54a	0.13179508
252	0xbdb7eb07	-0.08980375
253	0x3c4660d6	0.012108048
254	0x3d8201c9	0.06347997
255	0x3b1c53e8	0.0023853723

network_body._body_endoder.seq_layers.2.bias f4 [256]
0	0x3a8595ae	0.0010191703
1	0x3b01065e	0.0019687633
2	0xb9654277	-0.00021863902
3	0x399e29c1	0.00030167217
4	0x3ab94191	0.001413392
5	0xb9b74fd3	-0.00034963954
6	0xba3f2634	-0.00072917645
7	0xbad8a370	-0.00165282
8	0xbb31f364	-0.0027153129
9	0xbb1730d2	-0.002306987
10	0xbae3b9d8	-0.0017374111
11	0x3a501d5a	0.0007938944
12	0x387fc5eb	6.0981063e-05
13	0x3ab30255	0.0013657311
14	0xbae36564	-0.0017348942
15	0x398b51b7	0.00026573028
16	0x3b0654cf	0.0020497327
17	0x3b1f3a4a	0.0024296218
18	0x3ac6942a	0.0015150358
19	0x3ac874eb	0.0015293633
20	0xb905f766	-0.00012776032
21	0x3b0f82a1	0.002189793
22	0x3b0383c4	0.0020067552
23	0x3b2754b5	0.0025532667
24	0x3ab58cbf	0.001385115
25	0xbb0c7102	-0.0021429663
26	0x39eb05e9	0.00044827096
27	0xba62b24b	-0.00086477835
28	0x3b0024fa	0.001955329
29	0x3abee3f3	0.0014563784
30	0x3ab767f8	0.0013992777
31	0x39392e1a	0.00017660149
32	0xbae0d666	-0.001715374
33	0xba45f6da	-0.00075517374
34	0xb7870770	-1.6096717e-05
35	0xbac500de	-0.0015030166
36	0x3abd933b	0.0014463434
37	0xbac3bf1b	-0.0014934273
38	0xbab27dc2	-0.0013617801
39	0xba828bdd	-0.0009959895
40	0x3b00877e	0.001961201
41	0xbaa67c67	-0.001270187
42	0x3af5bda6	0.0018748536
43	0x3ad286d8	0.0016061915
44	0xba89acc8	-0.0010503763
45	0xbb106247	-0.0022031234
46	0xba2a4a3f	-0.0006496049
47	0x39afaccd	0.00033507348
48	0xbb185a9c	-0.0023247367
49	0xb9a37454	-0.00031176454
50	0x37d5caf3	2.5486084e-05
51	0xbae40371	-0.0017396045
52	0x3ae1df84	0.001723275
53	0xba75e79c	-0.0009380521
54	0x3b04f882	0.0020289724
55	0xbaf105ef	-0.0018388609
56	0x3ac9f392	0.0015407673
57	0xba657c18	-0.0008754148
58	0x3aaf4301	0.0013371409
59	0x3aa1ff68	0.0012359442
60	0x3b1700c0	0.0023041219
61	0x3aff4468	0.0019475343
62	0xbac18f4b	-0.0014767436
63	0xbada3902	-0.001664907
64	0x3a018034	0.0004940063
65	0xbaef22b0	-0.0018244591
66	0x3b124455	0.002231856
67	0xbab870ac	-0.0014071665
68	0x3b1086be	0.002205297
69	0x3a8fb0f2	0.0010962768
70	0xb9fa6c7e	-0.0004776455
71	0xbb0823c6	-0.0020773276
72	0xbb0a4991	-0.0021100978
73	0x3a2f867a	0.0006695759
74	0xba948da0	-0.0011333711
75	0xbb05af40	-0.0020398647
76	0x3ad61602	0.0016333463
77	0xbb1c2244	-0.0023824135
78	0xbb3e7575	-0.002906171
79	0x3ac3b279	0.0014930508
80	0xb9f0e696	-0.00045948167
81	0xbae8319b	-0.0017714979
82	0x3b215fd1	0.0024623761
83	0xbb17224c	-0.0023061214
84	0x3b320875	0.0027165685
85	0xbb09e9a6	-0.0021043806
86	0x3b2d3fab	0.0026435654
87	0x3b183c78	0.0023229402
88	0x3afb9a43	0.0019195754
89	0xbb071cf9	-0.0020616634
90	0x39ab65ab	0.0003269141
91	0xbaec74e7	-0.0018040211
92	0x3b3440ef	0.0027504524
93	0xb9ea00d4	-0.00044632575
94	0x3a89c22f	0.0010510142
95	0xba863b3b	-0.0010241041
96	0xbb42e799	-0.0029740094
97	0xbad7cf48	-0.0016464973
98	0xba94eb59	-0.0011361643
99	0xba8f9124	-0.001095329
100	0x3af3f547	0.0018612527
101	0x3978333c	0.0002367021
102	0xba24906c	-0.0006277624
103	0x3ae1f6b6	0.0017239663
104	0x39d179db	0.00039954376
105	0x399ec9cb	0.00030286456
106	0xbacf0c87	-0.001579658
107	0x3b082472	0.0020773676
108	0x3b1049b1	0.002201658
109	0xbacd5f83	-0.0015668723
110	0xbb0d2dca	-0.0021542185
111	0xba3b0122	-0.00071336527
112	0x3b23e7a5	0.0025009897
113	0xb9fbb42f	-0.00048008698
114	0xbaabd040	-0.0013108328
115	0xbb1bd4b8	-0.0023777913
116	0x3942c95b	0.00018576292
117	0x3a9a861e	0.0011789238
118	0x3b05ca14	0.0020414637
119	0x3ada4b7c	0.0016654576
120	0x398ffc4b	0.00027463058
121	0xba839fe6	-0.001004216
122	0x3b188d86	0.0023277714
123	0x3a59bd53	0.00083061046
124	0xba39ea40	-0.0007092096
125	0xbb02d06c	-0.0019960655
126	0x3aaeafa7	0.0013327495
127	0x3a4d6bae	0.0007836175
128	0xbaf7a8b1	-0.0018894878
129	0xba4badb1	-0.00077697175
130	0xb91ec6e7	-0.00015142151
131	0x3b0545ad	0.002033572
132	0x3a9a640c	0.0011779084
133	0x3a7b56f6	0.00095878483
134	0x3b2f486f	0.0026746055
135	0xbb18b3db	-0.0023300562
136	0xbaeddf1c	-0.0018148157
137	0xbb0245e9	-0.0019878095
138	0xba67ce20	-0.00088426657
139	0x3ad07c62	0.001590621
140	0x39319391	0.00016935008
141	0x3a564928	0.0008174353
142	0x3affa189	0.0019503097
143	0x3a352fe4	0.00069117383
144	0xbb39bc82	-0.002834112
145	0xbaf298ed	-0.001850871
146	0xbabc95ff	-0.0014387964
147	0xba4a880b	-0.00077259605
148	0x3a821335	0.0009923937
149	0x3aade55c	0.0013267207
150	0x3ac46945	0.0014984986
151	0xbab08ef5	-0.0013470339
152	0xbb1a3c43	-0.0023534454
153	0x3b05dc0c	0.0020425348
154	0x3a4585bc	0.00075348816
155	0xb938723f	-0.00017590167
156	0x3ac7ebe0	0.0015252791
157	0x3a64c5a6	0.00087269617
158	0xba2e82fb	-0.0006657091
159	0x3b20cef2	0.0024537412
160	0x3a8aa085	0.0010576403
161	0x3ac35814	0.0014903569
162	0x3a02b7e8	0.00049865106
163	0xba29c34d	-0.00064759405
164	0x3ab843af	0.0014058257
165	0x3abff500	0.0014645159
166	0xba9ab942	-0.0011804479
167	0x3922fe78	0.00015544321
168	0xbae27236	-0.0017276469
169	0x3a5d1e3e	0.00084349874
170	0x3b1650e8	0.0022936407
171	0xb9fe1a18	-0.00048466097
172	0x3af2452f	0.0018483753
173	0x39dab1d2	0.00041712687
174	0xbaf5dca8	-0.0018757777
175	0xbb0985d5	-0.002098431
176	0x3b0e12b0	0.002167862
177	0xbafd9285	-0.0019346034
178	0xba9190ec	-0.0011105812
179	0xba482cf7	-0.0007636095
180	0xbb0648be	-0.0020490135
181	0xbaa267f8	-0.0012390604
182	0xb98abb18	-0.00026460807
183	0xb8e61878	-0.00010971812
184	0x3a983c8f	0.0011614728
185	0x3b0859a3	0.002080538
186	0x3abbdb05	0.0014332241
187	0xba4eb444	-0.0007885138
188	0xb9d4d15c	-0.00040591776
189	0xba69dd9b	-0.00089212664
190	0xb921a7c2	-0.00015416651
191	0x3a09a246	0.0005250316
192	0x3ab2ca53	0.001364062
193	0xb9898f89	-0.00026237618
194	0x399d5325	0.0003000732
195	0xbb079ad7	-0.0020691657
196	0x3a1a4cff	0.0005886107
197	0xba0e868a	-0.0005436918
198	0x3b342f5a	0.0027494044
199	0xbac18dd6	-0.0014767002
200	0x3a8d4fa4	0.0010781181
201	0xbb09b196	-0.002101039
202	0xbae8381b	-0.0017716916
203	0xb995271b	-0.0002844863
204	0x3a82073d	0.000992037
205	0xbad9db41	-0.0016621129
206	0x3af3601b	0.001856807
207	0x3aa69514	0.0012709224
208	0x3a756067	0.00093603734
209	0xbb03bf07	-0.0020102875
210	0xbadd5824	-0.001688723
211	0xba48c0e5	-0.0007658138
212	0x3a206c79	0.00061196793
213	0x3b0c5451	0.0021412561
214	0x3a07890f	0.00051702646
215	0xb9abcd55	-0.00032768646
216	0x3b211b32	0.002458286
217	0xb914ff0c	-0.00014209392
218	0x3a58010c	0.0008239902
219	0xbad4a064	-0.0016222117
220	0xba9f9738	-0.0012175804
221	0x3a1d4935	0.00059999834
222	0xb9ae8ede	-0.0003329431
223	0x3aac7e44	0.0013160189
224	0xba1efbb4	-0.00060647284
225	0xb9cf80a8	-0.00039577973
226	0xbaa03430	-0.0012222584
227	0x397ad799	0.00023922174
228	0x3af70744	0.001884677
229	0x3b3401ee	0.002746697
230	0x399f277d	0.00030356264
231	0x3a025dbc	0.0004973074
232	0xb7ef4c74	-2.8526621e-05
233	0xba342303	-0.0006871672
234	0xb9204634	-0.00015284942
235	0x3a6e2a76	0.00090853067
236	0x3adcae4b	0.0016836611
237	0x3b140cc5	0.002259062
238	0x3a4c710d	0.00077988283
239	0xbab2e632	-0.0013648926
240	0xb9f53e22	-0.00046776334
241	0x3a8de1cd	0.001082474
242	0xb8f1bcc6	-0.00011526937
243	0x3aaf3217	0.0013366368
244	0x3b1d98f2	0.0024047461
245	0xba9d40a9	-0.001199742
246	0x3ad19858	0.0015990837
247	0x391135f8	0.00013848383
248	0xbb134555	-0.0022471745
249	0x3b02ff8a	0.001998874
250	0x3afd4712	0.0019323549
251	0x3a5184dc	0.0007992515
252	0xba2cdeb6	-0.0006594466
253	0x3b0d5ac0	0.0021568984
254	0xbad5c36a	-0.0016308848
255	0xbb03e80c	-0.0020127324

network_body._body_endoder.seq_layers.4.weight f4 [256, 256]
0	0x3bbb8fe6	0.005723941
1	0x3d230921	0.039803628
2	0x3d87d43d	0.06632278
3	0x3d456956	0.04819616
4	0xbde197a6	-0.11015253
5	0x3d866026	0.065613076
6	0xbe09eb1e	-0.13468596
7	0x3cc169da	0.023610044
8	0x3cbbe910	0.022938281
9	0x3ca6e9e3	0.020375198
10	0xbc9c2e9e	-0.019065198
11	0x3c810798	0.015750691
12	0x3e4755a4	0.19466263
13	0x3daa01cb	0.08301123
14	0xbd95a5d9	-0.073070236
15	0xbca5f980	-0.020260572
16	0x3cc9534c	0.024575852
17	0x3bdd5418	0.0067544095
18	0xbcd779c6	-0.026303183
19	0x3d84853c	0.06470725
20	0x3d3e8973	0.0465178
21	0x3da09605	0.07841114
22	0xbd3cd696	-0.046103083
23	0xbc159530	-0.009129807
24	0x3c0b232b	0.008492271
25	0xbcca3890	-0.024685174
26	0xbd23d84f	-0.04000121
27	0xbda7e8a1	-0.08198667
28	0xbdf69d99	-0.12041778
29	0xbcdb5a3c	-0.026776426
30	0x3e04067b	0.12893097
31	0xbc98ccad	-0.018652285
32	0xbcfe5299	-0.031045245
33	0xbcbd6e83	-0.023123985
34	0x3dec02c3	0.11523964
35	0x3ccfac86	0.02535082
36	0x3cac8bd8	0.021062776
37	0x3d092d81	0.03349066
38	0x3cd3d883	0.025860077
39	0xbac4df05	-0.0015020078
40	0x3bda4c37	0.0066619175
41	0xbd8eccc0	-0.06972647
42	0x3d8e97c5	0.069625415
43	0xbceb8ffd	-0.028755182
44	0x3d358f15	0.044325907
45	0xbd9331d9	-0.07187242
46	0xbdceee72	-0.101040736
47	0xbd954927	-0.07289343
48	0xbcf50326	-0.029908728
49	0xbbf1a16b	-0.007373979
50	0x3db6090e	0.08888446
51	0x3d35d8be	0.044396155
52	0xb9e1ddb4	-0.00043080526
53	0xbc990c1b	-0.01868253
54	0xbd24c6c2	-0.040228613
55	0x3cf8c1d5	0.030365864
56	0x3b85d827	0.0040846053
57	0x3dc06109	0.09393508
58	0x3b00f758	0.0019678678
59	0x3c60cabf	0.013720213
60	0xbb963434	-0.00458386
61	0xbd22d915	-0.039757807
62	0xbd28a1a9	-0.041169796
63	0x3d0407a2	0.03223384
64	0x3b451cd7	0.0030077004
65	0xbdac5618	-0.084148586
66	0x3d0cfaf0	0.034419
67	0x3cd75796	0.026286881
68	0x3d9bd77b	0.07609459
69	0xbd980ae8	-0.07423955
70	0x3cb956da	0.022624422
71	0xbcb2d19d	-0.021828467
72	0xbd94f1e3	-0.07272699
73	0xbc0a9774	-0.008458961
74	0x3baa7cdc	0.0052028727
75	0xbcc28c22	-0.023748461
76	0xbbedf451	-0.007261791
77	0x3c4136f2	0.011792885
78	0xbca83627	-0.020533634
79	0x3c9d6e13	0.019217527
80	0x3c92d266	0.017922591
81	0x3cb696e9	0.022288756
82	0x3d931c65	0.0718315
83	0x3df40cd0	0.11916506
84	0xbc9c6c64	-0.019094653
85	0xbc254b6a	-0.010088781
86	0xbd5a6c6c	-0.053326055
87	0x3d6d27e9	0.05789939
88	0x3c9c8eeb	0.019111117
89	0xbcabc05f	-0.020965753
90	0x3d800359	0.062506385
91	0x3d4dc6ed	0.05023854
92	0xbd64c378	-0.055850476
93	0xbca2a530	-0.019854158
94	0x3d3c3d84	0.045957103
95	0x3db73c01	0.08946992
96	0xbc5e5eb9	-0.013572388
97	0x3d1eaae0	0.038737178
98	0x3d251984	0.040307537
99	0x3da0b634	0.078472525
100	0x3d71644a	0.058933534
101	0x3db21aae	0.08696495
102	0x3cd4af26	0.025962424
103	0xbca16d80	-0.019705534
104	0xbce73bf1	-0.028226824
105	0x3d04d76c	0.032432005
106	0x3c574399	0.013138675
107	0xbd1508cf	-0.036385354
108	0xbdbc519e	-0.09195255
109	0xbd4ae82b	-0.04953782
110	0x3c95b269	0.01827355
111	0x3bdd8715	0.006760488
112	0xbdc8f71c	-0.098127574
113	0x3d8db432	0.06919135
114	0x3d17464e	0.036932282
115	0xbcda4f84	-0.026649244
116	0xbd68cb2e	-0.056834392
117	0xbd32c135	-0.043641288
118	0xbd649cb0	-0.05581349
119	0xbdca11ac	-0.09866652
120	0x3dde1a70	0.10844886
121	0x3b39cf71	0.0028352404
122	0xbd3a2e9e	-0.045454614
123	0x3cb6ada6	0.022299599
124	0x3d875c37	0.066093855
125	0xbd997e43	-0.07494786
126	0xbd7299a1	-0.059228543
127	0xbc81e0f8	-0.015854344
128	0x3ad7e370	0.001647098
129	0x3d425f78	0.047454327
130	0xbd0d1843	-0.034446966
131	0x3e029ee8	0.1275593
132	0x3d92c941	0.071672924
133	0xbd0bdc7e	-0.034145825
134	0xbd1b0e60	-0.037855506
135	0xbc69a71d	-0.014261034
136	0xbde2b13a	-0.110689595
137	0x3d1ad5e3	0.037801635
138	0x3dcbbb9f	0.09947895
139	0xbd1285b2	-0.035772033
140	0x3d144adc	0.036204204
141	0x3bce629d	0.0062983767
142	0xbd4fe07f	-0.050751206
143	0x3c8d302a	0.01723488
144	0x3d707c32	0.058712192
145	0x3b434abd	0.0029799186
146	0xbca40096	-0.02001981
147	0xbe1d8ebf	-0.15386485
148	0xbca36872	-0.019947264
149	0x3d45e746	0.048316263
150	0xbd3ff771	-0.046866838
151	0x3cd043f9	0.025423037
152	0xbdb0feab	-0.08642324
153	0x3b43c4a4	0.0029871846
154	0xbd41eb54	-0.047343567
155	0xbd3156b7	-0.04329559
156	0xbd04866b	-0.032354753
157	0xbd14e2a0	-0.03634894
158	0xbabf204a	-0.0014581766
159	0xbdb00d96	-0.08596341
160	0xbd6e969c	-0.0582491
161	0x3d86d2d6	0.065831825
162	0xbdd6bb90	-0.104849935
163	0x3d19ff59	0.037597034
164	0xbda03dc0	-0.07824278
165	0xbdbddfe0	-0.092712164
166	0xbd918ace	-0.07106553
167	0xbd206f0f	-0.039168414
168	0x3d442929	0.047890816
169	0x3d6a1008	0.057144195
170	0xbd571b99	-0.052516554
171	0x3d7ddb79	0.061976884
172	0x3d8dee65	0.06930236
173	0xbda727e2	-0.08161904
174	0xbe10f673	-0.14156513
175	0x3d7b71e0	0.061387897
176	0xbe08c102	-0.13354877
177	0x3b82363a	0.0039737495
178	0xbe162c03	-0.14665227
179	0xbdbd981b	-0.092575274
180	0x3c943ad6	0.018094461
181	0xbdfcbd93	-0.12340846
182	0xbe2b2107	-0.16711818
183	0xbca1950b	-0.01972439
184	0xbdb0171f	-0.0859816
185	0x3de85882	0.113450065
186	0x3d4e3799	0.05034599
187	0x3c9352c5	0.017983804
188	0xbdcab8de	-0.09898542
189	0x3d0268a5	0.031838078
190	0x3c0e3207	0.00867892
191	0x3d5822f1	0.052767698
192	0xbd77e01a	-0.060516454
193	0xbd365458	-0.04451403
194	0xbc9044da	-0.017610956
195	0xbbc0a615	-0.0058791735
196	0x3d0b632f	0.034030136
197	0xbcdda66b	-0.027056893
198	0x3d51a7af	0.051185306
199	0xbd22327e	-0.039598934
200	0xbb39a9f6	-0.0028330064
201	0xbc93e302	-0.018052582
202	0x3c982405	0.018571863
203	0x3c82426a	0.01590081
204	0x3c7a9760	0.01529488
205	0xbdb4acfe	-0.08822058
206	0x3d9a6174	0.07538119
207	0x3d229610	0.039693892
208	0x3d84673b	0.06465002
209	0xbdb85ff7	-0.09002679
210	0x3d55744e	0.05211287
211	0xbd56a95e	-0.052407615
212	0x3d8eb52d	0.0696815
213	0xbd28e15a	-0.041230537
214	0x3cdc112f	0.026863663
215	0x3da99870	0.08281028
216	0xbd51bbf6	-0.051204644
217	0x3c993a97	0.018704696
218	0xbb8faaa3	-0.004384355
219	0xbe02885b	-0.12747328
220	0xbc9b4a99	-0.01895647
221	0x3d91441f	0.07093071
222	0xbd1e743b	-0.038685065
223	0xbd13111b	-0.035904985
224	0xbc7e98c7	-0.015539355
225	0xbce29318	-0.02765803
226	0x3c66119e	0.014042286
227	0xbd14188a	-0.036156215
228	0x3dae52bf	0.08511876
229	0x3d39761c	0.045278654
230	0xbb1283ed	-0.0022356466
231	0xbe210f31	-0.15728451
232	0xbd468f7e	-0.04847669
233	0xbe1085f7	-0.14113604
234	0xbd4a5eff	-0.049407
235	0xbdbd65ce	-0.09247933
236	0x3db576aa	0.08860524
237	0x3d95220c	0.072818846
238	0x3d96a0ad	0.07354865
239	0x3c128723	0.008943352
240	0xbd7fe40f	-0.062473353
241	0xbd776e00	-0.06040764
242	0xbcd22c4b	-0.025655886
243	0x3bcefdba	0.0063168677
244	0x3d0a6c2a	0.03379456
245	0xbce42c0d	-0.027853036
246	0x3cc62ef0	0.024192303
247	0xbd7995fd	-0.060934056
248	0xbdaa6273	-0.08319559
249	0x3d0e496e	0.034737997
250	0x3d26e0fd	0.04074191
251	0xbd7eca14	-0.062204435
252	0x3d89fe79	0.0673799
253	0xbd3a9180	-0.045548916
254	0xbd9c8dcd	-0.07644234
255	0x3da6de07	0.08147817

network_body._body_endoder.seq_layers.4.bias f4 [256]
0	0x3b1cae31	0.0023907537
1	0xbae02591	-0.0017101039
2	0xba17c1b9	-0.000578906
3	0x3b022570	0.001985874
4	0x3a32eddc	0.0006825605
5	0xbb02b853	-0.0019946292
6	0x3a98fabe	0.0011671407
7	0x3a0e617e	0.00054313976
8	0x3a8299b0	0.0009964015
9	0xb97756c8	-0.00023588084
10	0xbb05d75c	-0.0020422554
11	0x3b092f98	0.002093291
12	0x3b222235	0.0024739627
13	0xbb0cd02e	-0.002148639
14	0x3a60e424	0.00085789175
15	0x3ad42d2c	0.0016187779
16	0x39acbd54	0.00032947457
17	0x3b0d1c31	0.0021531696
18	0x3afcf3b5	0.0019298705
19	0x3b086bf0	0.002081629
20	0x3a870d02	0.0010303559
21	0x399a1094	0.0002938552
22	0xbb15e72f	-0.0022873392
23	0xbacf5089	-0.0015816848
24	0x3affac71	0.0019506348
25	0x39b1bff2	0.0003390308
26	0xbabe0642	-0.0014497715
27	0x3b2218b4	0.0024733962
28	0x3b0b898e	0.0021291706
29	0x3aa9d632	0.0012957512
30	0x3b04c6bc	0.0020260056
31	0xba8c74a8	-0.0010715919
32	0x3b0a2ba2	0.0021083136
33	0x3b0c96ce	0.0021452191
34	0xba1f2c54	-0.0006071974
35	0xbb102267	-0.0021993162
36	0x39cbf69a	0.0003890291
37	0x3a83267a	0.0010005974
38	0xbaf69772	-0.0018813445
39	0x3aff6e4b	0.0019487826
40	0x3ab938f7	0.0014131357
41	0xbad3a083	-0.0016145859
42	0xbacadc40	-0.0015477017
43	0x3b08f679	0.0020898862
44	0xb9754be9	-0.000233933
45	0xbadb64d2	-0.0016738421
46	0x3abb198f	0.0014274585
47	0xbaff8a6e	-0.0019496211
48	0xbb0e3915	-0.0021701504
49	0x3a303c78	0.0006722878
50	0x3b0bb58e	0.0021317932
51	0x3ae442d9	0.0017414942
52	0xbaf1d4fd	-0.0018450316
53	0xbb2000c6	-0.0024414524
54	0xbaf6eec4	-0.0018839468
55	0x3a967b66	0.0011480867
56	0xb95a791a	-0.00020835214
57	0x39bf2473	0.00036457516
58	0x3b0d42a8	0.0021554623
59	0xb924ef62	-0.00015729436
60	0x3b1c733d	0.0023872398
61	0xb9bcadd1	-0.00035987658
62	0x3ab9e3d3	0.0014182277
63	0x3a803db6	0.0009784016
64	0x3a55d77c	0.0008157415
65	0x38cbde16	9.721161e-05
66	0x3ad262d4	0.0016051182
67	0x3a0a6be5	0.000528036
68	0x3b17262d	0.0023063526
69	0x3b1467c4	0.0022644857
70	0x3af040e5	0.0018329887
71	0xbabb197d	-0.0014274564
72	0x3b1ad1b6	0.0023623533
73	0xba841310	-0.0010076482
74	0xb967bd2a	-0.00022100346
75	0x3a49f5d8	0.0007704175
76	0xbaf6d388	-0.0018831352
77	0x3ad3b144	0.0016150852
78	0x3ae8bae1	0.001775589
79	0x3961e4c3	0.00021542893
80	0xba623591	-0.0008629198
81	0xba86319e	-0.0010238176
82	0xba7ceefb	-0.0009648648
83	0xba2cd49b	-0.000659296
84	0xba6bd55a	-0.00089963304
85	0x3b0046ee	0.0019573527
86	0x3aa454f5	0.0012537526
87	0x3a1d1829	0.0005992675
88	0xbb1a8c95	-0.0023582329
89	0x3ad5f5ca	0.0016323861
90	0x3a9d2d70	0.0011991691
91	0x3b1b5a52	0.0023704958
92	0xbb116360	-0.0022184476
93	0x39deb233	0.00042475908
94	0x3a8cb8e8	0.0010736259
95	0xbb0c7433	-0.0021431565
96	0xba232c1d	-0.000622453
97	0x3b0613c0	0.002045855
98	0x3af26728	0.0018493878
99	0xbb0d1b4f	-0.002153117
100	0x3b054c4d	0.0020339668
101	0x3b03706f	0.002005603
102	0xba326cc4	-0.00068063685
103	0x3b0ecd86	0.0021789982
104	0x39cc6230	0.00038983067
105	0x3a93b96b	0.0011270469
106	0xbb012d77	-0.0019710937
107	0xbb052f15	-0.0020322253
108	0xbb01b4a7	-0.0019791515
109	0xbaf8a0e2	-0.0018968845
110	0xbb064e0b	-0.0020493295
111	0xba63ea3a	-0.0008694265
112	0x3a403639	0.00073322986
113	0xbaee68d9	-0.0018189206
114	0x3b0e90ca	0.0021753781
115	0x3a7e4ec2	0.0009701067
116	0xbb01ba71	-0.0019794966
117	0x3b1a4c08	0.0023543853
118	0x3aeca03b	0.0018053123
119	0xbb208a77	-0.0024496594
120	0x39e6f350	0.000440503
121	0x3b228932	0.0024801013
122	0xbac81bf9	-0.0015267126
123	0xbb165121	-0.002293654
124	0x3b0c9048	0.0021448303
125	0x3ad81929	0.001648699
126	0x3ac2da74	0.001486613
127	0xba8aaa0e	-0.0010579245
128	0x3abd10f2	0.0014424606
129	0x3b060aff	0.0020453332
130	0x3a8b60e5	0.0010633735
131	0x3a237a2f	0.00062361633
132	0xbb0e91e5	-0.002175444
133	0xbaa6cb58	-0.0012725396
134	0x3b0fe6f5	0.002195773
135	0xb96dbdb2	-0.00022672748
136	0x3a220eda	0.00061820226
137	0xbab1d9ef	-0.0013568978
138	0x3a4856c3	0.0007642323
139	0x3b0fc920	0.0021939948
140	0x3ac14d53	0.0014747776
141	0xba5ff366	-0.0008543044
142	0x3adaf676	0.0016705531
143	0xba9c3bf4	-0.0011919723
144	0xb9e18278	-0.0004301255
145	0xbad10735	-0.0015947582
146	0x3b053b2a	0.0020329454
147	0x3b144497	0.002262389
148	0x3b0ca0cf	0.0021458154
149	0xbb0011e4	-0.0019541914
150	0xba7cd511	-0.00096447865
151	0xba9974b6	-0.0011707756
152	0x3b06452f	0.0020488014
153	0xb9b81d7f	-0.0003511719
154	0xbb162b8c	-0.002291414
155	0xb96f5f74	-0.00022828375
156	0x3a21be0f	0.00061699835
157	0x3b04d899	0.0020270704
158	0xbaa41067	-0.0012517095
159	0x3abdc6fb	0.0014478856
160	0xb944b449	-0.00018759178
161	0xba61b66f	-0.00086102536
162	0xbaf56804	-0.0018723016
163	0x3a5b5750	0.00083671976
164	0xba718772	-0.00092136033
165	0x3a59f03a	0.00083136896
166	0xbb0bedc5	-0.0021351438
167	0xbaec3c42	-0.0018023329
168	0xbac032c8	-0.0014663571
169	0x3a14bf38	0.0005674246
170	0x3aa69395	0.0012708778
171	0xbaa9af0e	-0.0012945847
172	0x3b13105a	0.0022440166
173	0xbaef9ef8	-0.0018281629
174	0xbaf9e5e5	-0.0019065706
175	0xbad05c87	-0.0015896716
176	0xbae507ca	-0.0017473635
177	0x3b0a2db7	0.0021084377
178	0xb8da4c0f	-0.00010409217
179	0xba3019cd	-0.0006717712
180	0xbab95c3f	-0.0014141871
181	0x3ae5759a	0.0017506361
182	0x3a2fb1b5	0.00067022006
183	0x3b061767	0.0020460726
184	0xba7a66cf	-0.0009552063
185	0x3a9b30db	0.0011840122
186	0xbad90f77	-0.0016560395
187	0xb9ff221e	-0.0004866281
188	0xbb141e0b	-0.0022600915
189	0xbb1931fd	-0.0023375743
190	0xb745cec9	-1.1790261e-05
191	0x399aa7c8	0.00029498176
192	0x3aafef9d	0.0013422851
193	0x3a087610	0.0005205581
194	0x3a9540da	0.0011387125
195	0x3ad91ee3	0.0016564991
196	0xbab778cd	-0.0013997793
197	0x39bffb95	0.00036617802
198	0xbad77ab7	-0.001643977
199	0x3a89a1f4	0.0010500536
200	0x3b1aa59c	0.0023597246
201	0xba6a6780	-0.00089418143
202	0x3a45c1ac	0.0007543813
203	0xba2dfedd	-0.0006637404
204	0xbaf964d6	-0.0019027244
205	0xba151918	-0.0005687638
206	0x3b103234	0.002200258
207	0xbad3384c	-0.00161148
208	0xb9d5eaa9	-0.0004080136
209	0xbad6ff92	-0.001640307
210	0x3add1374	0.0016866759
211	0xbad59534	-0.0016295076
212	0xbb0ea2ec	-0.002176459
213	0xbaf5b050	-0.0018744562
214	0x3b14bf5f	0.0022697074
215	0xba3e1c7f	-0.0007252171
216	0xbafa40ee	-0.0019092837
217	0x3af6d074	0.0018830434
218	0x3b18e3a9	0.0023329055
219	0xbb06c8d2	-0.0020566476
220	0xbaba2811	-0.0014202615
221	0xba01da8c	-0.00049535255
222	0x3ae1735f	0.0017200521
223	0xb9a66fd5	-0.0003174531
224	0xbab407ce	-0.0013735236
225	0xbad89951	-0.0016525184
226	0x3a48f39b	0.00076656946
227	0x3b025b73	0.0019890934
228	0x3b2797b7	0.0025572607
229	0xba4a53a0	-0.00077181496
230	0x3aeb9470	0.0017973315
231	0x3a4fe60e	0.0007930704
232	0xbb0c9d0d	-0.0021455914
233	0x3ad16d10	0.0015977938
234	0xbb16376d	-0.002292122
235	0x3aa16dde	0.0012316068
236	0x3a47f52d	0.00076277816
237	0xbafa27e9	-0.001908538
238	0xbaf493b7	-0.0018659745
239	0x3b22f023	0.002486237
240	0x391208c4	0.0001392691
241	0xbab72493	-0.0013972692
242	0xba313802	-0.000676036
243	0x3b0d51af	0.002156358
244	0x3a2ad00e	0.0006515988
245	0xb8cada11	-9.6727286e-05
246	0xb9b362f5	-0.0003421527
247	0xbb040aa9	-0.0020147956
248	0xbb003fc7	-0.0019569264
249	0xbaa25009	-0.0012383471
250	0x3afc3cc5	0.0019244185
251	0xbaed70f4	-0.0018115328
252	0xb8f976ad	-0.0001189535
253	0x3b21fa82	0.0024715965
254	0x3ade6e70	0.0016970169
255	0xba849a54	-0.0010116794

action_model._continuous_distribution.log_sigma f4 [1, 2]
0	0x3ba5b592	0.0050570453
1	0x3b83cfde	0.0040225824

action_model._continuous_distribution.mu.weight f4 [2, 256]
0	0x3c8f526c	0.017495357
1	0xbc74328b	-0.0149046285
2	0xbade482c	-0.0016958765
3	0x3ce26250	0.02763477
4	0x3b88dd59	0.0041767773
5	0xbc49e8e9	-0.0123235965
6	0x3bc4b433	0.0060029267
7	0xbc28946a	-0.010289291
8	0xbb0affd3	-0.0021209612
9	0xbc6ac904	-0.014330152
10	0xbc6fbd4d	-0.014632535
11	0x3c12f0c5	0.008968537
12	0x3c86caa8	0.016454056
13	0xbcf270bb	-0.02959477
14	0x3c61bcc1	0.013777913
15	0x3cbec013	0.023284947
16	0xbbc3d0de	-0.0059758266
17	0x3c4b27ee	0.012399657
18	0x3caef1d5	0.021355549
19	0x3cb3412f	0.021881668
20	0x3c0b7b3b	0.008513267
21	0x3bc60e99	0.0060442206
22	0xbcbb0ea4	-0.02283413
23	0xbb2df8a2	-0.0026545902
24	0x3bd05eab	0.0063589416
25	0xbac6660a	-0.0015136611
26	0xb9e03fe9	-0.00042772226
27	0x3b938c93	0.0045028417
28	0x3c6c3051	0.014415816
29	0xb93ce12e	-0.00018012963
30	0x3c4c9e26	0.012488877
31	0xbc15c116	-0.009140274
32	0x3b66d9c2	0.0035225009
33	0x3bf6a7ea	0.007527341
34	0x3b3a9310	0.0028469004
35	0xbb59f9a3	-0.0033260367
36	0x3ac631ee	0.0015121081
37	0xbafb8f42	-0.0019192474
38	0xbca72d19	-0.020407246
39	0x3cb32f89	0.021873252
40	0xbaebe02c	-0.0017995886
41	0xbb5a31ad	-0.003329377
42	0xbc0a504b	-0.008441995
43	0x3c454487	0.012040264
44	0x3aeaf9c8	0.0017927224
45	0xbcf19621	-0.029490532
46	0xba213f08	-0.0006151055
47	0xbca74d79	-0.020422684
48	0xbbb31f8b	-0.0054664067
49	0x3c32adb7	0.010905675
50	0x3c009bbe	0.007849632
51	0x3bc5e77d	0.0060395584
52	0xbc515672	-0.012776958
53	0xbb62b33a	-0.003459169
54	0xbc04a06e	-0.00809489
55	0x3b65374a	0.0034975582
56	0xbb5cd667	-0.003369713
57	0x3bc6d572	0.006067925
58	0x3c093a4c	0.008375715
59	0x3bdf5453	0.006815472
60	0x3c47a6c1	0.012185753
61	0x3bb267b7	0.0054444927
62	0x3ac6afcd	0.0015158594
63	0x3cb2d4ce	0.021829989
64	0x3b001f0c	0.0019549755
65	0x3c85b10b	0.016319772
66	0x3c81efbc	0.015861385
67	0x3c711866	0.01471529
68	0x3ce023dd	0.027360851
69	0x3ca7ba0a	0.020474453
70	0x3cc05cda	0.023481775
71	0xbcf5c939	-0.030003177
72	0x3b39ec48	0.0028369594
73	0xbce6cefb	-0.028174868
74	0xbc3285d0	-0.010896161
75	0x38b7650c	8.7449414e-05
76	0xbc6b478e	-0.014360322
77	0x3cce92e7	0.025216533
78	0x3c664f37	0.014056972
79	0xbba1d34b	-0.004938518
80	0x3a31dfe9	0.00067853794
81	0xbc134513	-0.008988637
82	0x3a5f5250	0.00085190404
83	0x3b85cee6	0.004083502
84	0xbc8ff21d	-0.017571503
85	0x3ca6ce73	0.020362115
86	0xb9d69125	-0.00040925402
87	0xbb159066	-0.0022821664
88	0xbc3e07aa	-0.011598507
89	0x3c654540	0.013993561
90	0x3b0fa966	0.0021921038
91	0x3c4489bb	0.011995728
92	0xbc364e49	-0.011127063
93	0x3ba97a3b	0.0051720417
94	0xbaa2f5b1	-0.0012432841
95	0xbcff133b	-0.0311371
96	0x3c00725d	0.007839766
97	0x3c82d483	0.015970474
98	0x3b29de05	0.0025919687
99	0xbc5e60d5	-0.013572891
100	0x3b605b12	0.003423397
101	0x3c57aaab	0.013163249
102	0x3a467101	0.00075699395
103	0x3ca2fa1d	0.019894654
104	0xbb79747f	-0.0038063822
105	0x3c11deea	0.0089032445
106	0xbc14c261	-0.009079547
107	0xbc3c39cd	-0.01148839
108	0xbb9016db	-0.004397256
109	0xbc95e7f5	-0.018299082
110	0xbcda5a91	-0.026654514
111	0x3a351733	0.0006908059
112	0x3c1e44bc	0.009659942
113	0xbc9fb7bd	-0.019496793
114	0x3d039816	0.032127462
115	0x3cb1cf1b	0.0217052
116	0xbbb5937e	-0.005541264
117	0x3c27f07f	0.01025021
118	0x3c916eb7	0.017752988
119	0xbc25d6cb	-0.010122011
120	0xbb1c1fa1	-0.0023822563
121	0x3cc4a9ce	0.02400675
122	0xbcb8561b	-0.022501996
123	0xbc463c28	-0.012099303
124	0x3b8b78b8	0.004256334
125	0x3c3e48d5	0.011614044
126	0x3b396c7d	0.0028293424
127	0xbc0ba8db	-0.008524145
128	0x3c00987c	0.007848855
129	0x3bfd58e0	0.007731542
130	0x3c1ac429	0.009446182
131	0xbb38c9a3	-0.0028196357
132	0xbc1fb437	-0.009747556
133	0xbc3b44f2	-0.011430012
134	0x3c6b8704	0.014375452
135	0x3b6ef8b2	0.0036464152
136	0xb9c7517f	-0.00038016957
137	0xbc9fade5	-0.019492099
138	0xbbf664db	-0.007519347
139	0x3c3041ca	0.010757873
140	0x3bff95ea	0.0077998536
141	0xbcaae578	-0.020861372
142	0x3c09db92	0.008414166
143	0xbbe61aa5	-0.0070222192
144	0x3af42915	0.0018627966
145	0xbb17f2e5	-0.0023185548
146	0x3cf66eff	0.030082224
147	0x3c439b4c	0.011938881
148	0x3b8de88b	0.0043307
149	0xbc2f837f	-0.010712503
150	0x3ad61e64	0.0016335961
151	0xba59cbc8	-0.0008308259
152	0x3c331d20	0.010932237
153	0x3bad6fcf	0.0052928696
154	0xbb98ae5f	-0.0046594585
155	0xbc2c90e9	-0.010532596
156	0xbb5e98ef	-0.0033965667
157	0x3c22a572	0.009927141
158	0xbb1e68f0	-0.0024171434
159	0x3c651a0c	0.013983261
160	0x3c151250	0.009098604
161	0x3aeaf12f	0.0017924662
162	0xbb9925c2	-0.0046736905
163	0xbaad9b23	-0.0013245087
164	0xbbac942c	-0.005266687
165	0xbb6a55eb	-0.0035756778
166	0xbbed6a91	-0.0072453697
167	0xbc00f171	-0.007870064
168	0xbc13f001	-0.009029389
169	0x3c6347a1	0.013872058
170	0x3c364fb0	0.011127397
171	0xbb05c100	-0.0020409226
172	0x3c5d062c	0.013490241
173	0xbc2db790	-0.010602847
174	0xbbc66430	-0.0060544237
175	0xbc0af8d8	-0.008482181
176	0xbb0e86c4	-0.0021747807
177	0x3c703969	0.014662125
178	0xbbaf2cdf	-0.005345925
179	0xbbe2e5fb	-0.0069243885
180	0xbb2f9057	-0.0026788914
181	0x3b51cdd4	0.0032013552
182	0xbb8eccb9	-0.004357901
183	0x3c6734b4	0.0141116865
184	0xbcce6c65	-0.02519817
185	0xb9e1f09e	-0.00043094618
186	0xbbd4c757	-0.0064934897
187	0x3b906bee	0.0044073975
188	0xbbc752a7	-0.006082851
189	0xbc803aa2	-0.015652958
190	0xbc5ac471	-0.013352499
191	0xbb924bf0	-0.004464619
192	0x3c82423c	0.015900724
193	0x3acb12c1	0.001549326
194	0x3c45a973	0.012064326
195	0x3cc7cff4	0.024391152
196	0xbcf6822d	-0.03009137
197	0x3c1b92b6	0.009495428
198	0xbba83316	-0.005133043
199	0x3b3fc0f2	0.0029259291
200	0x3c416216	0.011803171
201	0xbcba8724	-0.022769518
202	0xba00d00c	-0.0004913814
203	0x3aca38c1	0.0015428291
204	0xbbbd3b21	-0.005774871
205	0x3aaa806a	0.0013008241
206	0x3c6a8131	0.014313028
207	0xbb540cc1	-0.0032356235
208	0xbc589d8a	-0.013221154
209	0xbbbd4b7d	-0.005776821
210	0x3b4facd5	0.003168871
211	0xbc004536	-0.007829001
212	0xbc54c663	-0.012986752
213	0xbb8fd2e3	-0.0043891533
214	0x3aab90d5	0.0013089428
215	0xbbba8810	-0.0056924894
216	0xbc90c581	-0.017672302
217	0x3b800842	0.0039072344
218	0x3c07056f	0.008241042
219	0xbc48208c	-0.012214791
220	0xbb3eda3b	-0.0029121775
221	0xbbd138ee	-0.0063849604
222	0x3cd2af1a	0.02571826
223	0x3b092000	0.0020923615
224	0xbc994d7c	-0.018713705
225	0xbc10cf79	-0.008838528
226	0x3c53490b	0.012895833
227	0x3c8362d9	0.016038345
228	0x3c45ba98	0.012068413
229	0xbca530f1	-0.020164939
230	0x3cec0803	0.028812414
231	0xbc387ba3	-0.011259946
232	0xbba2fb47	-0.0049738022
233	0x3b2daac8	0.0026499499
234	0xbce2a64e	-0.02766719
235	0x3c276bcd	0.010218573
236	0xba392203	-0.0007062258
237	0xbc815b9b	-0.015790751
238	0xbbf4020c	-0.007446533
239	0x3c222751	0.009897069
240	0x3b66102a	0.003510485
241	0xbbf62818	-0.0075121038
242	0xbc24e553	-0.010064441
243	0x3c08cedc	0.0083501
244	0xba755219	-0.0009358242
245	0xbb8a9890	-0.0042296126
246	0xbb4ae958	-0.0030961838
247	0xbc0386c1	-0.008027733
248	0xbc9acc91	-0.018896373
249	0x3b279e39	0.0025576486
250	0x3bfa92b2	0.007646882
251	0xbbd9f775	-0.0066518136
252	0x3aa6042d	0.0012666039
253	0x3c96415e	0.018341716
254	0x3b782865	0.0037865874
255	0xba203d6e	-0.00061126694

action_model._continuous_distribution.mu.bias f4 [2]
0	0x3afd3392	0.0019317737
1	0x3a93d6b3	0.0011279195

54 f4 [14]
0	0x3c8a1de6	0.01685996
1	0x3c6be2b1	0.014397309
2	0x3e8bcebf	0.27306172
3	0x3bae925b	0.0053275055
4	0x3ba4bbbf	0.005027264
5	0x41d4bf52	26.593418
6	0x3ba8fa85	0.0051568174
7	0x3d61e178	0.055146664
8	0x3e01042d	0.12599249
9	0x39f8332b	0.0004734037
10	0x3d8f51c1	0.06998015
11	0x3d37c455	0.04486497
12	0x3e9abfa5	0.30224338
13	0x3b0d43f0	0.0021555386
