rrs_unity/Assets/Models/POURNET-LSTM.onnx (onnx, 546483 bytes, 11 tensors)

network_body.observation_encoder.processors.0.normalizer.running_mean f4 [14]
000000 a0 0d d8 3d aa 92 d0 3d 86 e7 9f 3f 53 8d 47 3c
       0.10549474 0.10184224 1.249253 0.01217969
000010 0d 5f 47 3c 0d 50 7d 42 bd ab 49 3c 17 1e 25 3e
       0.012168658 63.328175 0.012309012 0.1612476
000020 d7 cf 66 3e e2 98 90 38 cc 15 41 3d 3f c0 fb 3c
       0.22540222 6.894932e-05 0.047139928 0.030731319
000030 7d 3f 27 3e 29 2d fd 3b
       0.16332813 0.007726331

network_body._body_endoder.seq_layers.0.weight f4 [256, 14]
000000 e5 81 26 be c6 d9 d0 be b0 0c d0 be 4e cc 30 3e
       -0.16260488 -0.40791148 -0.4063468 0.17265436
000010 da f9 81 3c 10 c9 9f 3d 25 01 99 be ee 8c 13 3e
       0.015866209 0.078020215 -0.29883686 0.14409229
000020 cb db b3 be 13 9e 88 3c 6c 98 11 3e c3 c2 8f bd
       -0.35128626 0.016676938 0.142183 -0.0701957
000030 25 0a e4 be 2c ed 11 3f d4 6a 77 3e f7 a0 3f 3e
       -0.4453899 0.5700252 0.24161845 0.18713747
000040 68 17 b0 bd 4f 7e a6 be db 39 c1 bd 8f cc 08 bd
       -0.085982144 -0.3251824 -0.09434863 -0.033398207
000050 1f e5 4a be bd 33 95 be c7 de bc bd a5 3c 22 3f
       -0.19813965 -0.29141036 -0.09222179 0.63373786
000060 2f e1 28 be 43 17 ae 3b fa 0f be bd dd d5 02 bf
       -0.1649215 0.0053128316 -0.09280391 -0.5110758
000070 27 ad df 3d d1 32 97 3c 81 e2 14 3e 5a 03 23 3e
       0.10921698 0.018456848 0.1453953 0.15919247
000080 1b e7 93 be d2 f3 1a be 70 69 c1 be 55 97 bd be
       -0.28887257 -0.15132073 -0.37775755 -0.3702952
000090 6c 9b 89 bd c1 6e d7 bd 0f f1 c6 bc 27 ef c1 3e
       -0.067190975 -0.105191715 -0.024284868 0.3787777
0000a0 5d 84 ef be 17 d4 2c 3f 10 03 8f 3e 81 96 7d 3e
       -0.46780673 0.67511123 0.27932024 0.24764444
0000b0 59 d8 7a 3c a3 f1 09 be c1 8f 0f 3d a7 03 eb be
       0.01531037 -0.13471083 0.035049204 -0.45901224
0000c0 77 52 cb 3e 86 13 83 3e 2b 2c 8b be 72 37 b5 3e
       0.39711353 0.25600833 -0.27182135 0.35393864
0000d0 3e e5 88 3d 2a 02 5f 3e 4f ef 02 bf 39 75 a4 3d
       0.066843495 0.2177817 -0.51146406 0.08030171
0000e0 79 32 82 be 8e 29 e9 bc c2 f6 37 bf 9a 1f 19 3e
       -0.25429133 -0.028462198 -0.718609 0.14953461
0000f0 89 f3 f7 bd 24 e1 12 3e 22 0e 42 be d3 9a b3 be
       -0.121069975 0.14343697 -0.18950704 -0.3507906
000100 4a 32 f5 3d 2e bf bf 3d 5b 52 28 bf 26 c0 92 bd
       0.119724825 0.093626365 -0.65750664 -0.07165556
000110 5d 39 6b 3e 07 8d 51 be 71 4b b1 be 1c a2 18 3e
       0.22971101 -0.20463954 -0.3462787 0.1490559
000120 83 6d 9e 3e 1d a0 4a be c0 91 04 bf 50 35 25 be
       0.30942926 -0.19787641 -0.51784897 -0.16133618
000130 24 15 74 3e 29 e0 a5 be 5b 63 67 3e 8c f1 9a 3c
       0.2383619 -0.32397583 0.22596495 0.018914007
000140 c2 4e 71 be 54 d0 ec 3d f1 57 0f 3f 28 a5 e4 bd
       -0.235652 0.11563173 0.5599356 -0.111643136
000150 00 48 5b 3c 0b 98 24 3f b2 53 a0 bd a7 2e 32 3e
       0.013383865 0.642945 -0.078284636 0.17400609
000160 a8 1b 44 3e 0e 74 fa bc d0 b7 f3 bc c9 bb aa bc
       0.19151175 -0.030572917 -0.029750735 -0.020841496
000170 7d 32 bc 3e 77 23 8b 3e 59 0d c6 3e f9 7e 5e be
       0.3675727 0.27175495 0.38682058 -0.21728124
000180 80 7d 0c bf 4a a1 44 be 3e 10 88 3d 36 88 8d 3e
       -0.54879 -0.19202152 0.06643723 0.27642983
000190 3b 9e f1 3c 6a b6 ed bd 11 d9 84 3e ac 79 90 3e
       0.029494395 -0.11607058 0.2594686 0.28217828
0001a0 7c ca 6d 3e f4 58 b5 bd 8d c2 f0 bd 33 13 be 3e
       0.23221773 -0.08854857 -0.117558576 0.37124023
0001b0 4d 5c 3a 3e 09 07 38 bd ec c4 41 3d 84 c0 9c 3d
       0.18199272 -0.044928584 0.04730694 0.07653907
0001c0 a3 e4 9f be e8 4b 26 bf 2c 3f 91 3d ab 6c 91 3e
       -0.31229123 -0.64959574 0.07092127 0.2840322
0001d0 0b d7 be be 68 53 96 bd 80 c6 37 be 41 71 92 be
       -0.3727344 -0.07340127 -0.17946815 -0.2860203
0001e0 74 b7 9e be 8d 18 b0 ba 12 d0 8e bd 6d 32 10 be
       -0.3099934 -0.0013435051 -0.0697328 -0.14081736
0001f0 f9 34 83 be 10 a2 e2 3d 0e f5 15 3d 65 4d 9a 3c
       -0.25626352 0.11066067 0.036610655 0.018835733
000200 7d 09 05 be 7a df 07 bd 19 11 f7 bd 77 b5 4d be
       -0.129919 -0.03317211 -0.12063808 -0.20088755
000210 27 d8 74 3e b9 c9 2b 3d 74 98 d8 bd 0e ee 66 3e
       0.2391058 0.041940425 -0.10575953 0.22551748
000220 46 4d 8d be 62 62 79 bd 3d 81 5c 3e 47 05 2a 3d
       -0.27598017 -0.06088484 0.21533675 0.04150894
000230 23 63 a4 be 99 99 1a 3f 66 41 5f 3d 04 f5 1b 3f
       -0.32106885 0.6039062 0.05450573 0.6092074
000240 5f aa bf 3e f5 36 ae 3d 4a c9 da bd 40 65 1f bd
       0.3743467 0.08506576 -0.10682924 -0.03891492
000250 87 20 b4 bc d5 5e ac 3e 67 ff c8 3e 04 4e 5d be
       -0.021988166 0.336661 0.39257357 -0.21611792
000260 a8 6d 7d 3e 9d 01 23 3e 28 6e 3a be e4 15 23 bf
       0.24748862 0.15918584 -0.18206084 -0.6370528
000270 40 0b 9f bd 05 63 00 3e ca 60 7b be 4c a1 23 bf
       -0.07765818 0.12537773 -0.24548641 -0.63917994
000280 90 88 1b 3e 8d 0b 12 3e 3e 8a 1f be bd 0f 97 3e
       0.15188813 0.14262219 -0.15580079 0.29504195
000290 ad 9e 35 bc 36 41 4a bd ae 78 ce 3b 94 5f 34 bd
       -0.011085195 -0.049378596 0.0063010072 -0.044036463
0002a0 4e 2a ca 3d 91 82 7b 3d aa 67 85 bc 9e 63 b3 be
       0.0987135 0.061403815 -0.016284782 -0.3503694
0002b0 d6 c9 4c bc eb c9 44 bd d4 63 ac be 58 de 21 be
       -0.012499293 -0.048044126 -0.33669913 -0.15807474
0002c0 e3 39 d0 3d e9 97 93 3c e8 a4 ad bd 0a d8 68 bd
       0.10167291 0.018016772 -0.08478719 -0.056846656
0002d0 e9 bf 35 3e c5 46 97 3e be 5c 82 3e 6d 77 eb bd
       0.17748989 0.2954618 0.25461382 -0.11497388
0002e0 b3 4a 73 bd ec fa 9f 3e 67 b8 47 3e 5f 6a 23 3e
       -0.05939741 0.31246126 0.19503938 0.15958546
0002f0 33 67 75 be 29 78 e2 3d f1 3e b3 be fa 10 3c 3e
       -0.23965149 0.11058075 -0.35008958 0.18365851
000300 be 9a e4 3d 15 0d 8c 3e 36 dc a2 bd c0 66 a7 bd
       0.11162327 0.2735373 -0.07952158 -0.08173895
000310 3a b6 2f bf 66 28 14 bf 75 42 d5 3d ca 5e 94 3e
       -0.6863743 -0.57874143 0.10413066 0.28978568
000320 b7 90 cd 3d ca 0a d8 bc ef 0e 07 be aa a5 d4 3e
       0.10037368 -0.026372332 -0.1318929 0.41532642
000330 65 ca ab 3e b5 21 1c 3e 09 39 6e be 96 7f a7 3e
       0.33552852 0.15247233 -0.23263945 0.32714528
000340 3c c6 19 3e aa 20 44 be 7f 8f 7f be b1 7a a0 3e
       0.15017027 -0.19153085 -0.24957083 0.31343606
000350 b6 41 42 be 34 fa 0c 3e 0f ca 8b 3e ad 7b 17 bd
       -0.18970379 0.1376732 0.27302596 -0.03698318
000360 fe dd b3 3e a6 e4 2a 3d d8 87 27 be 19 25 13 bc
       0.35130304 0.041721962 -0.16360414 -0.008981013
000370 69 d9 e8 3e 39 d7 e0 be 38 aa 3e 3b c1 74 21 3f
       0.4547837 -0.43914202 0.0029093158 0.6306878
000380 99 95 49 3e 08 21 57 be 46 0e b3 3d 30 46 46 bd
       0.19685973 -0.21008694 0.08742957 -0.04840678
000390 7e 1d b5 be 32 4c c9 bd c2 dd 9e bd d8 63 60 be
       -0.35374063 -0.09828986 -0.07757141 -0.21913087
0003a0 23 36 56 bd 52 22 62 3e 10 71 b6 3d 6d f3 9c bd
       -0.052297723 0.22083405 0.08908284 -0.07663617
0003b0 95 f6 c9 3d 4b be c2 bd f3 f3 ed 3d 8c ea ab 3e
       0.09861485 -0.09508952 0.11618795 0.33577383
0003c0 94 ff 78 bb 87 2b 4d 3c b8 4a 16 3f 35 e2 94 bd
       -0.0037994133 0.012522585 0.5870776 -0.07269708
0003d0 45 81 81 bd f3 a4 23 bd ee 7e a7 bd 8e c4 8e bc
       -0.06323484 -0.03995223 -0.08178507 -0.017427709
0003e0 5a 9a 98 be 02 5d c6 3e 11 f1 c5 be a6 13 9b be
       -0.2980526 0.38742834 -0.38660482 -0.30288428
0003f0 d1 65 33 bd 2c a0 85 be 04 3a 7e 3e 1b 60 59 3e
       -0.04379827 -0.26098764 0.24826819 0.21228068

network_body._body_endoder.seq_layers.0.bias f4 [256]
000000 3c 5b 0c bb 78 f8 e9 39 47 4c 64 3a 96 f0 f2 3a
       -0.0021416685 0.00044626347 0.0008708876 0.0018534835
000010 dd d4 f4 3a ac d0 f2 ba 3b 88 9f 3a c0 53 11 bb
       0.0018679161 -0.0018525324 0.0012171337 -0.0022175163
000020 bc 5c 8f 39 9e a6 01 ba 3d cb 3f 3b 06 25 8b ba
       0.00027344178 -0.00049457874 0.0029265427 -0.0010615892
000030 75 b8 30 b9 b3 31 cf ba 46 e3 93 3a db 94 02 3b
       -0.00016853384 -0.0015807658 0.0011282943 0.001992515
000040 d5 d6 b3 ba d3 02 30 3b b0 48 4d bb c8 52 d9 38
       -0.0013720641 0.0026857152 -0.0031323843 0.000103627855
000050 19 9e 45 ba 45 c0 79 3a 00 26 50 ba a9 ea 84 38
       -0.0007538512 0.00095272466 -0.0007940233 6.337959e-05
000060 f7 21 04 3b 1b ee 79 ba c9 1a 65 ba b9 7b 44 bb
       0.0020161846 -0.00095340767 -0.0008739648 -0.002998097
000070 44 bb 39 3b e3 2e 70 ba dd b5 14 bb d8 66 21 3b
       0.0028340379 -0.000916226 -0.0022691407 0.002462795
000080 cd 7d cc ba c6 54 ec 3a 38 0e 7c ba 40 90 e0 3a
       -0.0015601456 0.0018030636 -0.0009615156 0.0017132834
000090 43 69 40 3b 25 6f 8e ba 00 f1 5f b9 54 f1 03 bb
       0.0029359616 -0.0010866864 -0.00021356717 -0.0020132856
0000a0 31 16 ae 3a 75 5a af 3a 6f d6 f4 3a f0 fd 9a 39
       0.001328176 0.0013378399 0.0018679629 0.00029562367
0000b0 0e d0 c1 3a 20 fe b5 ba 18 f8 db 39 db 38 e8 b8
       0.0014786737 -0.0013884939 0.0004195578 -0.00011073212
0000c0 24 d4 0f 3b 57 0d 23 ba 6d 22 87 b8 df 31 f9 b9
       0.0021946514 -0.00062199443 -6.443714e-05 -0.00047530138
0000d0 d2 fa 14 3b 3b 30 c2 3a ca de cd ba 68 8e a0 ba
       0.0022732508 0.0014815399 -0.0015706655 -0.0012249472
0000e0 33 f7 e7 3a 81 d9 29 bb de b0 c2 b8 b3 47 73 3a
       0.0017697572 -0.0025916996 -9.283585e-05 0.00092803984
0000f0 c6 1a b8 39 12 3a 89 b8 23 a3 c7 ba a8 1b 12 3a
       0.00035115163 -6.5434855e-05 -0.0015231114 0.0005573579
000100 f1 2c 0d 3b 96 c7 98 ba f7 fc 9a b9 48 0c e8 ba
       0.002154168 -0.0011656161 -0.00029561642 -0.0017703855
000110 86 c0 b4 3a 4f a5 15 3b d4 b8 25 3b 67 33 5b bb
       0.0013790287 0.0022834127 0.0025287168 -0.0033447386
000120 53 97 97 ba c1 41 07 3a 89 4c 9b 3a 05 8f 1d bb
       -0.0011565484 0.00051596394 0.0011848371 -0.0024041545
000130 33 19 a6 3a 50 c0 0f ba b5 e1 a7 ba 52 ee ba 3a
       0.0012672305 -0.0005483674 -0.0012808355 0.0014261699
000140 fd 6f b4 3a c3 f5 0c 3b 96 56 a4 ba 48 fe 3d 3a
       0.0013766285 0.002150879 -0.0012538012 0.00072476687
000150 8d 62 99 ba 05 86 97 ba 41 be d0 ba c6 47 12 bb
       -0.0011702344 -0.0011560327 -0.0015925841 -0.0022320612
000160 6e 29 75 3a a2 8c 01 3a 3f 87 10 3b 4b 5f 2f 3b
       0.0009352182 0.00049419154 0.002205327 0.002675968
000170 79 9b 25 ba f6 3f 27 3b e4 d9 73 b9 de d1 00 bb
       -0.0006317418 0.0025520301 -0.00023255456 -0.001965634
000180 83 c3 5f 38 99 4d d8 b7 6d d6 66 3b f6 af a2 3a
       5.3349428e-05 -2.578534e-05 0.0035223023 0.001241206
000190 4c 7a 86 ba 03 17 35 3b 56 ed 76 39 42 af ba 3a
       -0.0010259836 0.0027632124 0.00023548803 0.0014242905
0001a0 c4 0b 09 3b 27 26 07 3b 95 13 1f ba 6c 3e b5 3a
       0.0020911554 0.0020622106 -0.00060682866 0.0013827807
0001b0 26 f5 94 3a fa 26 38 3b 71 39 e1 3a 89 3d c7 3a
       0.0011364564 0.0028099404 0.0017183257 0.0015200834
0001c0 4e 6b 10 3a ab 1d 1f 3b 60 b7 05 3b 0a 16 95 ba
       0.00055091537 0.0024279158 0.002040349 -0.0011374366
0001d0 e1 2a 1a 3a ab 30 09 ba 93 ef 6a ba fc ff a2 ba
       0.0005881023 -0.00052333873 -0.0008962091 -0.0012435908
0001e0 3c 8b dc ba aa 29 2c 3b d6 16 22 3a dc a0 1b 3a
       -0.0016826163 0.002626995 0.00061832124 0.00059367507
0001f0 1f 39 ca ba 8f 6b 19 3b 75 0b 88 ba 25 b1 0e bb
       -0.00154284 0.0023410057 -0.0010379391 -0.0021773067
000200 2c ba 0b 3b 69 0b 10 b9 4b 92 50 bb f9 17 07 bb
       0.0021320684 -0.00013737161 -0.0031825479 -0.0020613654
000210 97 17 d3 3a d6 43 ea ba e5 22 4d ba 11 c1 07 3b
       0.0016105053 -0.0017873 -0.0007825329 0.0020714442
000220 19 30 b5 3a 9a dd 1d 3a c7 af b0 ba 75 d2 de 3a
       0.0013823538 0.0006022096 -0.001348012 0.0016999977
000230 59 c7 30 3a 86 dc 50 3b dd fe ef 3a 78 43 49 3a
       0.00067435723 0.0031869723 0.0018310208 0.0007677595
000240 62 4c 27 3b 2c b7 84 b9 9f f9 65 3a 46 7d 9e 3a
       0.0025527705 -0.00025313476 0.0008772853 0.0012091778
000250 5f f8 cd 3a 49 61 db 3a c8 7b 58 3a 16 2a 60 3a
       0.0015714279 0.0016737367 0.0008258191 0.0008551193
000260 53 ee 07 3b 2d 9b 65 ba dc d4 49 39 2a 92 77 ba
       0.0020741418 -0.000875878 0.0001924815 -0.00094440824
000270 86 72 73 3a ce 79 eb ba 64 54 11 39 fa 7f 11 39
       0.00092867797 -0.0017965378 0.00013859716 0.00013875953
000280 99 0b 86 3a 92 c0 00 3b 22 56 38 bb 17 86 a6 b9
       0.0010226845 0.001964603 -0.002812751 -0.00031761892
000290 5c 6c eb ba 5f 14 05 bb ea cc 51 3b 26 61 06 bb
       -0.0017961371 -0.0020306332 0.0032013007 -0.0020504682
0002a0 6a 62 dc ba 97 3a 0f 3b f4 55 e5 3a 11 b2 cd 37
       -0.0016813998 0.002185499 0.001749693 2.4520823e-05
0002b0 f1 79 4b ba 1a 02 8c 3a 35 1a ff 3a ba 20 c8 3a
       -0.0007762006 0.0010681779 0.0019462766 0.0015268542
0002c0 52 f7 c5 3a 15 25 a1 3a a7 9b 18 3b da b5 f8 3a
       0.0015103614 0.0012294377 0.0023286135 0.0018975094
0002d0 02 61 eb 3a c0 89 ec 3a f5 34 1c bb 38 5a ef ba
       0.0017957988 0.0018046424 -0.0023835276 -0.001826114
0002e0 6b 50 a4 ba df b7 c1 b8 fc 6d b2 38 62 bd 02 bb
       -0.0012536173 -9.237206e-05 8.5081876e-05 -0.0019949307
0002f0 72 a5 ac 3a b5 37 8f 38 fa 5d 26 bb a2 ee ae 3a
       0.0013171865 6.8291476e-05 -0.0025385604 0.0013346265
000300 df 70 c6 3a ee 0f 2f 3b 59 fa 3d 3b 32 9f 2d bb
       0.0015139839 0.0026712376 0.002898833 -0.0026492593
000310 8e 17 d8 3a 37 af d0 39 9b c5 49 3b 4f 03 0c bb
       0.0016486512 0.00039803397 0.0030787948 -0.0021364277
000320 41 00 42 3a 6a 56 c5 3a e0 8e a6 3a fc 97 25 3a
       0.00074005505 0.0015055661 0.0012707375 0.0006316898
000330 99 0c 97 3a 05 2a 3f 3b a6 32 04 3b 6f 1a d2 3a
       0.001152414 0.0029169333 0.002017179 0.0016029606
000340 8c e9 53 ba b5 2e dc ba 40 b7 32 bb 91 0f b5 ba
       -0.00080838124 -0.0016798588 -0.002726987 -0.0013813843
000350 bc 05 52 3b 31 f9 b4 ba 0f 7d 52 ba 19 53 32 3b
       0.0032046875 -0.0013807175 -0.00080294994 0.0027210175
000360 ce a5 30 3b 44 91 06 3b 54 3b e9 3a 69 d5 99 ba
       0.0026954296 0.0020533362 0.001779417 -0.0011736575
000370 c0 54 57 b9 70 a1 3d ba 43 a2 2b 3b 38 91 cc 3a
       -0.0002053557 -0.0007233834 0.0026189245 0.0015607243
000380 2e 4c 55 3b f9 e4 8c ba 91 ce de 3a 20 94 ca 3a
       0.0032546627 -0.0010749392 0.0016998817 0.0015455522
000390 a8 c2 43 bb 8b 1f de ba 77 97 5f ba 88 2d 1d 3b
       -0.0029870663 -0.0016946656 -0.0008529345 0.0023983438
0003a0 bf cc ca 3a 13 98 59 bb cb 7f 87 ba 39 15 ab 3a
       0.0015472396 -0.0033202216 -0.0010337768 0.001305259
0003b0 47 4b b5 ba 5f e1 fc ba bd ea 1d 3b 66 e7 11 3b
       -0.0013831638 -0.001929324 0.0024096214 0.0022263168
0003c0 2f 15 02 3b 40 9c 7b ba 04 b4 d7 ba 08 82 cf 3a
       0.0019849052 -0.0009598173 -0.0016456847 0.0015831599
0003d0 4a ad 2a b9 3e 22 18 3b 54 48 ad 3a d3 84 24 38
       -0.00016277019 0.002321377 0.0013220408 3.922435e-05
0003e0 44 ee 42 bb 58 c7 50 3b 8d c4 37 39 48 4a 8f ba
       -0.0029744068 0.00318571 0.00017525461 -0.0010932172
0003f0 a6 2b 5d 3b 47 e8 5a 38 f4 03 e4 3a d0 a3 7b ba
       0.003374794 5.2191575e-05 0.0017396198 -0.00095993

network_body._body_endoder.seq_layers.2.weight f4 [256, 256]
000000 04 09 8f bd 91 c1 8d 3d c9 59 b3 bc 89 59 4d 3d
       -0.069841415 0.069216855 -0.021893399 0.050134216
000010 51 c2 83 3d ec d9 16 3d 68 83 d5 3d d5 5d 1d bd
       0.06433547 0.03682892 0.104254544 -0.038419563
000020 ad 24 11 bd b2 4f 1a 3d 93 c7 bc 3c 97 1e f4 3c
       -0.035435367 0.03767366 0.023044383 0.029799743
000030 27 85 26 be 57 0a 28 bd 6e 65 9b 3d ec 90 47 bd
       -0.16261731 -0.041025486 0.075877056 -0.048722193
000040 3c fc 04 be cb 47 81 3d 9b a0 c5 bd 27 66 93 bd
       -0.12986845 0.063125215 -0.09649774 -0.071972184
000050 c1 cd 69 bd fe b6 4b bc aa e6 bd 3d 73 cf d9 3d
       -0.057080988 -0.012433765 0.09272511 0.10635271
000060 4f 41 cb 3c 4f 0d c0 bd b4 7d 41 bd f9 0d ab bc
       0.024811415 -0.093775384 -0.04723902 -0.020880686
000070 35 32 15 be 77 12 ba 3c 45 aa d2 3c f6 36 e1 bd
       -0.14569934 0.022713883 0.025715956 -0.10996811
000080 3e d5 ca 3d 73 3e 06 3b a8 c8 0f 3c c0 ec ba 3c
       0.09903954 0.0020484 0.0087758675 0.02281797
000090 9f d9 17 bd d1 0f aa bd fa a9 56 bc 15 4e 03 be
       -0.037072774 -0.08303798 -0.013102049 -0.12822755
0000a0 c6 f5 d2 bc f9 52 f4 3a 27 d1 78 bd cf 4e 4c bc
       -0.02575196 0.001864045 -0.06074634 -0.012469961
0000b0 e6 d0 a7 bd 70 7d 54 bb a1 3f 5f 3c dd 28 82 bd
       -0.08194141 -0.00324234 0.01362601 -0.0635545
0000c0 70 e8 ce 3d 5a 1f 1b bc 29 19 16 bc 35 d9 96 3d
       0.10102928 -0.009467924 -0.009161272 0.07365648
0000d0 7f 3e cf bc 14 52 0a 3e cf 34 d5 bd f1 c0 f8 bb
       -0.025298355 0.13507873 -0.10410463 -0.00759136
0000e0 af 21 47 bd 06 d9 9f bd ce e2 a3 3d 51 a1 58 3c
       -0.048616108 -0.07805066 0.08002244 0.013222055
0000f0 18 b7 e4 3c f7 87 f4 3a 4d 57 88 b9 2a 7c 03 bd
       0.027919337 0.0018656243 -0.00026004986 -0.032100834
000100 b1 03 83 3d 03 81 d3 3c 9a 72 72 3c 7c d4 6d 3d
       0.063971885 0.025818354 0.014797831 0.05806397
000110 10 90 fb bc f0 0f 00 bd 73 7a 4b bc 88 f9 5b 3c
       -0.030708343 -0.0312652 -0.012419331 0.013426192
000120 a8 d5 de bb 45 9c 6a bd 3d 7c 21 3c e4 bf d1 bd
       -0.006800372 -0.057277936 0.009856281 -0.10241678
000130 68 ed 28 ba 5b 4a e9 3b b8 78 50 bd 82 0f e1 3c
       -0.00064440677 0.0071194596 -0.050896376 0.027473215
000140 34 26 17 bd 82 d7 fa 3c 4c 0f 8d bd d7 23 ab 3c
       -0.036901668 0.03062034 -0.06887683 0.020891113
000150 2b 6a c9 bb 08 65 11 3d 42 c6 b6 bc f3 35 89 3d
       -0.0061466894 0.03549674 -0.022311334 0.06699743
000160 86 de f3 3b 2d db d3 bd d5 b6 e5 3c 88 b2 56 3d
       0.0074422983 -0.10344539 0.028041283 0.052416354
000170 a9 04 69 bd 8f f6 61 bd 57 94 16 3e f1 6b e1 bb
       -0.05688921 -0.055166777 0.14705025 -0.0068793227
000180 b1 40 29 bd a6 8d 59 3c 37 51 4c 3c b3 7e 23 bd
       -0.04132146 0.0132784005 0.012470535 -0.03991575
000190 4e 0b ab 3d eb 44 0f 3d b7 14 ae 3c 75 6d 7e 3c
       0.083517656 0.034977835 0.021250112 0.015529026
0001a0 46 f1 0f be 22 6a cc bd aa 52 af bc 5b fd 0b bc
       -0.14056882 -0.09981181 -0.021401722 -0.008544291
0001b0 66 ed 3e bd 25 9f 9b bd 6b cc 63 3d ec 39 e6 bc
       -0.04661312 -0.07598714 0.05561487 -0.028103791
0001c0 83 2c c9 bc 46 36 0b 3e d5 fd 2c 3d b5 d5 2f 3d
       -0.024557358 0.13594922 0.04223426 0.042928416
0001d0 52 27 8b bd 09 51 cb bd 51 22 bb 3d 34 18 af 3d
       -0.06794609 -0.099275656 0.09137405 0.08549538
0001e0 d3 6d 84 3d 22 1f 88 bd b5 6d 73 bd fd 6e a9 3c
       0.0646626 -0.06646563 -0.059430797 0.020682806
0001f0 a5 91 19 3d 55 01 9f bc cc 17 e2 bc c0 a6 bd bd
       0.037492413 -0.019409815 -0.027599238 -0.09260321
000200 98 bb 56 3d 99 c0 07 be de bf 6b 3d ec 1a 44 3d
       0.052424997 -0.13257064 0.057556026 0.047877237
000210 3b 3a ba 3c d6 a7 66 bd f4 14 d3 bd 2e 8b b8 3c
       0.022732845 -0.056312405 -0.10306731 0.022527304
000220 20 4e ac 3b 4e 40 9c 3c 20 9a 06 3c d0 ef cb 3d
       0.0052583367 0.019073632 0.008215457 0.0995785
000230 f8 5f bc bc 53 c3 a3 bd 85 40 7c bd 00 fc 87 bd
       -0.02299498 -0.079962395 -0.061584968 -0.06639862
000240 eb ac d7 3a c4 d3 32 bc b6 97 ed ba a0 ec d3 bc
       0.0016454732 -0.010914747 -0.0018126878 -0.025869668
000250 18 b3 84 3d 9b d3 37 3d b7 a6 12 bd 97 e1 23 3a
       0.06479472 0.044879537 -0.035803523 0.0006251572
000260 48 17 11 bd 19 c1 a0 bd 49 32 02 bd d3 47 7e bd
       -0.035422593 -0.078493305 -0.031786237 -0.062080216
000270 43 bd c0 3c 21 2a f8 bd 86 6d 9f 3d 53 5a 11 bd
       0.023527747 -0.121174105 0.07784562 -0.03548653
000280 cf 88 00 3d a3 69 15 3d 1d 85 4b 3d cb a0 99 3d
       0.03138047 0.036477696 0.049687494 0.07501372
000290 71 76 cf bb 44 0c 51 3c 35 55 b5 3d a8 f2 8a 3a
       -0.006331258 0.012759272 0.088541426 0.0010600882
0002a0 7f 50 54 3d 25 33 17 bc 6e 70 d2 3c 6f e2 b8 bd
       0.05183458 -0.009228502 0.025688376 -0.09027564
0002b0 14 cc 34 3d ae 69 94 3d 3f 8d af bc c7 7e dc 3c
       0.044139937 0.07246719 -0.021429656 0.02691592
0002c0 2b 52 3f 3d f4 a1 0a 3d ee f2 3c 3d 34 cc 05 bc
       0.04670922 0.033845857 0.046130113 -0.008166362
0002d0 4b c6 d0 3d ed 84 f4 bc 9a c0 d9 bc be f3 61 3d
       0.101940714 -0.02984854 -0.026581097 0.05516409
0002e0 f5 2c a2 bd 93 77 53 3c bb 6c 92 bd 3a ef 7c bd
       -0.07918731 0.012906927 -0.07149645 -0.06175158
0002f0 f2 62 b2 3d f9 21 f4 bc 58 a7 73 bd 32 7d 4a 3d
       0.087102786 -0.029801356 -0.059485763 0.0494358
000300 d8 c2 57 bc 88 19 c4 bd 89 5b 14 3c 7b 07 23 bd
       -0.013169013 -0.09575182 0.009055027 -0.039802056
000310 f0 fa a8 3b e2 a6 c1 ba f2 c0 94 3d 8f 68 56 bd
       0.005156867 -0.0014774466 0.07263364 -0.05234581
000320 25 a5 bf 3c 41 bd 77 3d 05 76 2c bd f1 75 a6 bc
       0.023394177 0.06048322 -0.04210474 -0.02031991
000330 82 41 01 bd ed ce 16 bc e7 08 35 3d df ae 89 bd
       -0.031556614 -0.009204608 0.044197943 -0.06722807
000340 ca be 01 bd 31 3b 14 3d 60 a9 fa 3c 88 fb 71 3c
       -0.03167609 0.03618926 0.030598342 0.014769442
000350 0c da ed ba 3a b7 59 bc 70 66 44 ba 8a 01 9f bc
       -0.0018146648 -0.0132883135 -0.0007492071 -0.019409914
000360 6e 0c f1 3d 19 25 be bd 8c b5 57 3d 0a 27 fe bc
       0.11769949 -0.092844196 0.05266337 -0.031024475
000370 da d7 55 bd 6e f5 96 3c fa 2f bf bc 38 e5 1c 3e
       -0.052207805 0.018427577 -0.023338307 0.15321815
000380 63 b6 88 3d 89 65 02 be 16 21 f7 3b 4a bf ec bc
       0.066754125 -0.12734045 0.007541786 -0.028899807
000390 85 56 32 3c 7a 4c 2f bd 3a 8e 6e 3c 41 4f df 3c
       0.010884886 -0.042797543 0.014560277 0.02725947
0003a0 0a 7f c6 3b 5f e7 e2 3d e1 0a 63 3c 07 27 59 bd
       0.0060576247 0.11079287 0.013857574 -0.053015735
0003b0 2f ac 01 3d 74 df 3f 3d 13 f3 ee bd 48 57 1d bd
       0.031658348 0.04684396 -0.116674565 -0.038413316
0003c0 0b 42 4f 3d f4 ab aa 3b ee 5d 0a bd c4 9d 68 3c
       0.050600093 0.0052084867 -0.033780985 0.0141977705
0003d0 f5 eb 3d 3d cd b9 d9 bd 52 61 5b bb 6b 3e 76 3d
       0.046367604 -0.10631142 -0.0033474755 0.06011812
0003e0 d9 af d2 3c b6 93 a7 3c b1 4a f5 3d 8c 77 a9 bd
       0.025718616 0.020456176 0.11977137 -0.08274755
0003f0 2f f1 27 3d 53 ef f3 3b 18 25 f8 3d f0 26 c7 bb
       0.041001495 0.007444301 0.1211645 -0.0060776398

network_body._body_endoder.seq_layers.2.bias f4 [256]
000000 1d de 3a 3b 47 02 fd 3a c0 11 e1 39 26 71 34 3b
       0.0028513737 0.0019303047 0.0004292857 0.0027533262
000010 1d 37 ad ba 5f a2 4a ba fd 12 14 bb 33 9a 0a 3b
       -0.0013215278 -0.00077298837 -0.0022594326 0.0021149039
000020 fd 93 f8 3a 09 c8 d3 3a c3 18 00 3a bb fa 3c ba
       0.0018965002 0.0016157638 0.0004886502 -0.00072089926
000030 7e b9 0e bb d2 d0 00 3b 79 53 39 39 0f 04 f9 3a
       -0.0021778042 0.0019655717 0.00017674071 0.0018998402
000040 a5 e0 7f 3a ef 9e 92 3a 5d 3e 92 3a e0 19 1a 3b
       0.00097609527 0.0011186282 0.0011157502 0.0023513958
000050 fd 69 31 3b d7 31 fc ba a7 b1 1a 3b 67 cc ce ba
       0.002707123 -0.0019240928 0.0023604424 -0.0015777469
000060 24 5e a6 39 7e f1 fe 39 90 53 0a 3b f5 bb 27 3b
       0.00031732128 0.0004862658 0.0021106936 0.002559421
000070 74 69 12 3b c9 fd 95 ba d6 8c 4f 3b fe b9 ce 38
       0.0022340687 -0.0011443432 0.0031669638 9.857489e-05
000080 c5 c5 88 ba db 41 c4 b7 e0 83 0e bb 86 ac 18 39
       -0.0010434916 -2.3395687e-05 -0.0021746084 0.0001456012
000090 91 36 91 3a 90 dd 3d 3b 48 1d e4 ba 8b 5b db 3a
       0.0011078884 0.0028971173 -0.0017403746 0.0016735656
0000a0 56 f6 f7 3a 84 d2 d6 b8 69 2b 5a 3a be 09 3f 3b
       0.0018918018 -0.00010243527 0.00083225087 0.0029150094
0000b0 22 81 a0 ba f8 e4 8b 3a 12 d6 86 b9 a8 3d cd 38
       -0.0012245516 0.0010673096 -0.00025717966 9.786646e-05
0000c0 41 92 e1 3a e0 c3 aa 3a 09 5a 17 bb 1d 21 c5 3a
       0.0017209725 0.0013028346 -0.0023094437 0.0015039776
0000d0 a3 7c cf 3a ef 17 9a ba 9b 2c d6 ba 3c 94 04 bb
       0.0015829991 -0.00117564 -0.0016340198 -0.0020229956
0000e0 65 2a 0d 3b 32 e9 72 b9 31 e6 fa 39 2c d9 c8 3a
       0.0021540162 -0.0002316579 0.00047855222 0.0015323511
0000f0 05 9d 2a 3b 38 b2 b7 b9 6d c9 c9 39 d8 15 e6 39
       0.0026033532 -0.00035037263 0.0003848778 0.00043885293
000100 7a aa 31 3b 54 d6 31 3b c6 fb 3c ba 8e 22 66 3a
       0.0027109669 0.0027135806 -0.0007209148 0.0008778953
000110 62 ff 20 ba 0d cc c8 39 6e 65 0c bb f9 2e 9c 3a
       -0.00061415706 0.00038299002 -0.0021422761 0.0011915854
000120 d8 00 dd ba 21 b5 4e 3b 71 b2 e4 3a 05 5c 1c 3b
       -0.0016861213 0.0031541067 0.0017448199 0.002385856
000130 c1 39 09 3b 4f 61 04 b9 d5 4c 26 3b 6a 15 e9 3a
       0.0020938965 -0.00012624751 0.0025375385 0.0017782871
000140 67 ff 13 39 9f 51 0b bb 17 86 bb ba e3 a0 34 3b
       0.00014114157 -0.0021258367 -0.001430693 0.0027561716
000150 ed 7a 51 ba a9 6e 3a 39 ad 4e 1e 3b 82 16 f1 39
       -0.00079910347 0.00017779566 0.002415578 0.00045983872
000160 12 b0 40 bb b4 2e 37 3b a3 d6 d5 3a e7 23 06 bb
       -0.002940182 0.0027951421 0.0016314577 -0.0020468177
000170 ef 9a 06 3a 5b dd d6 ba 45 20 a9 38 8b 0c 00 ba
       0.0005134781 -0.0016392873 8.064559e-05 -0.00048846815
000180 c6 db ef 3a f8 7a 7c 3a ae dc 0a 3b 02 47 21 3b
       0.001829975 0.0009631361 0.0021188664 0.0024608974
000190 81 1b 95 3a 74 e9 96 ba 07 a8 08 3b 3d de b0 b9
       0.0011375995 -0.0011513666 0.0020852105 -0.00033734916
0001a0 69 46 8f ba 97 2c 95 3a 62 05 c2 ba 00 14 d5 b8
       -0.0010931018 0.0011381087 -0.001480263 -0.00010160357
0001b0 16 f2 46 ba fe 4b 1d bb d9 54 1d bb 9d f1 98 ba
       -0.0007589174 -0.0024001594 -0.0024006872 -0.0011668686
0001c0 dc 96 0a 39 ad 43 0b bb ec 29 92 3a c8 2b 14 3b
       0.00013216905 -0.0021250055 0.001115141 0.0022609103
0001d0 e2 bc 84 ba fa e6 67 3a 1b 3f 05 3b f9 31 a3 b9
       -0.0010127092 0.0008846369 0.0020331803 -0.00031127015
0001e0 5c a4 ca 3a 52 27 08 3b 2a 5f 14 3b 99 02 0e 3b
       0.001546036 0.002077539 0.002263973 0.0021669029
0001f0 6f 94 a8 3a bf fd 41 ba 0e 44 ac 3a 27 a8 c4 ba
       0.001286162 -0.0007400177 0.001314284 -0.0015003727
000200 13 3e 15 3b 81 19 e7 ba 31 7f 72 3a 15 6d 10 3a
       0.0022772595 -0.0017631502 0.00092505204 0.00055094186
000210 f5 3a a1 b8 00 55 c5 ba 08 13 44 3b fa c4 7f b9
       -7.68806e-05 -0.0015055239 0.002991857 -0.00024392075
000220 07 55 31 3a c0 67 17 3b 8e 61 c3 3a ee df d1 ba
       0.0006764684 0.0023102611 0.0014906393 -0.0016012171
000230 cf 4c aa ba 6e 5c 6d ba 9f d6 4e 3a 44 04 e4 3a
       -0.0012992861 -0.00090546056 0.00078902574 0.0017396291
000240 34 0d 01 3b f7 36 1a 3b 9e 78 4f 3a a9 20 37 3b
       0.0019691708 0.0023531297 0.00079143967 0.002794305
000250 87 19 a1 ba 38 ad 9d ba 70 b1 49 3a 6b 09 09 bb
       -0.0012290933 -0.0012029773 0.0007693982 -0.0020910155
000260 bf 6f ae 3a ee 93 c7 3a 34 88 0c 3b b3 2e 02 bb
       0.0013308449 0.0015226582 0.0021443488 -0.001986426
000270 71 45 0e b7 e8 62 90 3a 84 db 0d 3b 8e 03 f8 b9
       -8.480028e-06 0.0011015804 0.0021645734 -0.00047304895
000280 80 ee 15 bb d5 8c 05 3a 8f f0 2a 3b a1 59 1d 3b
       -0.0022877753 0.0005094533 0.0026083326 0.0024009722
000290 67 0a 78 ba 9f ed 44 3b b5 81 ee 39 1b 7d 2c 3b
       -0.0009461999 0.003004886 0.00045491537 0.0026319686
0002a0 4c 2f 12 bb a2 50 cf b9 b8 0b 9c 3a b2 6c 2e 3a
       -0.0022306023 -0.00039542193 0.0011905348 0.000665377
0002b0 e9 98 79 ba 54 9a 30 3a 9c 91 a5 3a 27 aa a2 ba
       -0.00095213816 0.0006736864 0.0012631896 -0.0012410328
0002c0 07 88 6a 3a 4b e5 b1 3a fd 50 87 ba 6a cc 1c bb
       0.0008946661 0.0013572363 -0.0010323819 -0.0023925551
0002d0 83 c8 43 3b 50 d7 8c 3a 6c 36 16 bb 1d f2 04 3b
       0.0029874153 0.001074532 -0.0022920622 0.0020285912
0002e0 bb fe f6 3a ec b6 0b bb df c8 e1 b9 6a 31 e7 ba
       0.0018844226 -0.0021318747 -0.00043065005 -0.0017638628
0002f0 e7 a5 80 37 73 59 c8 3a 1d 8c b6 ba 9e b3 3c 39
       1.5336043e-05 0.0015285447 -0.0013927255 0.0001799599
000300 69 4a b4 3a 61 f5 8f 3a be 81 0e 3b 6e 99 c7 3a
       0.0013755086 0.0010983163 0.0021744813 0.0015228221
000310 2e a8 09 bb 13 47 06 bb 5f 44 b5 3a 7a 63 ed ba
       -0.0021004784 -0.002048914 0.001382958 -0.0018111311
000320 44 76 18 b8 6d 77 6a 3b bc e0 bf b8 66 a1 9e ba
       -3.6349767e-05 0.003577675 -9.14945e-05 -0.0012102544
000330 bf b6 3b ba c7 ac 96 3a b6 26 e2 3a fd 2f 12 bb
       -0.0007160715 0.0011495583 0.0017253968 -0.0022306435
000340 7d 44 47 3a 36 4d 16 bb 4b 72 58 3a 0f 0c 6e 3a
       0.0007601453 -0.0022934205 0.0008256777 0.00090807764
000350 15 a5 36 3b 9a b3 cd 3a a3 1e 88 ba 9e ed a7 ba
       0.0027869393 0.0015693784 -0.0010385107 -0.0012811904
000360 bf a0 f4 3a 34 a5 7c ba 97 87 c8 b9 67 ec 0d 3b
       0.0018663629 -0.00096376543 -0.00038247995 0.00216558
000370 75 cc dc 3a 5d 64 22 bb d8 49 5c 3b 07 36 1b bb
       0.0016845601 -0.002477906 0.003361335 -0.0023683326
000380 2e f5 40 b9 bb 86 a2 ba b9 04 c4 3a 2b ee 20 3b
       -0.00018401883 -0.0012399772 0.0014955021 0.0024556022
000390 72 ba 19 3b 61 42 ba ba f4 2e f3 b9 ac e2 1d 3b
       0.0023457077 -0.0014210456 -0.00046383555 0.0024091406
0003a0 b1 29 11 3b 08 18 3f 3b d3 67 e4 ba 8b 1c 1d 3b
       0.0022150094 0.002915861 -0.0017425962 0.0023973312
0003b0 50 3c 0b 3a 06 97 04 3b b9 32 d8 3a 0a 6e f5 ba
       0.00053114165 0.0020231619 0.0016494609 -0.0018724811
0003c0 bf 56 c8 3a 40 f2 f9 39 2a d1 0d bb c7 04 b9 3a
       0.0015284641 0.0004767347 -0.0021639564 0.0014115804
0003d0 d4 91 08 3b 3f b6 8a 3a 74 fa 17 3b c5 2a e0 ba
       0.0020838873 0.0010582878 0.0023190053 -0.001710259
0003e0 40 eb 2e bb ea 1a 8e ba 20 e4 00 3b f4 b2 8b 3a
       -0.0026690513 -0.0010841761 0.0019667223 0.0010658191
0003f0 a2 fa 03 bb a8 e6 45 ba 81 d3 2d bb a2 7c d4 3a
       -0.0020138402 -0.0007549324 -0.0026523771 0.001621146

network_body._body_endoder.seq_layers.4.weight f4 [256, 256]
000000 2c 5b 54 3d b9 3c 77 bd a7 51 2e bd a6 26 3b 3c
       0.05184476 -0.060360644 -0.04255834 0.011422789
000010 4e 7c 03 bd dc cb 28 bb 5f 1c 8d bd c3 93 1f be
       -0.032100968 -0.0025756275 -0.06890177 -0.1558371
000020 b1 9c 57 3d 8d f3 0a be 0d f6 04 3d 5d 7c 42 bd
       0.052639667 -0.1356947 0.032461215 -0.047481883
000030 dd fb 8b bc e9 4f 4f bc 4a 67 88 bb 44 73 9d 3c
       -0.017087871 -0.012653329 -0.0041627036 0.019220002
000040 d5 e4 9b 3d 4d 44 a7 3d 0a a2 8f 3c 9c 67 df bc
       0.076120056 0.08167324 0.017533321 -0.027271084
000050 22 13 14 3c 18 65 fe 3c db ca 81 bc be 65 d8 bc
       0.009037765 0.031054065 -0.0158438 -0.026415702
000060 2a 85 87 bd 39 a3 af 3c 33 a9 1d ba 91 1c 14 bd
       -0.06617196 0.021440135 -0.00060142874 -0.036160056
000070 54 2e 32 3d af 03 15 3d e5 0d eb bd 12 43 04 3d
       0.043501213 0.036380466 -0.114772595 0.032290526
000080 17 73 8a 3d a8 37 48 bc e5 6d 74 3d 11 cc 39 be
       0.06760233 -0.012220301 0.059675116 -0.18144251
000090 c6 8b 04 bd 08 45 9d 3d 27 d4 01 3d 23 d5 52 bd
       -0.03235986 0.07679182 0.031696465 -0.051472794
0000a0 ac 63 f8 bb 0b d6 5e 3d dc d5 ac 3c 50 f9 69 3b
       -0.007580241 0.054403346 0.02109807 0.003570158
0000b0 ea 31 e8 bd f8 88 b4 3d 8c be 64 bd d1 5c e0 bc
       -0.11337645 0.08815187 -0.055845782 -0.027388008
0000c0 28 fe c5 bc ff 2b fc bc 05 60 80 bd 19 3e 36 bd
       -0.024169043 -0.030782698 -0.06268314 -0.044492815
0000d0 29 86 cc bd 17 19 6f 3d 3d 8a a4 bb 2d 47 18 3d
       -0.099865265 0.058373537 -0.005021362 0.037177254
0000e0 18 e1 0c bd 30 5d 0a bd 0f 6d ed 3d bc 5b 10 3d
       -0.034394354 -0.033780277 0.11593067 0.035243735
0000f0 35 61 13 3d 0d 88 60 3d d8 88 05 3d d2 e2 9e bd
       0.035981376 0.054817248 0.032601207 -0.07758106
000100 c9 30 99 3d 8d 16 19 bc 24 f8 37 bd 94 e3 7c bd
       0.07480008 -0.009343755 -0.04491438 -0.061740473
000110 20 2b 81 3d d2 66 55 bd 51 e7 2f 3c 2f 0a 63 bb
       0.063070536 -0.05210001 0.0107363025 -0.003464352
000120 15 df aa bc f9 be a6 3c 95 37 5a 3d bc 0b b6 bd
       -0.020858327 0.020354735 0.053275663 -0.08888957
000130 56 61 de bc 6a fa e3 bd 27 f4 dd bd f2 21 b9 bd
       -0.027146023 -0.11131747 -0.10837584 -0.09039678
000140 63 a8 3a bd f6 c5 1a 3c 9f 74 9f 3c c4 68 e2 3d
       -0.045570742 0.009446612 0.019464789 0.11055139
000150 2c a4 1f bb 3f 4e 18 bd 89 21 b4 3d 35 80 f9 3d
       -0.0024359329 -0.037183996 0.08795459 0.12182657
000160 44 5b ee 3d 10 da 42 3d 8d 09 87 3d ea f0 33 bb
       0.11638501 0.04757124 0.065936185 -0.0027456828
000170 04 fd 27 bd ac 56 b8 bd 74 58 8a 3c eb e1 5b 3d
       -0.04101278 -0.09000906 0.01688788 0.05368225
000180 c0 9f 7a bc 34 5d 9b 3d c4 43 f6 3c 52 71 e4 bd
       -0.015296876 0.075861365 0.03006161 -0.11154427
000190 f6 a3 96 bc 8b f7 29 3e 5b 3a 4c 3d aa ce 15 3d
       -0.01838873 0.16598336 0.04986034 0.036574043
0001a0 d6 96 8c 3d 0d bd 38 3c 48 df 8a bc d7 3e a8 3d
       0.06864707 0.011275542 -0.016952172 0.08215111
0001b0 9d a3 0e 3d ec c3 df 3c 06 a0 e7 bd ca d4 b3 bc
       0.034824003 0.027315103 -0.11309819 -0.021952052
0001c0 60 79 fa 3c f7 0d 0c be 7e 01 0d bd 34 ed de bc
       0.030575454 -0.13677202 -0.03442525 -0.027212717
0001d0 f0 b0 20 3e d2 6c ad bd c1 ff 46 3b bc 47 8c 3d
       0.15692496 -0.084680215 0.0030364844 0.0684962
0001e0 c0 4f 99 3c 05 02 5b bd 91 5e db bc 4b 66 60 3d
       0.018714786 -0.053468723 -0.026778491 0.054785054
0001f0 52 04 40 bd 18 63 ee bb 08 86 09 3d 61 f0 d5 bd
       -0.04687912 -0.0072749965 0.033575088 -0.10446239
000200 bb 54 8c bd 88 fd fd bc 2b 3b 00 3e 5d 88 eb 3d
       -0.068520986 -0.031004682 0.12522571 0.115006186
000210 cb 6d d6 3c 59 32 fd bb fc f3 d6 3d cf e9 88 bd
       0.0261754 -0.007726949 0.10495755 -0.066852205
000220 48 8d 24 3e 0e 8c af 3c 00 bf 67 bd 39 3c ac 3d
       0.1606952 0.021429088 -0.056578636 0.08409924
000230 17 a2 25 bc f2 2c 5d bd 61 a7 f1 bd c2 84 a8 bd
       -0.010109446 -0.05399794 -0.11799503 -0.082284465
000240 f7 f0 13 3d ec 35 c6 bc 3a ee de bc cd 80 56 3d
       0.036118474 -0.024195634 -0.027213205 0.052368928
000250 44 1e 02 bd 06 e0 c4 3d 8a 25 52 3c 02 ac bb 3c
       -0.031767145 0.096130416 0.012826333 0.022909168
000260 e2 f7 05 3c dd ed 2c bd ff 89 33 3d d3 4a a5 3d
       0.008176776 -0.04221903 0.043832775 0.08070912
000270 5d 7d 18 bd 18 37 17 bd bf b0 47 3d b1 a1 d0 3d
       -0.03722893 -0.036917776 0.048752543 0.1018709
000280 54 97 b3 3c 24 de b2 bc 06 3b c6 bc b2 86 9c 3d
       0.021922745 -0.02183444 -0.024198066 0.076428786
000290 30 41 a6 bd e3 79 9e bb c4 1d fc 3b 1e 7b 80 3d
       -0.08117902 -0.0048363074 0.007693978 0.06273483
0002a0 bd 12 8b bd ad 51 91 bd 16 16 3b bd 2c d8 fa bc
       -0.067906834 -0.070956565 -0.04567536 -0.030620657
0002b0 cf 00 50 3d 96 b3 3d bb 0e f6 c4 bd bd 93 2a bd
       0.05078202 -0.0028946153 -0.09617244 -0.0416448
0002c0 3e 0b 56 bd 59 5e 98 bd bb dc 94 3c aa d4 03 bc
       -0.052256815 -0.074398704 0.018171659 -0.0080463085
0002d0 b6 ea 8d bc 1f ea 6a bd ff 07 ec 3c e8 77 80 bd
       -0.017323833 -0.05735218 0.028812407 -0.0627287
0002e0 cb 70 0f 3d 92 d2 bc 3d 86 54 2f bd 32 85 d9 bd
       0.035019677 0.092198506 -0.042805217 -0.10621108
0002f0 e5 83 25 3d 4f df 93 bd 3c 37 77 3c 29 44 64 3d
       0.040408988 -0.07220327 0.0150888525 0.055729065
000300 ac 30 92 3d 24 2b 1b 3d 94 7e be bd 6e 00 4f 3b
       0.0713819 0.03788294 -0.093014866 0.003158595
000310 5f da 74 3d 11 55 bf 3c 7c c7 88 bd cc 7b 2e 3d
       0.059778567 0.023355993 -0.066786736 0.04259853
000320 c0 f1 0c 3d 2e c5 eb 3d 9e c7 02 3d f0 98 87 bd
       0.03441024 0.115122184 0.03192865 -0.066209674
000330 49 42 28 3e 0a 53 93 3d ce 50 99 bc 5d 13 9f bd
       0.16431536 0.07193573 -0.018715288 -0.07767365
000340 5e a7 ad 3c 2f a3 50 bd e3 89 fb 3d 8e c6 7a 3d
       0.021197971 -0.050936874 0.12282159 0.061224513
000350 dc 06 c2 3d a2 05 f0 3b e0 1e 1a bd 85 07 fe bb
       0.094739646 0.0073248902 -0.0376271 -0.0077523612
000360 6a fa 05 bc bc f9 4e 3b a0 06 fe bb 78 60 3d bd
       -0.008177379 0.0031581959 -0.0077522546 -0.046234578
000370 bd ba ef bb 34 1a 32 3b 8e d2 20 bd 27 2e 33 3d
       -0.007315962 0.0027176263 -0.0392633 0.043745186
000380 03 3a f7 3d ce 20 64 bd 9b bf 8b 3d 17 83 dd bc
       0.12071612 -0.055695347 0.06823655 -0.027040048
000390 1e 1d 4c bd 4d 74 0c 3d 15 f1 ad 3a ca bf be bd
       -0.049832456 0.0342906 0.0013270701 -0.093139246
0003a0 12 60 ae bc 68 82 f9 bc 7b 4d 89 bc 46 72 1d 3e
       -0.021286044 -0.03045769 -0.016760578 0.15375623
0003b0 0f b9 37 3c 5f fc ca 3d b3 e1 73 3b 99 7b 8d bd
       0.011213555 0.09911417 0.0037213385 -0.0690834
0003c0 9a e5 e5 bc 17 6d 4c bd ae 47 0d bc 3c 37 c3 bd
       -0.028063584 -0.049908724 -0.008623047 -0.095320195
0003d0 05 ba a2 3d 30 99 c4 bc 4b d7 a1 bd 68 92 d0 ba
       0.07945637 -0.023998827 -0.07902392 -0.0015912773
0003e0 41 d0 4d 3d 81 6b 11 3e 21 f4 5a bb a3 7c 75 3c
       0.050247435 0.14201166 -0.0033409672 0.014983329
0003f0 e6 c7 b9 3b d7 2f d5 bd cc e0 d4 bc 76 68 81 3c
       0.0056695817 -0.10409515 -0.025986098 0.015796881

network_body._body_endoder.seq_layers.4.bias f4 [256]
000000 71 a2 c4 ba 31 42 05 b9 33 fa f9 ba ff 9c d0 3a
       -0.0015002025 -0.00012708527 -0.0019071758 0.0015915929
000010 8f f1 cc ba a0 81 4e 3b 3a 0b 14 bb 44 f5 f8 3a
       -0.0015635955 0.0031510368 -0.00225897 0.0018993993
000020 a7 1c 39 ba c6 bd 04 3b 27 b9 3e 3a ca fb 0e 3b
       -0.00070614595 0.0020254715 0.00072755147 0.0021817558
000030 be 1e 1a 3b b1 9d ee ba 57 c9 cf b9 59 3b 1a 3b
       0.002351686 -0.0018204955 -0.00039632127 0.002353391
000040 a8 db 0f bb b5 f5 8f 3a 8d 71 08 b9 41 58 86 3a
       -0.0021950994 0.001098326 -0.00013012272 0.001024969
000050 ae 74 2d ba 95 90 03 bb e2 d5 06 3b 12 13 31 3b
       -0.0006616813 -0.0020075191 0.0020574261 0.0027019423
000060 93 eb 2d 3a 2b a9 13 bb 87 68 d8 3a 2d c0 0b bb
       0.00066345296 -0.0022531252 0.0016510644 -0.0021324262
000070 48 2d d8 b9 0c 92 22 3b 47 1b 15 bb d0 3b cb ba
       -0.00041232468 0.002480629 -0.0022751854 -0.0015505496
000080 d2 2f 1a bb 3d 8b 18 3b 48 0b 20 3b c4 f0 f4 3a
       -0.0023527038 0.0023276352 0.0024420787 0.0018687476
000090 e4 87 f7 b9 19 ab 2b bb 24 7b ce 3a 01 d9 9c ba
       -0.00047212758 -0.0026194511 0.0015753252 -0.0011966528
0000a0 e7 16 d6 3a 94 d7 14 3b 17 92 12 bb dd e6 03 bb
       0.001633373 0.0022711502 -0.0022364908 -0.002012662
0000b0 71 4f 93 ba 58 61 20 3b 3a 3b 6a b9 96 8e 0c bb
       -0.0011238885 0.0024472084 -0.00022338043 -0.0021447293
0000c0 d6 ca d4 ba 87 1d 42 3a 49 cc 62 3a 18 0d 8f 39
       -0.0016234766 0.00074049126 0.00086516567 0.0002728484
0000d0 be b8 f0 3a 6a 76 19 3b d7 41 8c ba 5b a9 ac 3a
       0.0018365604 0.0023416528 -0.0010700774 0.001317303
0000e0 c7 a9 30 ba 3d e1 d6 ba ad 0c fd 3a 2b dd 50 3a
       -0.0006739166 -0.001639403 0.0019306146 0.0007967527
0000f0 05 56 cc ba 88 9a 02 3b 35 67 f7 ba d4 6a 0d bb
       -0.0015589601 0.0019928534 -0.0018875363 -0.0021578567
000100 2f 52 20 3b 41 73 19 3a ae 13 d9 ba 3b 96 ff ba
       0.0024463048 0.0005853661 -0.0016561651 -0.0019499728
000110 68 80 0f bb 66 0a f4 39 b3 1b 6f 3a 5f 80 08 3b
       -0.0021896604 0.00046547054 0.0009121254 0.0020828468
000120 09 e2 19 3b d4 0d 04 bb 54 05 e6 ba 77 f4 02 bb
       0.0023480675 -0.0020149844 -0.0017549195 -0.0019982138
000130 21 45 e8 ba 00 a5 15 3a 64 e3 01 3b 08 ff ca ba
       -0.0017720797 0.0005708486 0.0019819373 -0.0015487382
000140 12 0b 07 3b be 11 39 3b 3a 6a 1d 3b 20 2f da 3a
       0.0020605964 0.0028239335 0.0024019615 0.0016646124
000150 30 18 27 3b a6 cc 1a 3a 34 8a ab 3a d5 0c 1b bb
       0.0025496595 0.0005905129 0.0013087452 -0.0023658772
000160 26 f7 00 bb a2 3e 18 bb 8a fb 76 3a 7d ef 19 3b
       -0.0019678562 -0.0023230691 0.00094216375 0.0023488693
000170 1a eb b9 b7 3c 0f 09 3b 83 a7 cf 3a c0 7f 28 ba
       -2.2163196e-05 0.0020913621 0.0015842769 -0.00064277276
000180 70 db 27 bb 3d c3 cd 3a 1c b1 1a bb 7b 05 b4 38
       -0.0025612973 0.0015698444 -0.00236041 8.58409e-05
000190 9b 27 05 bb 4f e7 a1 3a d9 a8 d6 ba 9c 02 b2 ba
       -0.0020317796 0.001235226 -0.0016377225 -0.00135811
0001a0 6f ca 84 b9 5a 07 8b 3a fa 5b f1 3a a1 69 fe ba
       -0.00025327827 0.0010607049 0.0018414252 -0.0019410142
0001b0 33 5f 9b ba 70 e9 eb 3a 15 88 a0 39 cc 08 0f bb
       -0.0011853933 0.0017998647 0.00030618967 -0.0021825312
0001c0 2a f9 e0 39 48 30 fb b9 b9 fc 32 ba 97 62 f2 ba
       0.0004291025 -0.00047910423 -0.000682782 -0.0018492517
0001d0 ff a8 0c bb aa 3c e6 3a 7b 05 2b ba 07 ff 3e 3b
       -0.0021463034 0.0017565687 -0.0006523949 0.0029143707
0001e0 cc 62 12 3b c9 7e 0d bb fd 69 09 bb 2d 4e 9f 39
       0.002233672 -0.0021590462 -0.0020967715 0.0003038509
0001f0 cd 1b 88 b9 90 ac 00 bb 93 cf c9 3a 0d fd 10 bb
       -0.00025960655 -0.0019634105 0.0015396945 -0.0022123486
000200 5e a3 1f ba 98 cc 27 3b 58 e6 88 ba f5 1d 0f 3b
       -0.0006089712 0.0025604125 -0.0010444624 0.0021837924
000210 5d a1 2d 3b e8 20 19 3b 02 51 fe 3a 54 cb 3b 3b
       0.0026493885 0.002336556 0.0019402804 0.0028655129
000220 01 ce 4e 3a 60 93 28 ba a7 b7 0c bb 76 bf 8f ba
       0.00078889733 -0.0006430652 -0.002147177 -0.0010967094
000230 7a f9 f7 3a b4 26 6a 3a f0 ef 15 bb 2d ca 1f 3b
       0.0018918954 0.0008932159 -0.002287861 0.002438198
000240 52 b7 1d 3b 4a 43 32 b9 29 48 a1 3a 17 dc b8 b9
       0.0024065566 -0.0001700047 0.0012304831 -0.00035259195
000250 7d ad 24 3b 38 b6 1c 3b 88 ac ad 3a 6b e9 95 ba
       0.002512782 0.0023912322 0.0013250271 -0.0011437362
000260 a5 df 91 3a e5 1e 0f 3b f4 24 f7 ba ae 62 0b 3b
       0.0011129273 0.0021838483 -0.0018855617 0.0021268534
000270 24 e0 37 3a cd 97 25 37 46 95 f7 3a 44 7d 9c 3a
       0.00070142956 9.87011e-06 0.0018889091 0.0011939188
000280 17 70 12 3b 4a 46 f9 ba 8e 84 01 3b c8 15 86 3a
       0.0022344643 -0.001901814 0.0019762847 0.001022988
000290 e0 a6 2b 3b 9b 67 15 3b 81 94 58 3a 16 76 08 bb
       0.0026191995 0.002279735 0.0008261875 -0.0020822338
0002a0 d2 7d e7 ba df ab e1 3a 63 28 05 bb 7b d5 16 b8
       -0.0017661399 0.0017217359 -0.0020318262 -3.5961606e-05
0002b0 5f b7 e9 ba e5 23 2f b9 74 d1 0f 3a b3 ac 85 ba
       -0.0017831138 -0.00016702672 0.0005486228 -0.0010198563
0002c0 af 5f fb 3a 84 b9 f3 ba a7 84 07 3b 9f 75 89 3a
       0.0019178296 -0.0018594717 0.0020678432 0.0010487324
0002d0 b7 27 a4 ba 8c 94 fe 3a 86 d0 23 3b 9f 70 31 3b
       -0.0012524043 0.0019422933 0.0024996116 0.0027075184
0002e0 67 f9 6f ba 32 6f 0d bb f9 d2 d4 b9 fe 19 2a 3b
       -0.00091542903 -0.002158117 -0.00040592978 0.0025955434
0002f0 67 b8 f8 3a 21 96 8e 3a 9a 0f 00 3b b4 d0 89 3a
       0.0018975855 0.0010878482 0.001954055 0.0010514469
000300 22 e6 ef 3a dd 78 0d 3b 6e bd 13 bb d2 9d 0d bb
       0.0018302838 0.0021586933 -0.0022543329 -0.002160896
000310 85 33 71 ba 63 48 fe 3a fe 7b 00 bb 24 a8 fd 3a
       -0.00092010974 0.0019400235 -0.0019605155 0.0019352478
000320 61 6f f6 ba ef 44 72 b9 d4 de 6b b9 d0 d0 85 ba
       -0.0018801504 -0.00023104598 -0.00022494356 -0.0010209326
000330 d5 dc fb ba ef 3a 61 3a 47 4b 25 3b 42 a8 8c ba
       -0.0019215593 0.00085918506 0.002522187 -0.0010731297
000340 6b f8 c4 b9 cf 22 e0 3a 0d d8 f0 ba e3 29 5f ba
       -0.0003756912 0.0017100218 -0.0018374935 -0.00085130165
000350 0d 91 f8 ba 6b 76 c3 ba 90 24 e4 3a 1d b1 18 bb
       -0.0018964127 -0.0014912611 0.0017405916 -0.0023298927
000360 ad dd c4 b9 8c d4 03 bb 49 6d 1b 3b d7 af 07 3b
       -0.00037549195 -0.0020115701 0.0023716262 0.0020704174
000370 8e 0e 07 3b 59 82 f2 3a c2 84 12 bb e3 4f d4 3a
       0.002060804 0.0018501981 -0.0022356962 0.0016198125
000380 86 c7 a3 ba c9 ae f9 ba 3f 56 29 3b 00 19 b1 b9
       -0.0012495376 -0.0019049282 0.002583876 -0.00033778697
000390 78 92 9e 3a 65 28 31 bb 73 cb a8 39 b0 e0 62 39
       0.0012098094 -0.0027032134 0.00032195039 0.00021636742
0003a0 0a 05 08 bb 61 fd 0e bb 59 b0 11 bb d8 20 03 3b
       -0.0020754957 -0.0021818506 -0.0022230356 0.002000859
0003b0 1c 0a c4 38 09 f1 f0 ba f8 55 03 bb 71 5c 96 3a
       9.347891e-05 -0.0018382381 -0.0020040255 0.0011471641
0003c0 74 d2 d9 3a 55 f1 e9 ba 1a 5d 1a 3b 0d 2a 27 bb
       0.0016618506 -0.0017848412 0.0023554028 -0.0025507242
0003d0 55 4f f1 ba 24 09 ed b8 e4 4d fd 39 e5 75 11 bb
       -0.0018410484 -0.00011302743 0.00048313953 -0.0022195515
0003e0 57 1d 0e 3a 95 d6 27 3b ca 17 02 bb 90 5b bf 3a
       0.0005421242 0.0025610079 -0.0019850605 0.0014599431
0003f0 76 d4 f0 3a 79 9b 07 bb 20 47 f7 b9 24 ae e7 ba
       0.0018373865 -0.0020692034 -0.00047164503 -0.0017675799

action_model._continuous_distribution.log_sigma f4 [1, 2]
000000 d1 cd c0 3b dc fb 8c 3b
       0.00588391 0.004302485
